checkpoints/bigram.ckpt (torch, 56087 bytes, 3 tensors)

tok_embedding.weight f4 [65, 65]
-4.368268 -6.3793354 -2.3844836 -3.8838453 1.8720413 -3.9697978 -5.639471 -4.7445874
-4.4493027 -5.8863115 -4.335916 -3.9759517 -2.883395 -4.020121 -4.7344465 -5.1371527
-4.5027 -3.8166947 -4.780602 -3.1028013 -4.280534 -4.945887 -4.001398 -5.8739014
-5.643795 -2.323126 -5.1902604 -3.9601505 -4.0234904 -4.0305653 -4.069753 -4.2762194
1.1262332 -3.264927 -4.201225 -4.7428875 -4.3724065 -5.2603574 -4.57387 -3.978003
-5.119257 -3.8513925 -3.0449378 0.5944033 -1.8216324 -5.1007543 0.38611212 0.5763823
-6.504478 -3.1232038 -1.2890095 -3.8311033 -5.1981654 -6.0793386 -4.5883927 -1.0399208
-3.8303368 -4.701101 -5.301643 -7.09499 -1.5412058 -6.0690064 -4.493857 -5.0254216
-3.6750712 -1.178484 -4.1447906 -3.1761723 -4.51703 1.6671181 -3.3366976 -4.9528723
-1.4240649 -4.9903607 -5.0091558 -5.0279093 -4.062778 -3.616123 -5.565636 -5.1151915
-3.2718823 -4.333062 -2.9891775 -6.4506264 -2.7118483 -5.651273 -0.96153647 -4.736661
-4.2076726 -5.414539 -0.49655843 -3.583881 -3.7567472 -5.1736965 -3.875924 -5.5872064
-3.3764086 -2.76056 1.9080371 -4.876639 -5.981893 -4.9281516 1.55848 -4.1442595
-4.342287 -5.941946 -4.5188704 -3.2506244 0.53585756 0.8479576 -3.8698575 0.4360202
2.5229828 -2.752737 -4.664289 -3.237009 -2.9408374 -4.413297 -4.1339025 -3.4045937
-1.5762142 -0.21385568 -5.750062 1.905231 -5.113101 -1.8439133 -0.84072477 -4.6257615
-4.113606 -4.5770054 -5.0601587 -5.6389165 -3.5962896 -1.3948988 -1.3222166 -5.1989455
-1.4120839 -4.5725346 -2.2423522 -6.215134 -2.957959 -3.1058183 -1.4208647 -3.6282854
-4.1653557 1.9983478 -1.8108313 -5.3039746 -1.899184 -2.652279 -4.2011 -3.889431
-1.5923343 -3.6915882 1.0682421 -0.462015 -4.6857905 -3.5547965 -1.7017885 -3.0993614
-3.9297748 -4.0052 0.9762374 -2.2132149 -3.2905598 -5.269585 -2.9926462 -4.372235
-0.31056052 -3.249995 -1.2214546 -0.5350614 -1.9712839 -3.1265507 0.28689477 -3.5582073
-4.44414 1.6885209 -0.8352982 -4.57951 -3.9334373 0.5656452 0.19806375 -0.82583904
-3.8198786 -3.1563816 -4.8584433 -2.59789 0.084597476 -3.9498677 -2.5380268 -1.100151
1.2833589 -3.3371563 -2.372441 -4.140511 -5.5916224 -3.2280886 -5.2395325 -5.511861
-3.2046704 -4.8976383 -6.3258576 -1.871927 -4.159362 -4.7019825 -3.7191875 -5.71936
-4.8741617 -5.273919 -4.534354 -3.8729987 -3.6854548 -3.1188016 -3.0304942 -4.8834715
-3.439651 -2.514391 -4.959723 -4.739115 -4.6761885 -3.8200197 -3.4241436 -4.888874
-3.3212426 -4.707989 -4.342379 1.6336032 -3.891178 -5.265747 -3.783976 -5.1997657
-5.926011 -3.7962935 -3.8465533 -4.8409176 2.819421 -4.654697 -3.5179498 -5.3985653
-5.3427567 -5.0717497 -3.755472 -5.3018937 -4.916899 -4.3781805 -5.3784604 -1.6189682
-3.6659298 -3.3645923 -5.200975 -3.8367662 -4.164137 -3.5621023 -3.5270007 -4.2906156
00000000: dac8 8bc0 8423 ccc0 619b 18c0 ec90 78c0
00000010: 0d9f ef3f 2b11 7ec0 8c76 b4c0 a9d3 97c0
00000020: b060 8ec0 aa5c bcc0 d3bf 8ac0 fe75 7ec0
00000030: 8b89 38c0 d5a4 80c0 9680 97c0 8e63 a4c0
00000040: 1e16 90c0 ba44 74c0 b1fa 98c0 4c94 46c0
00000050: 22fa 88c0 b544 9ec0 740b 80c0 00f7 bbc0
00000060: f899 b4c0 19ae 14c0 9d16 a6c0 1b73 7dc0
00000070: 6fc0 80c0 64fa 80c0 6b3b 82c0 cad6 88c0
00000080: 6928 903f 90f4 50c0 6f70 86c0 bcc5 97c0
00000090: c1ea 8bc0 d954 a8c0 255d 92c0 9a97 7ec0
000000a0: f4d0 a3c0 377d 76c0 43e0 42c0 d12a 183f
000000b0: 402b e9bf 6139 a3c0 7db0 c53e ca8d 133f
000000c0: af24 d0c0 92e2 47c0 43fe a4bf cc30 75c0
000000d0: 5f57 a6c0 f189 c2c0 1dd4 92c0 201c 85bf
000000e0: 3d24 75c0 6b6f 96c0 0fa7 a9c0 280a e3c0
000000f0: 3b46 c5bf 4d35 c2c0 adcd 8fc0 41d0 a0c0
00000100: 5e34 6bc0 90d8 96bf 20a2 84c0 6846 4bc0
00000110: 828b 90c0 2064 d53f 748c 55c0 ee7d 9ec0
00000120: c247 b6bf 09b1 9fc0 014b a0c0 a2e4 a0c0
00000130: 4702 82c0 8f6e 67c0 b119 b2c0 a6af a3c0
00000140: 8566 51c0 72a8 8ac0 af4e 3fc0 886b cec0
00000150: ec8e 2dc0 3ad7 b4c0 4127 76bf ba92 97c0
00000160: 41a5 86c0 e743 adc0 e83c febe 4e5e 65c0
00000170: 8c6e 70c0 ec8e a5c0 240f 78c0 65ca b2c0
00000180: 1417 58c0 04ad 30c0 8f3a f43f 6d0d 9cc0
00000190: ab6b bfc0 6bb3 9dc0 467c c73f c69d 84c0
000001a0: 04f4 8ac0 6c24 bec0 969a 90c0 3b0a 50c0
000001b0: f62d 093f c013 593f bfab 77c0 0a3e df3e
000001c0: 8d78 2140 d82c 30c0 db41 95c0 282b 4fc0
000001d0: ae36 3cc0 bb39 8dc0 ee48 84c0 dde4 59c0
000001e0: 63c1 c9bf fcfc 5abe 8200 b8c0 9cde f33f
000001f0: 869e a3c0 5a05 ecbf bd39 57bf 3d06 94c0
00000200: a9a2 83c0 d476 92c0 d2ec a1c0 0172 b4c0
00000210: 9c29 66c0 0b8c b2bf 653e a9bf c35d a6c0
00000220: 2abf b4bf 3452 92c0 b382 0fc0 61e2 c6c0
00000230: 334f 3dc0 bac5 46c0 e5de b5bf d435 68c0
00000240: 984a 85c0 dcc9 ff3f 52c9 e7bf 29ba a9c0
00000250: 7618 f3bf f0be 29c0 696f 86c0 70ec 78c0
00000260: 9cd1 cbbf fb42 6cc0 28bc 883f 3b8d ecbe
00000270: fff1 95c0 c981 63c0 35d4 d9bf f05b 46c0
00000280: 6e81 7bc0 992a 80c0 b2ea 793f 50a5 0dc0
00000290: 8898 52c0 71a0 a8c0 8487 3fc0 59e9 8bc0
000002a0: ca01 9fbe ebff 4fc0 a058 9cbf c9f9 08bf
000002b0: 0853 fcbf 6819 48c0 dfe3 923e abb9 63c0
000002c0: 6536 8ec0 7421 d83f 1ad6 55bf 598b 92c0
000002d0: 70bd 7bc0 20ce 103f 39d1 4a3e 306a 53bf
000002e0: e478 74c0 2802 4ac0 5e78 9bc0 d443 26c0
000002f0: 7141 ad3d a2ca 7cc0 086f 22c0 bfd1 8cbf
00000300: 1b45 a43f f893 55c0 13d6 17c0 117f 84c0
00000310: 92ee b2c0 0199 4ec0 40aa a7c0 2a61 b0c0
00000320: 5219 4dc0 74b9 9cc0 6d6d cac0 4e9b efbf
00000330: 7e19 85c0 a476 96c0 2b07 6ec0 ff04 b7c0
00000340: 22f9 9bc0 f2c3 a8c0 6e19 91c0 36df 77c0
00000350: 7ede 6bc0 729a 47c0 9ef3 41c0 6645 9cc0
00000360: 3e23 5cc0 c8eb 20c0 0db6 9ec0 d5a6 97c0
00000370: 56a3 95c0 347b 74c0 2b25 5bc0 a871 9cc0
00000380: 3d8f 54c0 d9a7 96c0 c5f4 8ac0 e919 d13f
00000390: 0f09 79c0 0081 a8c0 aa2c 72c0 7b64 a6c0
000003a0: e2a1 bdc0 79f6 72c0 ee2d 76c0 cce8 9ac0
000003b0: 6571 3440 47f3 94c0 1726 61c0 0cc1 acc0
000003c0: ddf7 aac0 c64b a2c0 a759 70c0 1da9 a9c0
000003d0: 3d57 9dc0 0e1a 8cc0 591c acc0 5a3a cfbf
000003e0: 989e 6ac0 7b55 57c0 636e a6c0 948d 75c0
000003f0: 9c40 85c0 7cf9 63c0 61ba 61c0 b94c 89c0

exp_avg f4 [65, 65]
7.86331e-07 1.0524441e-07 5.716803e-06 1.276403e-06 -0.0002247519 1.1712759e-06 2.2055887e-07 5.397228e-07
7.2512415e-07 1.7231439e-07 8.121862e-07 1.1640901e-06 3.4711916e-06 1.1137923e-06 5.4522394e-07 3.6448608e-07
6.8742025e-07 1.3650582e-06 5.2063086e-07 2.7873505e-06 8.5843607e-07 4.413137e-07 1.1348421e-06 1.7446628e-07
2.1960713e-07 6.078558e-06 3.4563396e-07 1.1826302e-06 1.1100458e-06 1.10222e-06 1.0598616e-06 8.621479e-07
0.00019134583 2.3701798e-06 9.292905e-07 5.406411e-07 7.8308335e-07 3.2223542e-07 6.40196e-07 1.1617044e-06
3.7106764e-07 1.3185061e-06 2.9533933e-06 7.842686e-05 1.0026827e-05 3.779974e-07 9.1204325e-05 -0.0002587521
9.286422e-08 2.731058e-06 1.706623e-05 1.3455307e-06 3.4291247e-07 1.4206576e-07 6.30966e-07 2.1908107e-05
1.3465623e-06 5.637115e-07 3.0920245e-07 5.1449558e-08 1.326892e-05 1.4354119e-07 6.9352586e-07 4.0757297e-07
1.5727426e-06 3.2740354e-05 1.6940904e-06 4.462798e-06 1.1675389e-06 -0.00012586587 3.8009437e-06 7.5505864e-07
2.559551e-05 7.2727545e-07 7.1373364e-07 7.0047224e-07 1.8388846e-06 2.8743334e-06 4.0911456e-07 6.419231e-07
4.0554673e-06 1.4033614e-06 5.3804497e-06 1.688304e-07 7.1000554e-06 3.7553505e-07 -0.00083676004 9.3731103e-07
1.5908412e-06 4.7585047e-07 6.473468e-05 2.968521e-06 2.497263e-06 6.0544335e-07 2.2166937e-06 4.0038367e-07
3.652961e-06 6.762487e-06 -0.00032766585 8.148731e-07 2.6980447e-07 7.7395737e-07 0.0005072676 1.6949912e-06
1.3904745e-06 2.808018e-07 1.1653918e-06 4.1426006e-06 0.00018202887 0.00021604379 2.2301826e-06 -0.0008372243
0.00060347706 6.7761866e-06 1.0076633e-06 4.199389e-06 5.6469344e-06 1.295159e-06 1.7126372e-06 3.5514374e-06
2.1982727e-05 8.600842e-05 3.402067e-07 0.00022545397 6.4326645e-07 1.6834736e-05 4.3140662e-05 1.0472451e-06
1.7477532e-06 1.0995714e-06 4.2485105e-08 2.3815854e-08 1.8365668e-07 1.6462582e-06 1.7812013e-06 3.6979312e-08
1.6281641e-06 6.918619e-08 7.095422e-07 1.3383953e-08 3.4772273e-07 2.9992873e-07 1.6142878e-06 1.7787335e-07
1.03958584e-07 4.86033e-06 1.0925029e-06 3.3292178e-08 1.002433e-06 4.720512e-07 1.0030815e-07 1.3699193e-07
1.3597236e-06 1.6696241e-07 1.946438e-05 4.219012e-06 6.177759e-08 1.9143765e-07 1.2189786e-06 3.0187172e-07
1.3157509e-07 1.2201588e-07 1.772747e-05 7.322732e-07 2.4933604e-07 3.4457084e-08 3.3586804e-07 8.4530086e-08
4.900895e-06 2.5965846e-07 1.9741951e-06 3.9154143e-06 9.3270125e-07 2.9377455e-07 8.90493e-06 1.9078577e-07
7.866512e-08 2.5856834e-05 2.8996221e-06 6.8705226e-08 1.3109407e-07 -0.00014212304 8.149864e-06 2.925907e-06
1.4685945e-07 2.8514032e-07 5.1981118e-08 4.984369e-07 7.273667e-06 1.289577e-07 5.291862e-07 2.2243455e-06
5.860935e-06 2.3798435e-07 6.2448476e-07 2.5223885e-06 5.9100915e-07 6.281649e-06 8.4044325e-07 6.4008145e-07
6.43049e-06 1.1830224e-06 2.8360128e-07 2.4305162e-05 2.4752846e-06 1.4386862e-06 3.8440717e-06 5.201362e-07
1.2111256e-06 8.12034e-07 1.7012453e-06 3.2960352e-06 3.9759557e-06 7.0070705e-06 7.653993e-06 1.1999015e-06
5.0838535e-06 1.2824166e-05 1.1118079e-06 1.3862427e-06 1.4762787e-06 3.4753657e-06 5.1633037e-06 1.1934366e-06
5.722916e-06 1.4300707e-06 2.061301e-06 6.656046e-05 3.236656e-06 8.1869723e-07 3.6029153e-06 8.7453867e-07
4.2302625e-07 3.558809e-06 3.384363e-06 1.2520651e-06 -0.00029106555 1.5083509e-06 4.7009785e-06 7.168692e-07
7.580145e-07 9.939774e-07 3.7070913e-06 7.8963166e-07 1.1604549e-06 1.9888082e-06 7.314276e-07 3.0799227e-05
4.0543496e-06 5.4801285e-06 8.7348184e-07 3.417649e-06 2.4634933e-06 4.4979342e-06 4.6586215e-06 2.1708122e-06
00000000: 4114 5335 ba02 e233 f7d2 bf36 e050 ab35
00000010: 61ab 6bb9 bc34 9d35 c3d2 6c34 78e1 1035
00000020: 27a6 4235 6b05 3934 0305 5a35 d53d 9c35
00000030: 9ef2 6836 9d7d 9535 815b 1235 96ae c334
00000040: 2987 3835 0b37 b735 7bc1 0b35 510e 3b36
00000050: 476f 6635 b1ed ec34 e150 9835 ed54 3b34
00000060: 26cd 6b34 6af6 cb36 928f b934 ddba 9e35
00000070: e2fc 9435 feef 9335 9140 8e35 5a6e 6735
00000080: 01a4 4839 610f 1f36 5b74 7935 9320 1135
00000090: 1435 5235 b3ff ac34 efd9 2b35 dceb 9b35
000000a0: 2637 c734 86f7 b035 e932 4636 1a79 a438
000000b0: e538 2837 91ef ca34 f344 bf38 1ea9 87b9
000000c0: a56c c733 3847 3736 7329 8f37 1598 b435
000000d0: 8819 b834 bd8a 1834 a75f 2935 4dc7 b737
000000e0: 87bb b435 f651 1735 7600 a634 63f9 5c33
000000f0: 949d 5e37 4d20 1a34 bc2a 3a35 67d0 da34
00000100: 0617 d335 b052 0938 8160 e335 25bf 9536
00000110: 55b4 9c35 ddfa 03b9 b713 7f36 3caf 4a35
00000120: f0b5 d637 fd39 4335 6797 3f35 1608 3c35
00000130: 98cf f635 ace4 4036 47a4 db34 9f50 2c35
00000140: 3314 8836 215b bc35 b689 b436 bf47 3534
00000150: 033d ee36 259d c934 045a 5bba 869b 7b35
00000160: e384 d535 6478 ff34 2bc2 8738 cd36 4736
00000170: a796 2736 c085 2235 82c2 1436 50f4 d634
00000180: 6425 7536 52e9 e236 91ca abb9 a7bd 5a35
00000190: a5d9 9034 f2c1 4f35 27fa 043a 747f e335
000001a0: 57a0 ba35 1bc1 9634 8f6a 9c35 ab00 8b36
000001b0: 01df 3e39 d089 6239 3faa 1536 2c79 5bba
000001c0: a932 1e3a 005f e336 0c3f 8735 7ae8 8c36
000001d0: cc7a bd36 53d5 ad35 c4dd e535 3b55 6e36
000001e0: 8c67 b837 6b5f b438 a7a5 b634 d767 6c39
000001f0: efac 2c35 5238 8d37 eff1 3438 118f 8c35
00000200: 5894 ea35 fc94 9335 de78 3633 9e93 cc32
00000210: 2a33 4534 00f5 dc35 9c11 ef35 2fd3 1e33
00000220: 4b87 da35 8393 9433 5e77 3e35 3fef 6532
00000230: a6ae ba34 e405 a134 82aa d835 74fd 3e34
00000240: d63f df33 eb15 a336 1da2 9235 23fd 0e33
00000250: 568b 8635 396e fd34 fd68 d733 0e18 1334
00000260: bf7f b635 4746 3334 7047 a337 0a91 8d36
00000270: 97aa 8433 fb8d 4d34 c99b a335 ef10 a234
00000280: 1647 0d34 7803 0334 74b5 9437 6e91 4435
00000290: 7cdc 8534 f7fd 1333 5a51 b434 e886 b533
000002a0: 5e72 a436 3067 8b34 6a7c 0436 2761 8336
000002b0: be5e 7a35 11b8 9d34 6266 1537 cbda 4c34
000002c0: 9bee a833 21e7 d837 2197 4236 198b 9333
000002d0: ddc2 0c34 dd06 15b9 66bb 0837 b35a 4436
000002e0: 6bb0 1d34 6315 9934 d841 5f33 53cc 0535
000002f0: 5310 f436 9f77 0a34 660d 0e35 f745 1536
00000300: 0ca9 c436 a488 7f34 44a2 2735 4e46 2936
00000310: d7a5 1e35 f4c6 d236 d29a 6135 10d2 2b35
00000320: 7dc5 d736 57c8 9e35 dd41 9834 f0e2 cb37
00000330: 111d 2636 e218 c135 53fc 8036 7d9f 0b35
00000340: f58d a235 8dfa 5935 5856 e435 7431 5d36
00000350: 3369 8536 471e eb36 a669 0037 4d0c a135
00000360: f895 aa36 6027 5737 6e39 9535 f00e ba35
00000370: 8d24 c635 543a 6936 7140 ad36 2b2e a035
00000380: 7907 c036 dbf0 bf35 e254 0a36 6096 8b38
00000390: 5435 5936 72c4 5b35 9dc9 7136 d7c1 6a35
000003a0: 491c e334 e0d3 6e36 ea1e 6336 a10c a835
000003b0: 289a 98b9 8b72 ca35 19bd 9d36 e06e 4035
000003c0: 5c7a 4b35 ce68 8535 58c7 7836 13f7 5335
000003d0: edc0 9b35 7777 0536 5257 4435 6b2e 0138
000003e0: 990a 8836 f2e1 b736 3779 6a35 c35a 6536
000003f0: 7e52 2536 f6ec 9636 4151 9c36 45ae 1136

exp_avg_sq f4 [65, 65]
1.1945086e-11 2.1137412e-13 6.3241246e-10 3.1497385e-11 1.0891576e-06 2.6519804e-11 9.352127e-13 5.6226456e-12
1.0156326e-11 5.6975366e-13 1.2744256e-11 2.6195154e-11 2.3311972e-10 2.3979008e-11 5.7380264e-12 2.5608816e-12
9.1266595e-12 3.602729e-11 5.231325e-12 1.502996e-10 1.4238494e-11 3.75687e-12 2.48945e-11 5.8413913e-13
9.271266e-13 7.149929e-10 2.302281e-12 2.7036741e-11 2.3817845e-11 2.3482969e-11 2.1711587e-11 1.4361991e-11
7.412422e-07 1.08665826e-10 1.6688423e-11 5.6418203e-12 1.1846562e-11 2.0005128e-12 7.9144755e-12 2.6087835e-11
2.6543988e-12 3.3610864e-11 1.6874553e-10 9.874219e-07 7.668418e-09 2.754667e-12 5.3154054e-07 3.0564212e-07
1.6426307e-13 1.4428836e-10 4.556785e-07 3.5003476e-11 2.266084e-12 3.8656052e-13 7.687642e-12 4.706863e-08
3.5057197e-11 6.1343747e-12 1.8416052e-12 4.977852e-14 2.4799427e-08 3.9467813e-13 9.289679e-12 3.203489e-12
4.7831062e-11 2.1718778e-08 5.831489e-12 4.0539596e-11 2.7662742e-12 5.945297e-07 2.9401363e-11 1.1543698e-12
2.5075169e-08 1.0707142e-12 1.0310877e-12 9.930002e-13 6.872429e-12 1.6806714e-11 3.3709662e-13 8.3341385e-13
3.347336e-11 3.999448e-12 5.8936835e-11 5.6468268e-14 1.0265092e-10 2.837388e-13 1.796525e-07 1.7810973e-12
5.1414172e-12 4.56788e-13 1.0617461e-07 1.7927129e-11 1.268325e-11 7.410674e-13 9.990983e-12 3.2278114e-13
2.7155174e-11 9.311885e-11 1.0086586e-06 1.3451262e-12 1.45732e-13 1.2130581e-12 8.095336e-07 5.8376823e-12
3.9261953e-12 1.5796663e-13 2.7560983e-12 3.4927995e-11 2.8284035e-07 3.008393e-07 1.0113078e-11 2.9554212e-07
1.2194362e-06 2.7639666e-09 2.0592378e-12 3.58927e-11 6.492191e-11 3.4054782e-12 5.960017e-12 2.5665749e-11
1.8740272e-08 6.3393216e-08 2.3255752e-13 6.986397e-07 8.369166e-13 4.592992e-09 8.740015e-08 2.2245617e-12
6.207258e-12 2.452952e-12 9.920936e-14 3.075172e-14 1.879357e-12 7.041445e-09 3.9321626e-09 7.4965025e-14
2.9452618e-09 2.6489447e-13 2.570343e-09 9.484558e-15 6.7501035e-12 5.0203106e-12 1.5441727e-09 1.7626146e-12
6.002631e-13 1.965126e-07 3.581932e-09 6.0626085e-14 5.6179242e-11 1.2447217e-11 5.5869995e-13 1.0441774e-12
1.6029389e-09 1.552587e-12 7.651154e-08 9.957246e-10 2.1092759e-13 2.0423127e-12 7.9375156e-10 5.0856632e-12
9.630218e-13 8.277945e-13 5.6078548e-08 2.9970304e-11 3.4677218e-12 6.499205e-14 6.2972036e-12 3.962043e-13
7.679388e-09 3.7612092e-12 2.1797615e-10 5.6025673e-09 4.8632428e-11 4.816167e-12 5.29964e-08 2.028401e-12
3.4290385e-13 1.9002528e-07 3.7885957e-09 2.6120333e-13 9.559724e-13 1.4121287e-07 2.5592946e-08 1.3335516e-08
1.2004758e-12 4.536825e-12 1.4899202e-13 1.3878803e-11 3.9603833e-08 9.249735e-13 1.5645443e-11 4.322555e-09
7.877201e-08 3.1586589e-12 2.1792557e-11 2.074436e-11 1.1332895e-12 1.2876947e-10 2.2960895e-12 1.3299597e-12
1.3494593e-10 4.5554055e-12 2.5916105e-13 3.4476013e-08 1.9976258e-11 6.740925e-12 4.8203865e-11 8.7701976e-13
4.774791e-12 2.1431559e-12 9.429731e-12 3.543337e-11 5.156983e-11 1.6023781e-10 1.9119992e-10 4.6865806e-12
8.433165e-11 5.36856e-10 4.022645e-12 6.2578267e-12 7.0982547e-12 3.9396243e-11 8.6988944e-11 4.6361057e-12
1.0687384e-10 6.660313e-12 1.3848748e-11 1.1426429e-06 3.4167436e-11 2.178551e-12 4.234269e-11 2.486582e-12
5.791471e-13 4.131178e-11 3.735903e-11 5.1035534e-12 1.1016931e-06 7.410433e-12 7.210322e-11 1.6692595e-12
1.866911e-12 3.2138597e-12 4.4827985e-11 2.026262e-12 4.382986e-12 1.2891081e-11 1.7379206e-12 4.430278e-08
5.362454e-11 9.7995986e-11 2.4805605e-12 3.8097917e-11 1.9786272e-11 6.6006735e-11 7.0809275e-11 1.5360891e-11
00000000: e323 522d 71fc 6d2a 12d6 2d30 e786 0a2e
00000010: 2c2f 9235 4a45 e92d 979e 832b 4ad4 c52c
00000020: 07ac 322d 145f 202b 0733 602d 3e6a e62d
00000030: af28 802f edeb d22d 8ce3 c92c be34 342c
00000040: d28e 202d 1f73 1e2e 960f b82c 9441 252f
00000050: 7a7c 7a2d e02e 842c 6ef9 da2d a96b 242b
00000060: 427b 822b 2789 4430 3502 222c 54d1 ed2d
00000070: 0581 d12d f28e ce2d 26fa be2d a8a8 7c2d
00000080: c7f9 4635 6cf5 ee2e fdca 922d 0081 c62c
00000090: 2c68 502d 09c6 0c2c a13b 0b2d 9578 e52d
000000a0: 66c9 3a2c 78d2 132e a589 392f 8f87 8435
000000b0: 0fbe 0332 abd7 412c 30af 0e35 2217 a434
000000c0: 9bf1 382a 90a5 1e2f faa3 f434 69f2 192e
000000d0: 2476 1f2c 3e9d d92a 103e 072d 8228 4a33
000000e0: e52e 1a2e 89d5 d72c 6997 012c ba2e 6029
000000f0: 8406 d532 1d2f de2a ff6c 232d ed6c 612c
00000100: fd5c 522e 1990 ba32 622d cd2c 874b 322e
00000110: c4a8 422c c597 1f35 fe4e 012e 8e76 a22b
00000120: e164 d732 8bb0 962b d91c 912b 9ac0 8b2b
00000130: 56cd f12c 5bd5 932d bec4 bd2a cc95 6a2b
00000140: a737 132e d3b7 8c2c 7d9a 812e 7b4f 7e29
00000150: 55bb e12e 12bb 9f2a 81e6 4034 cbaa fa2b
00000160: c5e5 b42c 0b93 002b 1c02 e433 4eb0 9d2d
00000170: 4820 5f2d 8997 502b 63c3 2f2d aab5 b52a
00000180: 04dc ee2d 41c5 cc2e 3f61 8735 474f bd2b
00000190: 6414 242a 06b9 aa2b ba4e 5935 2b65 cd2c
000001a0: 0624 8a2c c8da 312a 74f1 412c 6d9d 192e
000001b0: 48d9 9734 0a83 a134 41e9 312d 00ab 9e34
000001c0: 82ab a335 37f0 3d31 eee7 102c 96db 1d2e
000001d0: c9c3 8e2e a4a3 6f2c 10b3 d12c 21c2 e12d
000001e0: 4bfa a032 ca22 8833 12eb 822a 288a 3b35
000001f0: 3292 6b2b 63d0 9d31 beb0 bb33 248a 1c2c
00000200: 0266 da2c 749c 2c2c 4d66 df29 527e 0a29
00000210: 7c3f 042c 35f1 f131 ab1b 8731 65ce a829
00000220: 9865 4a31 511f 952a f4a1 3031 cedb 2a28
00000230: 877f ed2c f0a2 b02c bf3a d430 e210 f82b
00000240: 84f5 282b f900 5334 0426 7631 8f84 8829
00000250: 3414 772e 48f9 5a2d 9342 1d2b 75f4 922b
00000260: 664e dc30 d881 da2b aa4e a433 f2d9 8830
00000270: bd7b 6d2a 09b7 0f2c 4d2f 5a30 95ef b22c
00000280: 8488 872b e100 692b 04db 7033 90cf 032e
00000290: ec04 742c 5e59 9229 2b90 dd2c 0f0b df2a
000002a0: 4eee 0332 f655 842c d5aa 6f2f b480 c031
000002b0: 3fe3 552e 2d74 a92c 289e 6333 6dbc 0e2c
000002c0: a709 c12a c009 4c34 d72c 8231 5e0b 932a
000002d0: 898a 862b 4ca0 1734 7cd7 db32 381a 6532
000002e0: b3f3 a82b 16a0 9f2c 07c0 272a 9228 742d
000002f0: e018 2a33 af2d 822b 689e 892d 9985 9431
00000300: 5f29 a933 5745 5e2c 7ab0 bf2d 2578 b62d
00000310: 0f7f 9f2b 6295 0d2f ac92 212c d92c bb2b
00000320: e75f 142f 7247 a02c 0be5 912a c712 1433
00000330: 89b6 af2d db2c ed2c ba00 542e efdb 762b
00000340: 7eff a72c aacf 162c bce3 252d 6ed6 1b2e
00000350: 77ce 622e ef2e 302f fe39 522f f7e4 a42c
00000360: 8072 b92e e291 1330 c488 8d2c 7e2d dc2c
00000370: 65bf f92c 3a44 2d2e 6c4a bf2e 541e a32c
00000380: a004 eb2e c456 ea2c 37a1 732d e95c 9935
00000390: 1d45 162e 494d 192c a139 3a2e 47fa 2e2c
000003a0: f203 232b eeb0 352e 874e 242e b990 b32c
000003b0: e3dd 9335 a05d 022d 818e 9e2e 69ed ea2b
000003c0: 475f 032c c027 622c d327 452e e495 0e2c
000003d0: 6e36 9a2c 45c8 622d 3097 f42b 6c47 3e33
000003e0: ddd7 6b2e d67e d72e ce8d 2e2c 718e 272e
000003f0: b90a ae2d 7d26 912e 14b6 9b2e a71d 872d
