checkpoints/gru.ckpt (torch, 881395 bytes, 27 tensors)

tok_embedding.weight f4 [65, 32]
1.8397582 -0.45512882 0.38759136 0.30425417 -0.4273726 0.32548618 -1.12042 1.9586791
0.3817549 1.2125776 0.05771087 1.64345 0.59196407 -0.39954516 0.08109122 0.7949198
-0.94390595 0.073970556 -0.6646173 0.19004714 1.8382473 0.9753749 -0.64927626 -1.0866315
0.49929163 -0.6931018 0.30732688 -0.022102399 0.6299624 0.44972983 0.52752954 1.4147778
-1.1942333 0.89876586 -0.55789393 0.18141109 1.1123927 1.7303227 1.3711414 2.5591776
0.24157031 -2.6522875 -0.013155223 1.0048921 -1.1540867 1.0171643 0.063762985 1.0575727
-0.92056143 -0.5430964 -1.3735563 1.0054413 0.8676444 -0.04555641 -0.13953346 1.0982965
0.35869545 -0.22633512 -0.34776336 1.6468545 -1.5548426 0.3113698 1.9917161 -1.5068195
0.45072034 -0.4947958 -0.27581552 1.0575888 -1.0096382 -0.3655387 -1.1600631 1.2587901
0.77027994 -1.7290257 -0.26973048 -1.1826806 1.067338 -2.8617072 -0.83193654 0.9808085
-1.1830057 -2.6963058 -0.58633786 -0.23533165 1.0173187 0.09335261 -0.9685461 0.022458812
0.26711646 0.9817477 2.3691247 1.0716183 2.1083515 1.3042172 0.44301513 1.0216491
-1.1008015 -0.7383791 -1.2194865 -1.0433551 0.8657856 2.7715466 0.27854457 1.4358346
1.3581547 -0.37213466 3.5558434 0.24939638 0.83064014 0.58995295 -0.7414908 -0.24201861
-1.6016434 -1.6846447 1.245978 1.1927233 -1.2432518 -0.5049235 -1.1396883 1.5611061
0.74537873 0.10722036 0.4865374 1.7583519 0.3556213 -1.5570108 1.2356538 -0.18226154
0.45334774 -1.8424513 0.64721674 -1.3273487 0.8669751 0.4728662 -0.7509179 0.85292846
-0.637259 0.26673484 -2.1364224 0.92074907 -2.0812905 -0.50637394 0.02505033 -1.4027084
1.797001 0.108589746 1.1640118 -1.9310104 -1.6032485 1.3801879 -2.5218248 -1.1621357
0.78715146 0.25718755 -1.2727754 -1.508135 -0.56705225 1.8615354 -0.5842222 -0.25058377
0.4614176 -2.7133725 0.055241533 1.7724055 -0.76841307 1.4412687 -1.1340077 1.2726682
-0.47242224 1.010092 1.0478749 -0.8354292 0.7396505 2.0957484 -0.24441968 1.4194893
-0.54316616 -0.058999706 1.0876018 0.23858206 -0.7993752 -1.9478706 0.07445968 -0.64537704
-0.55000967 -0.727038 1.8223242 0.7519137 0.08110113 0.49573743 -0.5257241 2.1987302
0.09786384 -1.4662299 0.8143632 0.66199946 0.25221395 -0.53865 -1.1505575 1.2394203
1.2735094 -1.1188792 2.5625951 0.52093714 1.0851796 -1.5890203 -2.76622 -2.0748172
-0.29074365 -0.05460714 -0.08556073 -1.0723689 1.6780974 0.746974 1.3311516 0.6000486
1.3579766 0.794359 -0.4707759 -0.10389964 0.6410452 2.106563 -0.45541492 -0.97857946
-0.753845 1.8191743 -0.7077409 0.28072983 3.2536805 -0.01049822 0.2028475 0.38793066
2.0964568 -0.06605643 -1.1044317 -0.6269795 2.9806724 1.4109875 -0.21696946 0.8101671
0.02594093 0.18547022 -2.236884 -0.56726724 0.5552505 -0.42856148 0.19222048 -2.0894482
-0.07316692 0.110119775 0.4312381 -0.4585196 -0.08147821 -0.9764486 -0.76988786 -2.3013434
00000000: 327d eb3f a506 e9be 6072 c63e 34c7 9b3e
00000010: 95d0 dabe 20a6 a63e ec69 8fbf ffb5 fa3f
00000020: 6175 c33e be35 9b3f 3c62 6c3d 925c d23f
00000030: f58a 173f 2f91 ccbe 2713 a63d dd7f 4b3f
00000040: d2a3 71bf e07d 973d 5c24 2abf b89b 423e
00000050: b04b eb3f 2bb2 793f f836 26bf be16 8bbf
00000060: 27a3 ff3e 1f6f 31bf f359 9d3e 1710 b5bc
00000070: 3745 213f fd42 e63e 2d0c 073f 7017 b53f
00000080: a3dc 98bf 8515 663f 23d2 0ebf d4c3 393e
00000090: e262 8e3f 377b dd3f 9081 af3f 91c9 2340
000000a0: 355e 773e 14bf 29c0 0189 57bc 4ea0 803f
000000b0: 1db9 93bf 7132 823f 2b96 823d 8b5e 873f
000000c0: eaa9 6bbf 5e08 0bbf b1d0 afbf 4db2 803f
000000d0: f21d 5e3f 5c99 3abd dce1 0ebe fb94 8c3f
000000e0: eea6 b73e 65c4 67be 0a0e b2be 21cc d23f
000000f0: 1505 c7bf dd6b 9f3e 8ef0 fe3f 76df c0bf
00000100: d1c4 e63e e055 fdbe b137 8dbe 125f 873f
00000110: d33b 81bf e327 bbbe f37c 94bf 0920 a13f
00000120: 1131 453f b750 ddbf 1d1a 8abe 1462 97bf
00000130: 889e 883f 3626 37c0 cbf9 54bf 4416 7b3f
00000140: bb6c 97bf 4690 2cc0 3d1a 16bf c8fa 70be
00000150: 8037 823f a72f bf3d a3f2 77bf 8bfb b73c
00000160: 7dc3 883e d153 7b3f bd9f 1740 ca2a 893f
00000170: 3bef 0640 97f0 a63f e1d2 e23e 66c5 823f
00000180: 10e7 8cbf 6a06 3dbf 2218 9cbf a98c 85bf
00000190: 20a4 5d3f 0561 3140 659d 8e3e 6ec9 b73f
000001a0: 03d8 ad3f 6f88 bebe f092 6340 c461 7f3e
000001b0: d5a4 543f 2807 173f 57d2 3dbf bad3 77be
000001c0: a702 cdbf 70a2 d7bf 357c 9f3f 28ab 983f
000001d0: e022 9fbf ab42 01bf 4ee1 91bf 53d2 c73f
000001e0: 24d1 3e3f 5996 db3d 6e1b f93e ad11 e13f
000001f0: ff13 b63e 214c c7bf e729 9e3f c5a2 3abe
00000200: 321d e83e 72d5 ebbf ffaf 253f 90e6 a9bf
00000210: 15f2 5d3f 851b f23e 283c 40bf 8559 5a3f
00000220: 6823 23bf 7891 883e 25bb 08c0 36b6 6b3f
00000230: dd33 05c0 b9a1 01bf 5a36 cd3c f38b b3bf
00000240: 2104 e63f 4d64 de3d 57fe 943f 592b f7bf
00000250: 3f37 cdbf ffa9 b03f 9465 21c0 ddc0 94bf
00000260: c282 493f 16ae 833e 4eea a2bf 910a c1bf
00000270: 562a 11bf cb46 ee3f 968f 15bf 844c 80be
00000280: ed3e ec3e e5a7 2dc0 f244 623d 2fde e23f
00000290: b8b6 44bf 7e7b b83f 2a27 91bf cbe6 a23f
000002a0: 54e1 f1be b24a 813f c420 863f b0de 55bf
000002b0: bc59 3d3f be20 0640 2749 7abe d3b1 b53f
000002c0: f00c 0bbf ada9 71bd 8936 8b3f db4e 743e
000002d0: daa3 4cbf d353 f9bf 517e 983d 6e37 25bf
000002e0: 6fcd 0cbf 2a1f 3abf eb41 e93f 6b7d 403f
000002f0: 5918 a63d 4cd1 fd3e db95 06bf ffb7 0c40
00000300: d66c c83d 6cad bbbf 1b7a 503f cc78 293f
00000310: 3022 813e f7e4 09bf 7845 93bf 53a5 9e3f
00000320: 5b02 a33f 6f37 8fbf 8f01 2440 235c 053f
00000330: 2ae7 8a3f 0465 cbbf c009 31c0 cec9 04c0
00000340: 5adc 94be bdab 5fbd 773a afbd 6243 89bf
00000350: e5cb d63f b039 3f3f 2d63 aa3f c99c 193f
00000360: 2dd2 ad3f 1d5b 4b3f 8a09 f1be 56c9 d4bd
00000370: 8a1b 243f eed1 0640 252c e9be 2f84 7abf
00000380: fcfb 40bf b4da e83f 822e 35bf d2bb 8f3e
00000390: 4d3c 5040 ba00 2cbc 41b7 4f3e d99e c63e
000003a0: 592c 0640 9848 87bd 055e 8dbf ba81 20bf
000003b0: 56c3 3e40 3d9b b43f 3e2d 5ebe 1c67 4f3f
000003c0: 1382 d43c e8eb 3d3e 1c29 0fc0 6d38 11bf
000003d0: e624 0e3f 696c dbbe 72d5 443e 85b9 05c0
000003e0: 8ad8 95bd 7a86 e13d 3ecb dc3e 15c3 eabe
000003f0: 0cde a6bd 89f8 79bf 5f17 45bf 3649 13c0

reset_gate.weight f4 [128, 160]
-0.08156149 -0.39331836 -0.52692944 -0.31150743 -0.21561846 0.16304158 0.02083942 0.32230505
-0.17871822 0.008701859 -0.72289115 -0.055551983 -0.052505147 -0.030699437 0.25458118 0.020961815
-0.17056075 0.2688288 -0.10357984 0.10288578 -0.13699782 0.36188722 -0.098162785 -0.5399537
0.45608023 0.53149694 0.1610728 0.11967395 0.12610498 -0.17778458 -0.30289978 0.053406417
-0.04464495 -0.10783929 -0.0422862 -0.13898923 0.108929835 0.106769 -0.16856909 0.24000946
-0.12697807 -0.36664316 -0.07055388 0.018506696 0.13810419 0.26959166 -0.21750537 0.14583623
0.12402792 -0.0380594 -0.082648635 0.2751672 0.187407 -0.3008888 -0.014530607 0.30440915
-0.13621224 0.07434649 0.14587161 -0.018016268 0.18623565 0.12050662 -0.10583084 0.10957309
-0.19443707 -0.1281088 0.092725776 0.14951204 -0.026118506 -0.07218165 0.14717492 0.24257049
-0.25376606 0.13442275 -0.22439815 0.021929186 -0.06927673 -0.21262744 -0.075816125 0.11874813
-0.26403838 -0.14246267 0.05870505 -0.116256 0.14410873 0.09354923 0.17132479 -0.13294142
0.22437155 0.07652543 0.07570024 0.10609224 0.19548707 -0.017602688 0.055770807 0.17302847
0.16011438 -0.028695615 0.106202655 -0.030599033 -0.16979802 0.03100693 -0.023479149 0.30216247
-0.31044918 -0.27437538 0.2776345 -0.6288561 0.31562808 -0.46982518 -0.32851622 -0.06798547
0.25444946 0.023996036 -0.04981151 -0.05129379 -0.33003253 0.040216092 -0.2641014 0.43958983
0.06582402 0.25883478 0.08016705 -0.22883949 -0.3774941 0.053201795 -0.105793834 -0.13332155
0.48999017 -0.19729838 0.016643599 -0.13237414 -0.070257016 0.1443517 -0.06631727 -0.1994189
0.04340792 -0.013105582 0.21044186 -0.19164275 0.31600884 0.024038045 -0.113152854 -0.061592482
0.17906308 -0.2479393 0.2130012 -0.09920479 -0.36146176 -0.19772868 0.121646814 0.05804253
0.030893886 -0.16900022 0.4724447 0.1947602 0.034075405 0.1067321 -0.2626132 0.13810764
0.12875736 -0.35053277 0.10651329 -0.20834722 -0.35290772 0.14475515 0.3400291 0.091405705
0.16260967 0.4061666 0.054754518 0.13518542 -0.21143936 0.08483447 -0.20909742 0.1437769
0.17082444 -0.3003488 0.16687796 -0.10680581 -0.12399763 0.5467209 -0.28449777 0.1743818
0.36132053 0.41573554 0.0053889854 -0.18610473 -0.0037301905 0.22134702 -0.062167864 0.3053626
0.27071753 -0.078942314 -0.03506794 0.16328487 0.15936996 0.04941568 -0.14112821 -0.10075279
0.01958795 -0.1585209 -0.24017645 0.3097667 -0.09179203 -0.11108236 0.08880339 0.5470891
-0.41936067 0.20592049 0.02221188 -0.093203105 -0.014175267 -0.064771846 0.41184083 0.30328476
-0.17664939 0.05248869 -0.004743684 -0.052771434 0.0046803597 0.27376768 -0.00678621 -0.08441854
0.2636219 -0.17277275 0.2780147 -0.092420205 -0.026391814 -0.37319404 -0.44493043 0.26828295
-0.4110215 -0.05741345 -0.22647208 -0.11221657 -0.15056391 0.12935328 -0.08767461 0.22089273
0.06900575 0.08314842 -0.41456553 -0.0129133975 -0.21263185 -0.092257515 0.04335844 0.1284044
0.3098249 0.12759669 0.05714338 0.1691585 -0.6710198 -0.47795638 -0.33567944 0.10275005
00000000: b609 a7bd 0661 c9be d9e4 06bf e77d 9fbe
00000010: 16cb 5cbe 5ff4 263e 6eb7 aa3c 2b05 a53e
00000020: e901 37be 3e92 0e3c 650f 39bf 7a8a 63bd
00000030: a30f 57bd 637d fbbc 7758 823e 1db8 ab3c
00000040: 7aa7 2ebe eea3 893e ab21 d4bd c8b5 d23d
00000050: 2849 0cbe 4849 b93e 9209 c9bd 683a 0abf
00000060: 5983 e93e 2f10 083f 45f0 243e 9e17 f53d
00000070: aa21 013e 290d 36be ae15 9bbe b0c0 5a3d
00000080: a0dd 36bd d8da dcbd 4b34 2dbd 3153 0ebe
00000090: 9b16 df3d b5a9 da3d 609d 2cbe 0ac5 753e
000000a0: 8a06 02be a7b8 bbbe 8d7e 90bd 5b9b 973c
000000b0: 2f6b 0d3e eb07 8a3e bab9 5ebe 1856 153e
000000c0: 5a02 fe3d 2ce4 1bbd b043 a9bd b7e2 8c3e
000000d0: 9fe7 3f3e 190e 9abe c811 6ebc 84db 9b3e
000000e0: 397b 0bbe f942 983d 5e5f 153e da96 93bc
000000f0: 8fb4 3e3e 2dcc f63d d7bd d8bd db67 e03d
00000100: 831a 47be f42e 03be 03e7 bd3d af19 193e
00000110: 7af6 d5bc f9d3 93bd 06b5 163e 6664 783e
00000120: a0ed 81be 1ea6 093e a1c8 65be d6a4 b33c
00000130: f5e0 8dbd 02bb 59be 7c45 9bbd 3832 f33d
00000140: 0a30 87be bce1 11be b574 703d a017 eebd
00000150: 3d91 133e bd96 bf3d c46f 2f3e cc21 08be
00000160: a8c1 653e 5db9 9c3d ba08 9b3d e346 d93d
00000170: c32d 483e 8333 90bc ee6f 643d 602e 313e
00000180: 06f5 233e 1113 ebbc c780 d93d d3aa fabc
00000190: 88df 2dbe 3f02 fe3c 5857 c0bc 0ab5 9a3e
000001a0: 32f3 9ebe ee7a 8cbe 1c26 8e3e b7fc 20bf
000001b0: 019a a13e ed8c f0be 4733 a8be f73b 8bbd
000001c0: 3347 823e 5693 c43c 2707 4cbd 7019 52bd
000001d0: 06fa a8be a1b9 243d 4c38 87be eb11 e13e
000001e0: bece 863d fe85 843e 9f2e a43d e654 6abe
000001f0: e846 c1be 20ea 593d 70aa d8bd 7285 08be
00000200: fedf fa3e 9608 4abe 2858 883c 168d 07be
00000210: e9e2 8fbd efd0 133e 59d1 87bd 7834 4cbe
00000220: 81cc 313d ccb8 56bc 127e 573e ff3d 44be
00000230: e9cb a13e 6feb c43c afbc e7bd 6648 7cbd
00000240: 505c 373e cde3 7dbe fd1c 5a3e e22b cbbd
00000250: 8411 b9be 6379 4abe f721 f93d 01be 6d3d
00000260: 2d15 fd3c 650e 2dbe 46e4 f13e 386f 473e
00000270: a792 0b3d 5c96 da3d 3d75 86be 176c 0d3e
00000280: f8d8 033e 0879 b3be a423 da3d f958 55be
00000290: 52b0 b4be b23a 143e 4b18 ae3e ea32 bb3d
000002a0: 2683 263e 12f5 cf3e 4646 603d 0c6e 0a3e
000002b0: 8f83 58be b2bd ad3d a21d 56be 403a 133e
000002c0: 9aec 2e3e 51c7 99be 0ee2 2a3e 01bd dabd
000002d0: 78f2 fdbd e7f5 0b3f b1a9 91be 2591 323e
000002e0: 01ff b83e 4adb d43e 1696 b03b 3d92 3ebe
000002f0: 3676 74bb cba8 623e bba3 7ebd 7d58 9c3e
00000300: 7d9b 8a3e 82ac a1bd 66a3 0fbd 2634 273e
00000310: e131 233e 1968 4a3d ea83 10be 7b57 cebd
00000320: e976 a03c 4e53 22be d1f0 75be be99 9e3e
00000330: 76fd bbbd 267f e3bd 8dde b53d 080e 0c3f
00000340: 71b6 d6be d2dc 523e b0f5 b53c 45e1 bebd
00000350: 613f 68bc 1aa7 84bd cddc d23e 2448 9b3e
00000360: 94e3 34be 61fe 563d e870 9bbb dc26 58bd
00000370: b45d 993b 472b 8c3e db5e debb a1e3 acbd
00000380: 73f9 863e 57eb 30be f157 8e3e ce46 bdbd
00000390: a533 d8bc 4a13 bfbe eccd e3be 625c 893e
000003a0: 6971 d2be 5e2a 6bbd 4ce8 67be cdd1 e5bd
000003b0: 6d2d 1abe 3075 043e bf8e b3bd b431 623e
000003c0: e352 8d3d b849 aa3d ef41 d4be b792 53bc
000003d0: 2abc 59be 82f1 bcbd 9f98 313d 717c 033e
000003e0: 5fa1 9e3e b5a8 023e 2d0f 6a3d e337 2d3e
000003f0: f4c7 2bbf b3b6 f4be 2dde abbe 9e6e d23d

reset_gate.bias f4 [128]
-0.13803928 -0.06459674 0.09909997 0.040422577 -0.15343262 -0.10871791 0.28200793 0.0060797757
-0.06288391 -0.021031734 0.17607051 -0.079701334 -0.15406597 -0.03015254 -0.034158822 -0.130345
-0.10840465 0.005742547 -0.060123976 -0.021572119 0.045046676 -0.13053536 0.0945989 0.095123544
0.03870994 0.0669998 0.14824928 -0.09703531 0.12310092 0.10666674 0.13623562 0.04939634
0.024349257 0.045119677 0.014150363 0.044466164 0.045633383 0.004609756 -0.111405954 -0.0030568703
0.03475746 0.13097362 0.06950773 -0.122747645 0.19051726 -0.00037983086 0.12899989 0.017745504
0.027602931 0.14545016 0.015541063 0.026090495 -0.009340207 -0.020434488 0.042298827 0.05814178
0.058872156 0.17999446 -0.108636394 -0.056908444 -0.04636864 0.085937835 -0.038138535 0.092976265
0.01991133 0.068327986 0.03430207 0.019683208 -0.037763704 -0.0021905245 -0.011976476 0.3049398
-0.03349555 0.08585596 0.2017527 -0.005460135 0.083731525 0.05121941 0.03968035 0.20023474
-0.14619431 -0.0020885216 0.05031726 0.045505717 0.073134035 0.027711345 0.06527464 0.10005006
0.30215108 0.067435555 0.03838695 -0.09611244 0.09515682 0.05938606 0.2184154 0.038007356
0.14401773 0.15014 -0.029270148 -0.04699276 0.11246391 0.03034318 0.022738615 0.21902962
0.13259289 0.10314797 0.02493928 0.15216829 0.0076860394 0.044525985 0.08219581 0.10270961
0.012973053 0.07010028 -0.06198686 0.08415588 -0.12359282 0.00025581938 0.17209132 -0.029345624
0.15899032 0.14586228 -0.013802026 0.14084722 0.14635342 0.2272559 0.18059032 0.030665923
00000000: 2b5a 0dbe 4c4b 84bd edf4 ca3d 2592 253d
00000010: 711d 1dbe 7fa7 debd 5863 903e db38 c73b
00000020: 48c9 80bd be4a acbc d44b 343e 743a a3bd
00000030: 78c3 1dbe 7602 f7bc 1fea 0bbd 2979 05be
00000040: 4203 debd fa2b bc3b 8f44 76bd 03b8 b0bc
00000050: dd82 383d 10ab 05be 11bd c13d 22d0 c23d
00000060: 508e 1e3d 3137 893d a9ce 173e 73ba c6bd
00000070: 561c fc3d 1774 da3d 5a81 0b3e d153 4a3d
00000080: 1878 c73c 69cf 383d edd6 673c 2722 363d
00000090: 12ea 3a3d 700d 973b ce28 e4bd c655 48bb
000000a0: d75d 0e3d f31d 063e 125a 8e3d 1e63 fbbd
000000b0: f516 433e 0924 c7b9 8c18 043e 055f 913c
000000c0: 8b1f e23c e3f0 143e f19f 7e3c bcbb d53c
000000d0: ab07 19bc 3a66 a7bc 8941 2d3d 1326 6e3d
000000e0: ee23 713d 7850 383e c27c debd d418 69bd
000000f0: 0bed 3dbd 2d00 b03d 2737 1cbd 576a be3d
00000100: 161d a33c 8bef 8b3d 5480 0c3d ae3e a13c
00000110: 1dae 1abd e78e 0fbb fb38 44bc 1221 9c3e
00000120: a132 09bd 40d5 af3d 4398 4e3e efea b2bb
00000130: 6f7b ab3d 72cb 513d dd87 223d 560a 4d3e
00000140: f6b3 15be 94df 08bb 7919 4e3d 3464 3a3d
00000150: 4cc7 953d e702 e33c b6ae 853d 0ce7 cc3d
00000160: 8cb3 9a3e a71b 8a3d a23b 1d3d 99d6 c4bd
00000170: 94e1 c23d cc3e 733d 49a8 5f3e 9aad 1b3d
00000180: 6279 133e 4dbe 193e f3c7 efbc 7b7b 40bd
00000190: 7a53 e63d 4392 f83c 5546 ba3c 4d49 603e
000001a0: 6ec6 073e 3e3f d33d 764d cc3c 01d2 1b3e
000001b0: 2cdb fb3b e160 363d 4756 a83d 6a59 d23d
000001c0: ee8c 543c bc90 8f3d efe5 7dbd eb59 ac3d
000001d0: 3b1e fdbd 7f1f 8639 b538 303e 3c66 f0bc
000001e0: 5cce 223e ec5c 153e e521 62bc 413a 103e
000001f0: acdd 153e c5b5 683e abec 383e 1a37 fb3c

update_gate.weight f4 [128, 160]
-0.5135667 -0.6910316 -0.15387143 0.13493733 -0.29196048 0.22749744 0.061644662 0.4239638
-0.010932855 0.27116522 -0.09023587 -0.06765227 0.34235638 0.24350731 -0.11013494 -0.053200923
-0.06195913 -0.46873108 -0.018249957 0.033737812 0.29455957 0.4734292 -0.22321483 -0.0012695662
0.39557037 -0.10813042 0.30388993 -0.07850946 0.004151037 0.24298976 0.33114225 0.57964957
0.13117991 0.09831886 -0.042972397 0.39513868 -0.04645927 -0.17652538 -0.015400761 0.18247238
0.1345079 0.36144286 -0.23412362 -0.120182194 -0.10068095 -0.038140118 0.55351305 -0.06536257
0.19450232 0.25164673 -0.39766142 0.32722044 0.0064030434 0.35131556 0.4344212 0.7680547
-0.026400972 0.10790326 0.10641883 -0.067297235 -0.011822152 -0.16885746 0.15405935 0.14071442
0.19207162 -0.25895056 0.054450728 0.21814846 0.12776722 -0.04993106 0.056416158 0.07226844
0.1631624 0.26409346 0.17435466 -0.27885592 -0.2254073 -0.23659186 0.47970486 -0.13526042
-0.2799252 -0.24960864 0.080454245 -0.0053630215 0.52822626 -0.258153 0.13622318 -0.1691465
-0.17957865 0.0918362 0.46551502 -0.1918225 0.4312817 0.0035006707 -0.32054496 -0.17847629
-0.10582656 0.14726108 0.058935877 0.17741662 0.073849216 -0.0074946065 0.022808218 -0.11241744
-0.07877133 0.13651504 0.23937236 0.0060614944 -0.06058643 -0.3525087 0.04949235 0.103592336
0.28897232 -0.10465761 0.065209076 0.0058971015 0.013906099 -0.15533121 0.050835382 0.08371874
-0.020401167 0.27232042 -0.090554416 0.2956219 -0.51231253 0.29951212 -0.10584781 0.061916687
-0.032360192 -0.077521734 -0.2389707 -0.031282365 0.07817191 -0.13855591 0.106452785 0.012145932
-0.077520855 0.17284945 -0.25110343 -0.23233585 -0.24923705 -0.031783998 -0.2361689 -0.043513
-0.039617028 0.3497211 0.34068128 -0.44686446 0.08487685 0.1747963 -0.019493343 0.29472154
0.12691449 -0.27576503 0.06640873 0.33877417 -0.41136742 0.15348792 0.45764652 0.039396454
-0.66428876 0.22495387 -0.7291696 0.53996444 0.058148894 0.11544635 -0.1798936 0.16904202
-0.11223346 -0.43859035 -0.022399317 -0.72957426 0.5549341 0.34714866 -0.26054093 0.27171785
-0.54549825 0.61944544 0.58853316 0.39354512 0.4561677 0.34325546 -0.038956713 -0.23735577
0.1972571 0.4844878 -0.3286177 0.23188984 -0.029290136 -0.895747 -0.13025004 0.42983612
0.25352237 -0.03746779 -0.05780137 0.26564825 0.2612944 0.016785538 0.124201 0.07776798
0.2342273 0.39113244 -0.063570425 0.23514962 -0.20127237 0.05626636 0.059094045 -0.13040279
0.048761547 -0.17520435 -0.43596253 -0.0836831 -0.29197025 -0.12082419 -0.012764891 0.04237819
-0.13115609 -0.33199126 0.0012459364 0.10248125 -0.08267889 -0.20419313 -0.05074186 -0.022336597
0.28033444 -0.116934866 -0.21793239 0.027823433 -0.08622716 -0.36079898 0.029670475 -0.20265204
0.069024 0.2465677 0.4683224 -0.052275307 -0.23073089 -0.024104012 0.1407346 0.1989849
-0.17606942 -0.04927312 0.19050594 0.1743059 -0.04205823 -0.22450018 -0.0142860515 0.38216382
0.022401039 -0.019531062 0.28972697 -0.1944794 0.111250594 0.46986508 -0.22173569 0.113067985
00000000: 1b79 03bf 72e7 30bf 7990 1dbe 032d 0a3e
00000010: d87b 95be 17f5 683e 1d7f 7c3d c811 d93e
00000020: b81f 33bc 2bd6 8a3e 95cd b8bd 468d 8abd
00000030: 5649 af3e fb59 793e 6d8e e1bd 36e9 59bd
00000040: dbc8 7dbd 85fd efbe ef80 95bc a930 0a3d
00000050: 83d0 963e 5065 f23e 6e92 64be 9367 a6ba
00000060: 3388 ca3e 7b73 ddbd 7697 9b3e 91c9 a0bd
00000070: 6c05 883b 4fd2 783e 7a8b a93e ea63 143f
00000080: 0754 063e 665b c93d d303 30bd 9e4f ca3e
00000090: 134c 3ebd 12c3 34be 7953 7cbc 0ada 3a3e
000000a0: 70bc 093e 0a0f b93e 1abe 6fbe 1522 f6bd
000000b0: d031 cebd d038 1cbd 08b3 0d3f d0dc 85bd
000000c0: 9e2b 473e d7d7 803e 479a cbbe 7089 a73e
000000d0: 9fd0 d13b a2df b33e 756c de3e 3c9f 443f
000000e0: da46 d8bc 62fc dc3d 1ef2 d93d 22d3 89bd
000000f0: b3b1 41bc f8e8 2cbe bcc1 1d3e 7117 103e
00000100: 6cae 443e 2b95 84be ba07 5f3d 4f62 5f3e
00000110: 69d5 023e 8384 4cbd a114 673d 7a01 943d
00000120: 0b14 273e 4237 873e 078a 323e 34c6 8ebe
00000130: 2cd1 66be 2345 72be e09b f53e b581 0abe
00000140: 5b52 8fbe 6899 7fbe 32c5 a43d 49bc afbb
00000150: d639 073f a12c 84be 177e 0b3e bd34 2dbe
00000160: 77e3 37be 9e14 bc3d fc57 ee3e 1e6d 44be
00000170: f4d0 dc3e 826b 653b 781e a4be 7dc2 36be
00000180: 98bb d8bd 9ccb 163e bf66 713d b4ac 353e
00000190: 423e 973d 5195 f5bb 4dd8 ba3c 1d3b e6bd
000001a0: dd52 a1bd 99ca 0b3e 071e 753e 809f c63b
000001b0: 7a29 78bd 057c b4be 7eb8 4a3d 3828 d43d
000001c0: 2ef4 933e bb56 d6bd 568c 853d 793c c13b
000001d0: 68d6 633c 250f 1fbe c338 503d bb74 ab3d
000001e0: 5920 a7bc 956d 8b3e 9874 b9bd c15b 973e
000001f0: ea26 03bf a759 993e bdc6 d8bd 5a9c 7d3d
00000200: 1f8c 04bd b7c3 9ebd bcb4 74be f021 00bd
00000210: 9818 a03d 9ae1 0dbe eb03 da3d bbff 463c
00000220: 41c3 9ebd 72ff 303e a190 80be 73e9 6dbe
00000230: ff37 7fbe f02f 02bd 43d6 71be b03a 32bd
00000240: 7745 22bd a50e b33e c76d ae3e 6bcb e4be
00000250: ead3 ad3d cdfd 323e 81b0 9fbc bee5 963e
00000260: dff5 013e 1331 8dbe 4d01 883d cf73 ad3e
00000270: c09e d2be f02b 1d3e a550 ea3e 2d5e 213d
00000280: d40e 2abf 4f5a 663e dcaa 3abf 1c3b 0a3f
00000290: 892d 6e3d 236f ec3d 0736 38be 5a19 2d3e
000002a0: a8da e5bd ea8e e0be c67e b7bc 61c5 3abf
000002b0: 2910 0e3f 78bd b13e 9f65 85be 9a1e 8b3e
000002c0: c6a5 0bbf fa93 1e3f 1caa 163f bf7e c93e
000002d0: d08e e93e 2ebf af3e 1391 1fbd 640d 73be
000002e0: c4fd 493e c90e f83e 9440 a8be 8874 6d3e
000002f0: def1 efbc ad4f 65bf 4460 05be 7b13 dc3e
00000300: afcd 813e d377 19bd 21c1 6cbd 0c03 883e
00000310: 61c8 853e d381 893c 185d fe3d d244 9f3d
00000320: 48d9 6f3e 8342 c83e 3631 82bd 10cb 703e
00000330: 581a 4ebe 8e77 663d 990c 723d 4f88 05be
00000340: 30ba 473d c568 33be 7b36 dfbe 0c62 abbd
00000350: 207d 95be ac72 f7bd d523 51bc c194 2d3d
00000360: c84d 06be c2fa a9be b04e a33a b1e1 d13d
00000370: 8d53 a9bd 0118 51be b2d6 4fbd 3dfb b6bc
00000380: ff87 8f3e 8c7b efbd ab29 5fbe f8ed e33c
00000390: de97 b0bd a5ba b8be 7f0f f33c 0484 4fbe
000003a0: 745c 8d3d 3e7c 7c3e f4c7 ef3e a21e 56bd
000003b0: b844 6cbe c775 c5bc bb1c 103e b3c2 4b3e
000003c0: 8b4b 34be 9cd2 49bd fd13 433e 3f7d 323e
000003d0: 4045 2cbd 60e3 65be 0b10 6abc faaa c33e
000003e0: 6282 b73c 9bff 9fbc 1857 943e 9c25 47be
000003f0: 5ad7 e33d 2892 f03e ae0e 63be 3090 e73d

update_gate.bias f4 [128]
0.4393614 0.29008043 0.3158646 0.5328368 0.09123381 0.38500932 0.7679313 0.4607542
0.3619607 0.5388144 0.5807857 0.33091107 0.42214614 0.46256536 0.5831313 0.5864512
0.30320466 0.4512558 0.60449195 0.6809614 0.6186146 0.7723634 0.48683622 0.44786146
0.67072564 0.6800263 0.52868736 1.0956415 0.8457344 0.52528 0.33299065 0.46429095
0.3601612 0.3744721 0.5090531 0.32528377 1.0666071 0.51914024 0.36312598 0.53094476
0.389122 0.6389364 0.6701469 0.40409714 0.6724459 0.40054595 0.54215014 0.56859374
0.4112539 0.4761214 0.63471246 0.3103945 0.5834077 0.38929436 0.49008244 0.39438504
0.44105917 0.6278423 0.40188268 0.47016326 0.49874544 0.6572483 0.2901518 0.7268103
0.4987367 0.5193571 0.46152675 0.41840306 0.4468967 0.62883586 0.57270783 0.68394995
0.5126737 0.620091 0.6342316 0.67842716 0.36249885 0.5039637 0.4693812 0.3347597
0.48172173 0.66210777 0.43152288 0.69115824 0.45637584 0.27012756 0.8331288 0.5284907
0.51096576 0.43170556 0.37960076 0.48031417 0.74254465 0.33448768 0.4907685 0.8198357
0.43976048 0.31555495 0.79136246 0.45128265 0.64521426 0.56277347 0.29196918 0.508061
0.66012126 0.98510474 0.6273457 0.55121124 0.4261996 0.4979563 0.5945449 0.41622669
0.25477874 0.35358095 0.5839462 0.5241585 0.1553844 0.4848405 0.47886428 0.32888445
0.5287165 0.5293541 0.55903625 0.4788708 0.5898693 0.5435362 0.2094601 0.48521116
00000000: faf3 e03e 6c85 943e 01b9 a13e fe67 083f
00000010: cbd8 ba3d f11f c53e 2597 443f f9e7 eb3e
00000020: ea52 b93e beef 093f 5fae 143f 2d6d a93e
00000030: 8a23 d83e 5ed5 ec3e 1848 153f aa21 163f
00000040: a43d 9b3e 000b e73e fcbf 1a3f 7c53 2e3f
00000050: 875d 1e3f 9cb9 453f 9942 f93e 194e e53e
00000060: adb4 2b3f 3416 2e3f 0e58 073f fb3d 8c3f
00000070: 0d82 583f c078 063f c07d aa3e 8bb7 ed3e
00000080: 0c67 b83e cfba bf3e 4e51 023f 988b a63e
00000090: 9586 883f 60e6 043f a6eb b93e ffeb 073f
000000a0: 003b c73e 5691 233f bf8e 2b3f d2e5 ce3e
000000b0: 6a25 2c3f 5c14 cd3e 5aca 0a3f 5c8f 113f
000000c0: df8f d23e 2fc6 f33e 847c 223f 07ec 9e3e
000000d0: 355a 153f 9751 c73e 16ec fa3e d6ec c93e
000000e0: 82d2 e13e 46ba 203f 91c3 cd3e 3db9 f03e
000000f0: 905b ff3e 6d41 283f c78e 943e 3d10 3a3f
00000100: 6b5a ff3e 96f4 043f 3c4d ec3e ed38 d63e
00000110: a5cf e43e 63fb 203f fb9c 123f 5817 2f3f
00000120: 953e 033f 49be 1e3f 015d 223f 67ad 2d3f
00000130: 7399 b93e c403 013f bc52 f03e a065 ab3e
00000140: 3ba4 f63e e57f 293f 91f0 dc3e bfef 303f
00000150: 18aa e93e 294e 8a3e ee47 553f 2b4b 073f
00000160: a7ce 023f 8308 dd3e 085b c23e bdeb f53e
00000170: 6817 3e3f f841 ab3e 0246 fb3e c1e0 513f
00000180: 4928 e13e 6b90 a13e bb96 4a3f 850e e73e
00000190: c32c 253f ec11 103f fc7c 953e 4910 023f
000001a0: b5fd 283f d32f 7c3f ba99 203f 2e1c 0d3f
000001b0: d536 da3e 21f4 fe3e 1834 183f aa1b d53e
000001c0: 5c72 823e 9008 b53e 807d 153f 402f 063f
000001d0: 171d 1f3e 043d f83e b32d f53e 8b63 a83e
000001e0: f759 073f c083 073f 001d 0f3f 8e2e f53e
000001f0: ad01 173f 3025 0b3f b57c 563e 996d f83e

cell_gate.weight f4 [128, 160]
0.19536501 0.1074048 0.14662942 0.056921765 0.3221178 0.07115797 0.02553974 0.0052691754
-0.16133028 -0.1650321 0.07756428 0.17413418 0.12608299 0.014601998 -0.15923789 0.14420459
-0.15804419 0.24059202 0.06683078 0.042605035 0.2618209 -0.29018316 0.102862135 -0.104332365
-0.048558775 -0.15251411 0.28630725 0.25280118 0.48370886 0.09594239 0.030573925 -0.30446875
0.038309522 -0.05644971 -0.38912156 0.28622425 0.16415496 0.47031072 0.1556081 -0.020450015
0.43626955 0.1463021 -0.057363346 0.13892616 0.51042646 -0.18656372 0.5470159 0.4400716
0.012327388 0.13620944 -0.1866102 0.06894033 -0.0879455 0.35213274 -0.02047837 -0.1311383
-0.048694346 0.022646578 -0.09678134 0.06683632 0.1157446 0.2335423 0.1293914 0.10239268
0.3285847 -0.035313334 -0.04671108 0.12743796 -0.09046854 0.04452085 0.1372838 0.1783043
0.151058 -0.06667126 0.025413873 -0.03881303 0.23727866 -0.013250208 -0.35353002 -0.004954505
-0.0781262 -0.22019549 0.16338499 -0.18442526 0.12984957 -0.17466325 0.073403314 -0.004971667
0.26084366 0.037998807 0.07393112 -0.27009067 0.30398393 0.18060803 -0.10824121 0.06774806
-0.16196834 0.36928898 0.15717065 -0.09800096 0.09382391 -0.13445447 -0.047397707 -0.04891816
-0.023338575 0.037928574 -0.3499508 0.10817405 -0.111844346 -0.14422123 0.48835853 0.2906875
-0.027950374 0.27622795 -0.27842987 -0.077149585 0.42317432 -0.121263474 -0.44183344 0.43867323
-0.12482165 -0.29261145 -0.19810724 -0.13010962 -0.15965949 0.10874058 0.078567214 0.30547708
0.24046856 -0.04591171 0.18012847 -0.13752717 -0.138923 0.16242222 0.23600231 0.09572658
-0.2958644 0.047794826 0.31622124 0.050438248 0.07695574 0.15595794 0.029176494 0.015254014
0.16161552 -0.19301446 -0.20872755 0.004459791 -0.017195977 0.31190944 -0.31314155 -0.003770252
0.20083663 0.052929513 0.22485425 -0.39717308 0.07967873 0.17752986 0.02830023 -0.17569725
0.010631024 0.05068312 -0.22670986 0.19837983 -0.18484998 0.23528768 -0.19830664 -0.40625829
-0.21846633 -0.20059359 0.17151855 -0.42063794 0.10750811 -0.17291617 -0.04989788 -0.22197011
0.025207488 -0.5094341 -0.07971822 -0.15144792 0.13979883 -0.0044632256 0.1450626 -0.008778114
-0.03905355 -0.31405157 0.15259543 0.106804475 0.19239153 0.28295982 -0.1274493 -0.01978555
0.11878151 0.064724594 -0.33037832 -0.21632293 -0.24126743 -0.3357229 -0.0016233099 0.3860305
0.27655724 0.020587172 0.021941774 0.07069349 0.19225448 0.07675784 -0.38224107 -0.06115983
-0.30150563 -0.27742445 -0.08346507 0.0017949955 -0.004031361 0.09336985 -0.112031385 0.12379448
-0.30039173 0.29591897 -0.12473329 -0.18626422 -0.4530454 0.45470166 0.13188812 0.09749381
-0.42031214 0.008463988 0.16702236 0.23196256 0.16312909 -0.2644587 -0.50417125 0.34040833
-0.26735914 -0.16502926 -0.1844844 0.023290459 -0.2698738 -0.039686907 0.224429 -0.18582836
-0.15941216 -0.2193466 0.08894818 0.025871066 -0.24737984 0.4290319 0.1662583 -0.10337276
-0.36305997 -0.46089014 -0.2731239 0.26514 -0.070282206 0.061710313 0.1638844 0.12838167
00000000: c40d 483e 0cf7 db3d 0626 163e cc26 693d
00000010: a0ec a43e 45bb 913d b838 d13c 0ca9 ac3b
00000020: c433 25be 2dfe 28be 05da 9e3d 3b50 323e
00000030: e61b 013e 383d 6f3c 420f 23be 5eaa 133e
00000040: 56d6 21be c15d 763e 93de 883d 9e82 2e3d
00000050: 640d 863e e392 94be 62a9 d23d 35ac d5bd
00000060: 91e5 46bd a92c 1cbe dd96 923e 286f 813e
00000070: b0a8 f73e 727d c43d 2b76 fa3c 54e3 9bbe
00000080: 72ea 1c3d d037 67bd f13a c7be fc8b 923e
00000090: 3d18 283e 91cc f03e bb57 1f3e ca86 a7bc
000000a0: b95e df3e 38d0 153e d4f5 6abd a942 0e3e
000000b0: 4fab 023f 8f0a 3fbe 3c09 0c3f 1151 e13e
000000c0: d0f8 493c 7d7a 0b3e bf16 3fbe 9630 8d3d
000000d0: c51c b4bd be4a b43e 41c2 a7bc 1e49 06be
000000e0: b973 47bd 5185 b93c 4c35 c6bd 7be1 883d
000000f0: 810b ed3d b625 6f3e 2e7f 043e 41b3 d13d
00000100: 413c a83e b7a4 10bd 1e54 3fbd 197f 023e
00000110: 9247 b9bd 7f5b 363d 2094 0c3e 6795 363e
00000120: f3ae 1a3e f18a 88bd c130 d03c 69fa 1ebd
00000130: 2df9 723e 6717 59bc e301 b5be 6659 a2bb
00000140: a100 a0bd ed7a 61be 654e 273e fad9 3cbe
00000150: 49f7 043e ecda 32be 7a54 963d 5ee9 a2bb
00000160: 4d8d 853e a3a4 1b3d 3369 973d 5349 8abe
00000170: c8a3 9b3e 50f1 383e 91ad ddbd 7fbf 8a3d
00000180: 07db 25be 7213 bd3e 58f1 203e bab4 c8bd
00000190: c026 c03d 6fae 09be 1924 42bd 695e 48bd
000001a0: 8a30 bfbc fe5a 1b3d c02c b3be 5b8a dd3d
000001b0: a60e e5bd bbae 13be 210a fa3e fed4 943e
000001c0: 2ff8 e4bc c06d 8d3e 5c8e 8ebe 9a00 9ebd
000001d0: 4eaa d83e fc58 f8bd fe37 e2be c799 e03e
000001e0: 7ea2 ffbd 2bd1 95be a0dc 4abe 753b 05be
000001f0: c77d 23be 62b3 de3d d9e7 a03d 7e67 9c3e
00000200: 643d 763e eb0d 3cbd 9973 383e ecd3 0cbe
00000210: d541 0ebe 0352 263e 97aa 713e 4c0c c43d
00000220: 8a7b 97be 82c4 433d c0e7 a13e 5698 4e3d
00000230: f99a 9d3d 70b3 1f3e 8b03 ef3c f9eb 793c
00000240: 8a7e 253e 95a5 45be adbc 55be 7023 923b
00000250: 94de 8cbc 98b2 9f3e 1754 a0be 5516 77bb
00000260: 1ea8 4d3e 9ecc 583d 3140 663e 455a cbbe
00000270: 9a2e a33d 63ca 353e e2d5 e73c fbe9 33be
00000280: bf2d 2e3c 1a99 4f3d a126 68be 1524 4b3e
00000290: 5049 3dbe 41ef 703e e510 4bbe 1601 d0be
000002a0: a3b5 5fbe 6868 4dbe 8fa2 2f3e db5d d7be
000002b0: 362d dc3d f010 31be b861 4cbd 224c 63be
000002c0: ef7f ce3c 466a 02bf 4e43 a3bd 2a15 1bbe
000002d0: 6d27 0f3e 4040 92bb 4a8b 143e 14d2 0fbc
000002e0: 9ef6 1fbd 5ecb a0be fa41 1c3e 4ebc da3d
000002f0: 4902 453e 1ce0 903e 1282 02be 4e15 a2bc
00000300: b843 f33d 548e 843d 5927 a9be c283 5dbe
00000310: cf0e 77be dfe3 abbe 3ec5 d4ba caa5 c53e
00000320: e998 8d3e 6ea6 a83c 3cbf b33c c0c7 903d
00000330: 5cde 443e 3733 9d3d 1ab5 c3be bb82 7abd
00000340: f25e 9abe 940a 8ebe bcef aabd 0e46 eb3a
00000350: 8219 84bb b138 bf3d b670 e5bd f687 fd3d
00000360: f2cc 99be b182 973e 2b74 ffbd 0cbc 3ebe
00000370: 91f5 e7be a8ce e83e ae0d 073e d6aa c73d
00000380: 2733 d7be 8aac 0a3c e907 2b3e 9887 6d3e
00000390: 500b 273e 2167 87be 5e11 01bf 004a ae3e
000003a0: 4ce3 88be 6efd 28be 7be9 3cbe a2cb be3c
000003b0: e62c 8abe bd8e 22bd b7d0 653e ca49 3ebe
000003c0: f13c 23be 659c 60be 772a b63d 8fef d33c
000003d0: 2451 7dbe 12aa db3e 9e3f 2a3e 19b5 d3bd
000003e0: ffe2 b9be cbf9 ebbe e5d6 8bbe 6ec0 873e
000003f0: 1ef0 8fbd f4c3 7c3d 50d1 273e 7c76 033e

cell_gate.bias f4 [128]
-0.056793537 -0.12588525 -0.26069367 0.21920028 0.052223384 0.20853205 0.40759465 0.06059435
0.051072076 0.05043439 -0.056211557 0.030682232 -0.15385751 -0.17195378 0.04217675 -0.14250748
0.15471624 0.2108697 -0.21125305 0.071341455 0.06465449 0.075034685 -0.15491721 0.15164731
-0.34442195 -0.22128306 -0.20187843 0.3230686 -0.2628942 -0.10251265 0.1862115 -0.22948715
0.058878645 0.0053762603 -0.12544778 0.24314035 0.3041317 0.03348123 0.050927084 0.055010732
0.18577835 0.1612428 0.22426932 0.016200079 0.045912787 0.16473389 0.18766205 0.12869538
-0.2674097 -0.17409743 0.28708842 0.016812647 0.08966924 -0.3791259 -0.08207658 0.20425741
0.14780587 0.14139639 -0.1200817 -0.18009244 0.0422991 0.22844447 -0.18048368 0.2525047
0.0022324594 0.41811568 -0.091534354 -0.0443075 -0.0813467 0.26466677 0.40130886 0.57076424
0.16835138 0.089141086 0.20200206 0.08337662 -0.22153054 -0.14001349 0.39988714 0.07379387
0.094806135 0.113384016 -0.25349727 -0.09658864 -0.055365354 -0.10541077 0.033312485 0.2141595
-0.005584534 -0.0044971304 -0.023429649 -0.09543126 -0.26050273 0.14287817 -0.23643942 0.115819916
0.26006344 -0.26019686 -0.3420503 0.21808617 -0.010436397 0.26350683 0.034335427 -0.0019903805
-0.17984311 0.51488113 0.1446106 -0.3999878 -0.085168436 0.20083773 0.089264266 0.08397836
-0.21269923 0.1322822 -0.10698527 -0.33362177 0.20301586 -0.06252008 0.108758025 0.14555393
-0.037747636 -0.25642624 -0.15668282 -0.07400074 -0.11791773 -0.062429473 0.1420904 -0.09997232
00000000: 57a0 68bd 10e8 00be a479 85be 0a76 603e
00000010: 30e8 553d 6d89 553e 3fb0 d03e c831 783d
00000020: f430 513d 4a94 4e3d 173e 66bd 4e59 fb3c
00000030: d38c 1dbe a714 30be 87c1 2c3d 7bed 11be
00000040: ef6d 1e3e 3aee 573e b852 58be 781b 923d
00000050: 9369 843d c9ab 993d 9ea2 1ebe 6f49 1b3e
00000060: 1358 b0be 0798 62be 38b9 4ebe 3f69 a53e
00000070: 129a 86be 27f2 d1bd 3aae 3e3e aefe 6abe
00000080: bc2a 713d 572b b03b 6275 00be c9f9 783e
00000090: 26b7 9b3e 9d23 093d eb98 503d ef52 613d
000000a0: ae3c 3e3e d51c 253e dba6 653e 07b6 843c
000000b0: 0c0f 3c3d 00b0 283e 7b2a 403e b9c8 033e
000000c0: ede9 88be 9946 32be 41fd 923e adba 893c
000000d0: 82a4 b73d ca1c c2be c417 a8bd db28 513e
000000e0: 6c5a 173e 37ca 103e 65ed f5bd 276a 38be
000000f0: d241 2d3d 59ed 693e b7d0 38be 4c48 813e
00000100: 744e 123b 4213 d63e 5d76 bbbd c87b 35bd
00000110: 1999 a6bd 6782 873e 5b78 cd3e 9b1d 123f
00000120: 4e64 2c3e 9a8f b63d a1d9 4e3e 5dc1 aa3d
00000130: e7d8 62be b25f 0fbe 02be cc3e 3e21 973d
00000140: b829 c23d e135 e83d 65ca 81be 44d0 c5bd
00000150: c8c6 62bd 9ae1 d7bd ac72 083d a14c 5b3e
00000160: 77fe b6bb aa5c 93bb 89ef bfbc 7771 c3bd
00000170: 9d60 85be a84e 123e 2d1d 72be fe32 ed3d
00000180: 0927 853e 8638 85be 3821 afbe fb51 5f3e
00000190: 6cfd 2abc 5eea 863e 4ea3 0c3d 0b71 02bb
000001a0: cb28 38be 40cf 033f cd14 143e 33cb ccbe
000001b0: ca6c aebd 68a8 4d3e 2fd0 b63d d9fc ab3d
000001c0: d4cd 59be fc74 073e 181b dbbd 79d0 aabe
000001d0: 64e3 4f3e 870a 80bd 87bc de3d 170c 153e
000001e0: 449d 1abd 4d4a 83be 7671 20be b38d 97bd
000001f0: da7e f1bd 0cb6 7fbd 2580 113e 4abe ccbd

linear_ay.weight f4 [65, 128]
0.2916847 0.0069816695 0.28325891 -0.4260376 -0.5544153 -0.18495919 -0.6728613 -0.032854825
-0.034123812 -0.05908677 0.20686954 -0.11079756 0.27370474 0.4567629 -0.33260247 0.13000314
-0.1924562 -0.16945927 0.26721442 -0.5406532 0.19066305 -0.3342158 0.007641317 -0.33973163
0.16778845 -0.055035815 0.34463805 -0.23672171 0.23697694 0.11486495 -0.25524977 0.22899854
-0.13882537 0.16334175 -0.065311134 -0.40310624 -0.36413112 -0.40996742 -0.2910816 -0.08373748
-0.27632868 -0.35768768 -0.14654642 -0.036778294 -0.03606968 -0.14005734 -0.19966263 -0.32919863
0.29076594 0.09106176 -0.42502576 -0.007899296 -0.35177502 0.26985624 0.16335274 -0.15602125
-0.33182457 -0.4105141 -0.28907076 0.3490381 -0.21352506 -0.2782317 0.4603637 -0.18509029
-0.10939919 -0.48757437 0.11490253 0.2969139 -0.23449042 -0.41474342 -0.5574567 -0.44677174
-0.15967293 -0.14171432 -0.3965866 -0.2524037 0.4046808 0.082248986 -0.30968797 -0.41212624
-0.114540376 -0.0892329 0.17514269 0.120724015 -0.011966509 0.2145143 0.19889253 -0.13207828
0.048294164 0.123219915 0.16538985 -0.3060306 0.43015984 -0.21131605 0.19427985 -0.13027439
-0.2465199 -0.05958411 0.29939735 -0.18639193 0.21301998 -0.12853807 0.06685168 -0.09062193
0.38552877 -0.35915515 -0.52785444 0.41332868 0.35164905 -0.23272143 -0.50064963 -0.07054537
0.36210114 -0.18159418 0.28613636 0.16798754 -0.4590444 -0.33491552 -0.16239546 -0.30528474
0.060152225 0.08770946 0.07646176 0.2984815 0.13468568 -0.030723343 -0.3940573 0.19296294
0.2558287 -0.18268093 -0.04917341 -0.13896717 0.35552704 0.0046857353 -0.22736955 -0.030270332
0.11836912 0.09415322 0.03866906 0.5118401 0.12656535 -0.037224803 -0.1060813 -0.15567978
0.024196355 0.07575502 -0.123150714 -0.15822719 0.18220508 -0.04677145 -0.07256783 -0.58030856
-0.041414775 -0.1708609 -0.12613879 0.0009731761 -0.08125975 0.046412554 0.075133346 0.082751356
-0.15963916 0.16461435 0.09214281 0.017477555 0.07389503 0.057291478 0.010279266 -0.15399547
-0.0065100105 -0.030684512 -0.10569453 0.19892974 0.09239773 0.107402645 -0.45145115 0.0025203624
-0.06732581 0.36391637 0.1338403 -0.30872262 -0.36956874 -0.059521068 -0.06972122 0.08204507
-0.05597801 0.081487596 -0.28140533 0.21147224 0.066384815 -0.120754875 -0.14352599 -0.02211975
0.05515579 -0.09220182 0.23769408 0.04357088 0.20171773 -0.097784065 -0.022226673 -0.024605844
0.066604406 0.07284748 -0.17297475 0.08499006 -0.007370813 0.07491804 -0.087784186 0.06412102
-0.061754033 -0.17774525 0.09938123 -0.09967972 0.09204351 0.08621132 0.07278294 -0.085198924
0.048845038 -0.14284521 0.2395723 -0.38776222 0.0034347328 -0.06391905 0.16377406 0.07996385
0.11061203 -0.22153935 0.09813155 -0.25889933 0.093213305 -0.036045022 -0.054679003 0.13890357
-0.11483862 -0.21454547 0.24292794 -0.015551999 0.32603484 -0.1290073 -0.22925521 0.21611927
0.33922437 -0.0668169 0.040864866 0.1540928 -0.48720446 -0.026351867 -0.04459151 -0.21477504
-0.1690123 0.08622913 0.15821777 -0.05071286 -0.1863048 0.09737527 -0.0761573 0.052836485
00000000: b257 953e 7dc6 e43b 5007 913e 9a21 dabe
00000010: 29ee 0dbf f165 3dbe a340 2cbf c892 06bd
00000020: 69c5 0bbd f804 72bd 9cd5 533e d5e9 e2bd
00000030: 0723 8c3e d4dc e93e df4a aabe 8b1f 053e
00000040: 3d13 45be bb86 2dbe 54d0 883e 4068 0abf
00000050: 2d3d 433e 551e abbe 0364 fa3b 4ef1 adbe
00000060: bcd0 2b3e 3c6d 61bd 6674 b03e 2d67 72be
00000070: 15aa 723e 513e eb3d 19b0 82be 987e 6a3e
00000080: 3d28 0ebe 0f43 273e d8c1 85bd f163 cebe
00000090: 656f babe 40e7 d1be a608 95be 8e7e abbd
000000a0: f47a 8dbe d722 b7be 4410 16be d6a4 16bd
000000b0: cdbd 13bd 316b 0fbe 5c74 4cbe b98c a8be
000000c0: 46df 943e 977e ba3d fa9c d9be 0c6c 01bc
000000d0: db1b b4be 992a 8a3e f145 273e 09c4 1fbe
000000e0: e9e4 a9be e72e d2be 1501 94be 1fb5 b23e
000000f0: 50a6 5abe 6374 8ebe cab4 eb3e 4f88 3dbe
00000100: af0c e0bd 59a3 f9be 0552 eb3d 1905 983e
00000110: 421e 70be 4059 d4be 7bb5 0ebf 44bf e4be
00000120: 4d81 23be 8f1d 11be 660d cbbe 0f3b 81be
00000130: 5232 cf3e 2872 a83d 6c8f 9ebe 3602 d3be
00000140: 2594 eabd bdbf b6bd 9b58 333e 273e f73d
00000150: 2d0f 44bc a3a9 5b3e 7caa 4b3e 873f 07be
00000160: 1ad0 453d b95a fc3d f55b 293e 0bb0 9cbe
00000170: e93d dc3e 3c63 58be 4cf1 463e a666 05be
00000180: b66f 7cbe 780e 74bd 9c4a 993e 87dd 3ebe
00000190: e921 5a3e 7c9f 03be 89e9 883d fe97 b9bd
000001a0: 0764 c53e 2fe3 b7be 7821 07bf d19f d33e
000001b0: 580b b43e 874e 6ebe 932a 00bf 177a 90bd
000001c0: 5265 b93e d3f3 39be 7780 923e ed04 2c3e
000001d0: de07 ebbe 0c7a abbe ff4a 26be 484e 9cbe
000001e0: 2e62 763d 04a1 b33d fc97 9c3d 91d2 983e
000001f0: 0beb 093e 85af fbbc e1c1 c9be 1498 453e
00000200: fbfb 823e b610 3bbe 0f6a 49bd 694d 0ebe
00000210: a407 b63e cc8a 993b 90d3 68be 7df9 f7bc
00000220: 826b f23d 67d3 c03d 7363 1e3d f407 033f
00000230: 599a 013e 0979 18bd 2741 d9bd 856a 1fbe
00000240: 6f37 c63c 7325 9b3d 7136 fcbd 4f06 22be
00000250: f893 3a3e 6c93 3fbd 719e 94bd 1a8f 14bf
00000260: 8aa2 29bd 29f6 2ebe 872a 01be be1c 7f3a
00000270: 836b a6bd 171b 3e3d 83df 993d 8b79 a93d
00000280: 7378 23be aa90 283e 5fb5 bc3d 172d 8f3c
00000290: 4756 973d 78aa 6a3d 5e6a 283c fdb0 1dbe
000002a0: ed51 d5bb 165e fbbc 6076 d8bd 3db4 4b3e
000002b0: 053b bd3d ebf5 db3d 9b24 e7be aa2c 253b
000002c0: 1de2 89bd 3f53 ba3e 6e0d 093e e410 9ebe
000002d0: 1d38 bdbe 5dcc 73bd 00ca 8ebd 3f07 a83d
000002e0: 3349 65bd f8e2 a63d 5c14 90be 2e8c 583e
000002f0: c3f4 873d 554e f7bd 7af8 12be 7a34 b5bc
00000300: 0aeb 613d 4fd4 bcbd 1466 733e 6177 323d
00000310: 188f 4e3e 0343 c8bd b614 b6bc 3292 c9bc
00000320: e467 883d 0f31 953d 4b20 31be 450f ae3d
00000330: dc86 f1bb a16e 993d 32c8 b3bd e251 833d
00000340: ccf1 7cbd da02 36be 6388 cb3d e224 ccbd
00000350: 4f81 bc3d 8f8f b03d 390f 953d c67c aebd
00000360: bc11 483d 0446 12be 7152 753e c588 c6be
00000370: 4119 613b fee7 82bd 63b4 273e 16c4 a33d
00000380: 8f88 e23d 36db 62be 32f9 c83d 748e 84be
00000390: 9ee6 be3d f2a3 13bd 17f7 5fbd bd3c 0e3e
000003a0: 8330 ebbd cfb1 5bbe 1ac2 783e d0cd 7ebc
000003b0: 0aee a63e 7d1a 04be e1c1 6abe 5f4e 5d3e
000003c0: d1ae ad3e 4dd7 88bd eb61 273d 81ca 1d3e
000003d0: dd72 f9be dfdf d7bc 96a5 36bd fded 5bbe
000003e0: 8f11 2dbe e698 b03d d703 223e 4ab8 4fbd
000003f0: afc6 3ebe b06c c73d 5cf8 9bbd 126b 583d

linear_ay.bias f4 [65]
-0.22686836 -0.27809927 -0.01955323 0.053330947 0.011792077 -0.18934064 -0.0034456095 0.11760611
-0.23794238 -0.35702363 -0.23536271 -0.16716957 -0.08648695 -0.203991 -0.07699526 -0.11629864
-0.062677406 -0.055368055 -0.08046571 -0.38727242 -0.24964167 -0.027496561 -0.31513366 -0.39160618
-0.10165036 -0.3470022 0.33555079 -0.07044206 -0.13336325 -0.28589633 -0.26416925 -0.10485055
-0.22815108 -0.051111013 -0.3463033 -0.16348858 -0.06637552 0.24752411 0.11647751 0.13599893
-0.012058368 -0.038681775 0.108881995 -0.22576815 0.10565887 -0.039254185 0.12207024 -0.118619636
-0.2458533 -0.14483722 0.16557845 -0.0030158218 0.07581012 -0.10989357 -0.061034802 -0.062005807
0.116070695 0.1213043 -0.21560085 -0.04205719 0.10308272 -0.032490898 -0.08120485 -0.39741778
0.19307677
00000000: 2e50 68be 0763 8ebe 182e a0bc 8d71 5a3d
00000010: 8e33 413c 83e2 41be bccf 61bb 79db f03d
00000020: 2ba7 73be cdcb b6be ec02 71be 802e 2bbe
00000030: 1220 b1bd 04e3 50be b1af 9dbd fb2d eebd
00000040: 035d 80bd 9dc9 62bd 35cb a4bd 9248 c6be
00000050: 11a2 7fbe 7840 e1bc 3359 a1be 9b80 c8be
00000060: 102e d0bd 46aa b1be 50cd ab3e ed43 90bd
00000070: 6090 08be 0161 92be 3141 87be e3bb d6bd
00000080: 70a0 69be c859 51bd ab4e b1be 8d69 27be
00000090: e3ef 87bd f676 7d3e c38b ee3d 4e43 0b3e
000000a0: 7690 45bc c870 1ebd 86fd de3d c42f 67be
000000b0: ad63 d83d ffc8 20bd f6ff f93d daee f2bd
000000c0: f8c0 7bbe 3550 14be 668d 293e 18a5 45bb
000000d0: 5642 9b3d e10f e1bd a1ff 79bd cdf9 7dbd
000000e0: 79b6 ed3d 646e f83d 78c6 5cbe 2944 2cbd
000000f0: 081d d33d 2d15 05bd ba4e a6bd 587a cbbe
00000100: ebb5 453e

exp_avg f4 [65, 32]
-3.026105e-34 -9.052112e-34 -1.1726401e-33 2.5729575e-33 -3.9878183e-33 2.1550092e-33 -5.1269866e-33 9.785604e-34
-2.0130807e-33 -2.1571548e-33 3.3968955e-33 3.8027228e-33 -2.2439058e-33 -3.6562473e-34 3.0546936e-33 -9.150356e-33
-6.1671584e-33 -2.2404432e-33 3.259983e-33 2.768602e-33 -2.2611529e-35 -4.716792e-34 -1.2207178e-33 1.0449472e-33
-6.336506e-33 -2.7727353e-33 1.3821595e-34 2.0660492e-33 -4.4877303e-33 -3.885509e-34 4.7333065e-33 3.6797143e-33
-1.8214487e-05 -0.00011933768 -4.7835306e-06 6.903985e-06 0.00013306554 3.098007e-05 6.466732e-06 2.5810834e-05
3.2093558e-05 -4.1200525e-05 7.699138e-06 0.00011162095 1.0670246e-05 -4.9656755e-05 0.0001524299 0.0001742829
-8.887566e-05 6.382173e-05 3.908679e-05 -3.455445e-05 -0.000115630515 -4.311668e-05 3.6394424e-05 -2.099628e-05
3.5748795e-05 0.000109369874 0.00013321728 -0.0001792691 -5.654582e-05 -0.00015548637 9.7895245e-06 0.0001010424
-0.0007976902 -0.00045004787 2.1613283e-05 -0.0007714124 0.0008882885 -0.00023627383 0.00049726944 0.0011470289
0.00023389529 -0.0009203748 0.0003929895 -0.0007294821 0.00026016234 -0.00034517486 -1.8034634e-05 0.00028660355
0.00011531719 0.00030670955 -0.0011822842 -0.000362653 -0.0016264801 0.0001892974 0.0002443129 0.00068617484
0.00073699397 0.0014178669 6.640561e-05 -0.0010589231 -0.0005522036 -0.0029698052 0.00043417048 0.0012455302
-2.1620428e-05 0.00028212887 3.8104004e-05 -0.00012561934 -0.0001217474 0.00021936922 -6.208708e-05 -0.00010317244
-0.000119611665 8.8228844e-05 0.00011832364 -7.017867e-06 -0.00013033595 0.00027868865 2.6401754e-05 -9.9155586e-05
0.000118981574 -0.000103677696 -0.0001927035 0.00018722363 6.3287303e-06 -0.00010131084 -0.00011716068 9.747309e-05
-8.855533e-05 -0.00019891688 -9.345886e-05 -1.5636442e-05 -0.00010154543 0.00014711019 -0.00011400915 1.9146446e-06
-0.00029295878 -2.2670501e-05 -0.00068190024 9.235835e-05 -0.0003386375 -0.00042381906 -4.240079e-05 -0.0004992318
-0.0005804287 0.00015016763 -0.0003585358 -0.00017589713 0.00038968024 0.0002748512 0.00014285036 -0.0005326259
-0.00019018067 -0.00071121997 -0.00022756998 7.986979e-05 -0.000290224 -0.00015835004 -0.00019258368 9.609454e-05
4.9050304e-05 -0.0001512364 -0.0009848687 -0.0007933505 -4.1241186e-05 0.0002595242 0.00071322493 0.0003885449
3.9332197e-05 0.00032993653 0.00039649583 -0.00056742976 -0.0002895584 -0.00049579033 0.00025316447 0.00031930723
0.0001118492 0.0004192431 2.7531278e-05 -5.488616e-05 -7.278455e-05 0.00027424152 0.00031611152 4.967415e-05
7.8684345e-05 7.0316464e-06 0.000115269606 0.00015979809 0.00018344709 -0.00019961357 -0.00068864913 -0.0002153105
-0.00018185747 -0.00018629839 -0.00012871278 -0.0003126572 -0.00034920996 -0.00011173038 -0.0005159772 8.2916835e-05
0.00044514966 -4.52708e-05 -0.00022240516 8.696414e-05 -9.9045246e-05 0.0006252739 0.0001115618 0.00040525812
-3.985662e-05 -0.00012113761 -0.00043302102 -0.00011708614 -3.9969596e-05 -0.000298462 -0.00050507364 6.1217994e-05
-2.1562168e-05 -0.00034374572 0.00033760004 0.00035866039 0.00013214644 0.00040873297 -0.00057841867 -0.00018734574
0.00010668169 0.00033918195 -0.00031203398 0.00032007264 0.00028353825 4.0835894e-05 -0.000109971355 -0.00035691995
-0.00041596004 0.0008725924 -0.00019852948 -0.00011607381 -0.00044055353 -3.630181e-05 -0.00014787166 -0.00043012988
0.00033873395 2.194901e-05 0.00024743855 -0.00016952441 -0.00036242316 -3.9632338e-05 0.00018616632 6.048741e-05
0.00023352959 0.0006117967 0.0006435116 -9.078175e-06 0.00019612993 0.00061299105 8.601974e-05 0.00024729312
0.00045990822 -0.00013864758 -0.00018390869 0.000533987 -1.1541786e-05 0.0001816389 0.00026752945 0.00040577608
00000000: 821e c987 6d67 9688 98d6 c288 c1c0 5509
00000010: c2a5 a589 fa07 3309 79f7 d489 5b97 a208
00000020: 7e3d 2789 9c35 3389 fd19 8d09 7cf5 9d09
00000030: 996a 3a89 d3ff f287 26c6 7d09 a30b 3e8a
00000040: 3d16 008a f520 3a89 166a 8709 a701 6609
00000050: 7072 f085 07be 1c88 98d3 ca88 239f ad08
00000060: a59a 038a 8f59 6689 73b8 3707 02a4 2b09
00000070: bc69 ba89 411e 0188 269d c409 6fd9 9809
00000080: 50cb 98b7 ee44 fab8 3782 a0b6 c8a8 e736
00000090: 8287 0b39 99f0 0138 cefc d836 5884 d837
000000a0: 329c 0638 bace 2cb8 8c2b 0137 0b16 ea38
000000b0: 5c04 3337 8946 50b8 97d5 1f39 b6bf 3639
000000c0: c262 bab8 08d8 8538 1ff1 2338 8fee 10b8
000000d0: a97e f2b8 2fd8 34b8 37a6 1838 2b21 b0b7
000000e0: faf0 1538 815d e538 3eb0 0b39 2ffa 3bb9
000000f0: 9d2b 6db8 0e0a 23b9 b03d 2437 bae6 d338
00000100: 151c 51ba 67f4 ebb9 2c4e b537 9c38 4aba
00000110: 08dc 683a 46c0 77b9 305b 023a e757 963a
00000120: ca41 7539 4f45 71ba 280a ce39 b73a 3fba
00000130: 6666 8839 96f8 b4b9 1549 97b7 4743 9639
00000140: 72d6 f138 dccd a039 e0f6 9aba 7622 beb9
00000150: 9e2f d5ba 227e 4639 1f17 8039 6ae0 333a
00000160: d432 413a b8d7 b93a 3e43 8b38 90cb 8aba
00000170: c2c1 10ba 10a1 42bb 60a1 e339 0f41 a33a
00000180: 845d b5b7 b2ea 9339 ddd1 1f38 afb8 03b9
00000190: a352 ffb8 7a06 6639 bf34 82b8 485e d8b8
000001a0: 06d8 fab8 8007 b938 8524 f838 057b ebb6
000001b0: caaa 08b9 f51c 9239 5679 dd37 c0f1 cfb8
000001c0: bf85 f938 8a6d d9b8 7410 4ab9 7651 4439
000001d0: 615b d436 d876 d4b8 29b4 f5b8 776a cc38
000001e0: c8b6 b9b8 5894 50b9 58ff c3b8 012b 83b7
000001f0: caf4 d4b8 9741 1a39 3218 efb8 587d 0036
00000200: 4398 99b9 882c beb7 8dc1 32ba 83b0 c138
00000210: 288b b1b9 0834 deb9 80d7 31b8 e1de 02ba
00000220: e927 18ba 5176 1d39 dcf9 bbb9 0771 38b9
00000230: ff4d cc39 e719 9039 1aca 1539 eb9f 0bba
00000240: 3c6b 47b9 2a71 3aba da9f 6eb9 c47f a738
00000250: 3529 98b9 c40a 26b9 4af0 49b9 5d86 c938
00000260: 5dbb 4d38 3695 1eb9 b616 81ba daf8 4fba
00000270: 63fa 2cb8 c010 8839 b7f7 3a3a 9db5 cb39
00000280: a0f8 2438 55fb ac39 c5e0 cf39 91bf 14ba
00000290: dfcf 97b9 edf7 01ba 29bb 8439 b168 a739
000002a0: 9590 ea38 dbcd db39 f8f2 e637 9135 66b8
000002b0: e8a3 98b8 13c8 8f39 c5bb a539 3659 5038
000002c0: 5603 a538 62f1 eb36 e6bc f138 798f 2739
000002d0: b45b 4039 5c4f 51b9 7686 34ba f9c4 61b9
000002e0: feb0 3eb9 1859 43b9 13f7 06b9 24ec a3b9
000002f0: 2b16 b7b9 ca50 eab8 a542 07ba a3e3 ad38
00000300: fa62 e939 27e1 3db8 6e35 69b9 8460 b638
00000310: 83b6 cfb8 6ce9 233a 49f6 e938 d378 d439
00000320: b82b 27b8 420b feb8 1907 e3b9 258c f5b8
00000330: 07a5 27b8 e47a 9cb9 eb66 04ba 2962 8038
00000340: 67e0 b4b7 c538 b4b9 e9ff b039 950a bc39
00000350: ca90 0a39 364b d639 05a1 17ba 3d72 44b9
00000360: 4cba df38 3bd4 b139 7e98 a3b9 6ccf a739
00000370: dca7 9439 3547 2b38 6ca0 e6b8 fc20 bbb9
00000380: 3615 dab9 afbe 643a 5a2c 50b9 a76c f3b8
00000390: 18fa e6b9 c642 18b8 ff0d 1bb9 0e83 e1b9
000003a0: 1a98 b139 241f b837 a4ba 8139 5dc2 31b9
000003b0: 9d03 beb9 e63a 26b8 a435 4339 ddb3 7d38
000003c0: 9fdf 7439 fb60 203a 55b1 283a 774e 18b7
000003d0: 3aa8 4d39 22b1 203a 7f65 b438 1fa7 8139
000003e0: d61f f139 ed61 11b9 9dd7 40b9 43fb 0b3a
000003f0: 98a3 41b7 5276 3e39 3243 8c39 58be d439
