checkpoints/rnn.ckpt (torch, 386187 bytes, 21 tensors)

tok_embedding.weight f4 [65, 32]
0	0xbf1643d7	-0.58697265
1	0xbfe919ff	-1.8211058
2	0xbecf06f0	-0.4043498
3	0xbdd4ea4f	-0.10396253
4	0x3f4c86d4	0.7989323
5	0xbebb82db	-0.36623272
6	0xbf11c6ee	-0.5694417
7	0x3f2bba87	0.67081493
8	0x3f8277c8	1.0192804
9	0xbefe03a0	-0.4961214
10	0xbf90dce2	-1.1317408
11	0xc02764b4	-2.6155214
12	0x3f788038	0.97070646
13	0xbfc07892	-1.5036795
14	0x3f67503c	0.903568
15	0xbeff285f	-0.49835488
16	0xbee2ab5a	-0.44271356
17	0x401879bd	2.3824303
18	0xbebc1577	-0.36735126
19	0x402865b0	2.6312065
20	0xbffa680d	-1.9563004
21	0x3f17e350	0.59331226
22	0x3ffccfa2	1.9750865
23	0x3f762920	0.961565
24	0x40056c3c	2.084731
25	0xbf3fb1bd	-0.7488058
26	0x3f01f467	0.50763553
27	0xbf989cef	-1.1922892
28	0xbf054b8d	-0.52068406
29	0x3e3ebb20	0.1862607
30	0x402d4d95	2.7078602
31	0x3f0b16ea	0.5433184
32	0xbe043dca	-0.12914196
33	0x3ea0d6be	0.31413835
34	0x3fdb94f0	1.7154827
35	0xbf8eb411	-1.1148702
36	0x3ea3bc8a	0.3197978
37	0x3f8d4b2f	1.1038569
38	0xbf525bda	-0.82171404
39	0xbdf2db36	-0.118582174
40	0xbfbe1b01	-1.4851991
41	0xbfa5c34f	-1.2950228
42	0x3ea8d402	0.3297425
43	0xbff643ec	-1.9239478
44	0x401cbe86	2.4491286
45	0x3e672632	0.22573164
46	0x40175884	2.3647776
47	0xc085f8a2	-4.1866007
48	0xbf94afa5	-1.1616102
49	0x3f712727	0.94200367
50	0x3f3965ca	0.7242094
51	0x3f187ff6	0.5957025
52	0xbf6e84df	-0.93171495
53	0x3ff26396	1.8936641
54	0x3f32d60e	0.6985787
55	0xbf224cca	-0.6339842
56	0x40338a6f	2.8053243
57	0xbf84fb8e	-1.0389268
58	0x3e4a07e7	0.19729577
59	0xbcb3c1f6	-0.021943074
60	0xbfa7b6ec	-1.3102698
61	0xbe9cc6a2	-0.30620295
62	0x4041b8db	3.0269077
63	0x3f1a2139	0.60206944
64	0xbfcd86fb	-1.6056818
65	0xbf2db7c6	-0.6785854
66	0xc0369e02	-2.853394
67	0xbf835329	-1.0259753
68	0x3fcb06e2	1.5861475
69	0xbf48a797	-0.7838072
70	0xbfd6d0be	-1.6782453
71	0xbf38d9f5	-0.72207576
72	0x3e8c49d9	0.2740009
73	0xbf7aad24	-0.9792044
74	0xbde9b126	-0.114107415
75	0xbdce516a	-0.10074122
76	0x3e822f6a	0.254268
77	0x3db50922	0.088396326
78	0xbf249569	-0.6429048
79	0x3e6c8a3c	0.23099607
80	0x3fa356eb	1.27609
81	0x3e970723	0.29497632
82	0xbfb96b73	-1.4485916
83	0x3f3d14f4	0.73860097
84	0xbfc2dfa5	-1.5224501
85	0x3f06179e	0.52379787
86	0xbf6f1b6b	-0.9340121
87	0x3c9623cd	0.018327618
88	0xbf0c5113	-0.5481121
89	0xbe0199b8	-0.12656295
90	0x3eb909ad	0.36140195
91	0x3f30ad45	0.6901439
92	0x3fab21b0	1.3369656
93	0xbf8efdd1	-1.1171209
94	0xbf94e686	-1.163285
95	0xbf24b2b2	-0.6433517
96	0x3e939cb0	0.2883048
97	0x3fe635aa	1.7985127
98	0xbfdb3c34	-1.7127748
99	0xc013b158	-2.3076992
100	0x3e4a4423	0.19752555
101	0x3d1afbcf	0.0378378
102	0xbfe64a35	-1.7991396
103	0x3f3a092d	0.7267025
104	0x3f1fdc13	0.6244518
105	0xbfafabdd	-1.3724324
106	0x3f42c8d1	0.7608767
107	0x3ea2948e	0.31753963
108	0x3e6d50f2	0.2317541
109	0x3f6f9210	0.9358225
110	0xbf854e20	-1.0414467
111	0xbe01a0dd	-0.1265902
112	0xbf8da4b2	-1.1065886
113	0x3fe5f07a	1.7964013
114	0xbec322fc	-0.38112628
115	0xbf8c6da5	-1.0970961
116	0xbeabc179	-0.33546045
117	0xbfe8d954	-1.8191323
118	0xc05fbef5	-3.49603
119	0xc0128ebf	-2.2899625
120	0xbf172e03	-0.59054583
121	0x3feb2896	1.8371761
122	0xc01ca736	-2.4477057
123	0x3f10c73a	0.56553996
124	0x3f2a8476	0.6660837
125	0xc032cf8f	-2.7939184
126	0x3f83a7b3	1.0285553
127	0x3f5cac04	0.86199975
128	0xbfa46234	-1.2842469
129	0xbe921855	-0.2853419
130	0xbfa3c1de	-1.2793539
131	0xbf14bffc	-0.58105445
132	0xbfc7b1a3	-1.5601085
133	0xbeee3702	-0.46526343
134	0xbdf3435c	-0.11878082
135	0xbefb151c	-0.49039543
136	0xbf414171	-0.7549048
137	0xbf260356	-0.6484884
138	0xc028307e	-2.6279597
139	0xbf30bc41	-0.6903725
140	0x3edf3ace	0.43599552
141	0x4002920d	2.0401642
142	0x3f6ffd5e	0.9374598
143	0x3fcb7527	1.5895127
144	0xc0280618	-2.625372
145	0x3c34b650	0.011029795
146	0x3ee586bf	0.44829366
147	0xbf042b54	-0.51628613
148	0xbfc1969d	-1.5124089
149	0xbecb6e9b	-0.39732823
150	0xbfb422e3	-1.4073147
151	0x3f79875c	0.97472167
152	0xbecdc8c1	-0.40192226
153	0xbf2a8e90	-0.66623783
154	0xbe26ff2e	-0.16308281
155	0xbf6899ba	-0.9085957
156	0x3e051b96	0.12998804
157	0x3d4ef088	0.050522357
158	0xbe57cf2d	-0.21075125
159	0x3f7c7fcd	0.9863251
160	0xbf90de01	-1.131775
161	0xbf0b5a4e	-0.5443467
162	0x3fa433fa	1.2828362
163	0xbf330bac	-0.69939685
164	0xc01e15d5	-2.4700825
165	0x3e6ce84d	0.2313549
166	0xbfc9e906	-1.5774238
167	0x3f26fb48	0.65227175
168	0x3f6a9f52	0.91649354
169	0x4012cff7	2.2939432
170	0x4054ed27	3.3269746
171	0x3eb4d79f	0.35320756
172	0x3f04c7b6	0.51867235
173	0xbeda031f	-0.42580506
174	0xc03261eb	-2.7872264
175	0xbe0cd392	-0.13752583
176	0xbfc7eb54	-1.5618691
177	0x3e82a88d	0.2551922
178	0x3ee64a05	0.44978347
179	0x3f72e461	0.9487973
180	0xbe7142cc	-0.23560637
181	0xbf7e3bf6	-0.99310243
182	0xbf0f82df	-0.5605907
183	0xbfb3420e	-1.4004533
184	0xbfc907c2	-1.5705492
185	0x3f9f454b	1.2443022
186	0xbf4f100c	-0.8088386
187	0xbf758449	-0.95904976
188	0xbfbd8ec8	-1.4809198
189	0x3f8aae53	1.083445
190	0x3f431734	0.7620728
191	0xbd8cb15f	-0.06869768
192	0xbf9ea7ac	-1.2394919
193	0x3f2e240b	0.6802375
194	0xbf2c8013	-0.67382926
195	0xbe10db12	-0.14146069
196	0xbf5c0f77	-0.859611
197	0xbeba2fcf	-0.363646
198	0x3eb9c1ee	0.3628077
199	0x40054471	2.0823023
200	0x3faa1aed	1.3289467
201	0x3f48d076	0.78443086
202	0x3fe7509e	1.8071477
203	0xbf3a63b9	-0.72808415
204	0x3f5ea2f5	0.869674
205	0x40095827	2.1460054
206	0xbf4cbfd2	-0.79980195
207	0xbc74f028	-0.014949836
208	0x3fc60eef	1.5473307
209	0x3f34e6a4	0.7066443
210	0xbeb4cfae	-0.35314697
211	0xbfd2a2cc	-1.6455932
212	0x3e1d7a93	0.1537879
213	0x3f4d34f5	0.8015893
214	0x3c6844d7	0.014176569
215	0x3ecc231f	0.39870545
216	0xbdeceaaf	-0.115682
217	0xc038d4e8	-2.8879948
218	0xbf65d15c	-0.8977258
219	0xbf75795e	-0.95888317
220	0x3ec0cbf4	0.37655604
221	0xbe9144e1	-0.28372863
222	0xbeff41eb	-0.4985498
223	0x3f18bc2a	0.59662116
224	0x3f1f008f	0.6211023
225	0xbfdad973	-1.709761
226	0x3fbe41e5	1.486386
227	0xbf829da1	-1.0204355
228	0x3ff9aa16	1.9505031
229	0xbf2cd06f	-0.67505544
230	0x3d67718b	0.056504767
231	0x3f12e2bb	0.57377213
232	0xbefe3525	-0.4964992
233	0xbf5867e2	-0.8453351
234	0xbfacbb10	-1.3494587
235	0xbfbe5005	-1.486817
236	0x3e411f43	0.18859582
237	0xbf01db35	-0.5072511
238	0x3fee567d	1.8620144
239	0x3f8fc647	1.1232384
240	0x3fbd97be	1.4811933
241	0x3e738b22	0.23783544
242	0x3f49dd41	0.7885323
243	0xbd86dbb1	-0.065848716
244	0xbde5088d	-0.111832716
245	0xbf4bede0	-0.79659843
246	0xbf8297a1	-1.0202523
247	0xbf618bb0	-0.8810377
248	0x3dc09567	0.09403496
249	0xbdec86f7	-0.1154918
250	0xc0352d22	-2.8308797
251	0x3e93e626	0.28886527
252	0xbfb75384	-1.4322362
253	0x3ecd9ea2	0.4016009
254	0xbe04610b	-0.12927644
255	0x3f52c4fe	0.82331836

linear_xa.weight f4 [128, 32]
0	0xbe074ce8	-0.13212931
1	0xbe74d9ef	-0.2391126
2	0xbf0b3334	-0.54375005
3	0xbe560835	-0.20901568
4	0xbdbbd4af	-0.091714256
5	0x3d817a9f	0.06322216
6	0x3e8af0ea	0.27136928
7	0xbeb65d51	-0.3561807
8	0x3dddc774	0.10829058
9	0x3ea3e659	0.3201168
10	0xbeb7ce8f	-0.3589978
11	0xbea144b0	-0.31497717
12	0x3e9cd185	0.306286
13	0x3ea8c1fd	0.329605
14	0x3c780945	0.015138929
15	0xbe8546fb	-0.26030716
16	0xbd51f31b	-0.051257234
17	0xbaa24988	-0.0012381533
18	0x3c53d657	0.012929521
19	0x3e09e7ba	0.13467303
20	0xbe96759b	-0.293866
21	0x3eb80ff6	0.35949677
22	0xbd5fb6b4	-0.0546176
23	0x3e8ba8ab	0.2727712
24	0x3f3fa1d9	0.74856335
25	0x3f0aa655	0.5416005
26	0x3e7cf9e3	0.24704699
27	0xbe341b47	-0.1758853
28	0xbdfb6e1d	-0.12276862
29	0xbdcbae44	-0.09945348
30	0x3e9bdda9	0.3044255
31	0xbef2af9a	-0.47399598
32	0x3e6ac909	0.22928251
33	0x3e0ae44c	0.13563651
34	0xbdf93c09	-0.12169654
35	0x3eb698ce	0.35663456
36	0xbe53a885	-0.20669754
37	0xbefb5e86	-0.49095553
38	0x3dfda46d	0.12384877
39	0x3eb388d1	0.3506532
40	0xbf0ea047	-0.55713314
41	0xbe91dff2	-0.2849117
42	0x3ebceba1	0.3689852
43	0x3da95045	0.08267263
44	0x3aabe51e	0.0013114547
45	0x3f07cfd5	0.530515
46	0xbe633b6d	-0.22190638
47	0x3ecc4b57	0.3990123
48	0x3e3d2701	0.1847191
49	0x3eaa8ee4	0.33312142
50	0x3d3c8367	0.046023753
51	0xbe5336a2	-0.2062631
52	0x3f126b18	0.5719466
53	0xbe7d2534	-0.24721223
54	0xbe587e10	-0.21141839
55	0x3ea1c561	0.315959
56	0x3eaa0aba	0.3321131
57	0x3e185f00	0.1487999
58	0xbdf4f11f	-0.11960053
59	0xbd815d9e	-0.06316684
60	0xbeb5ff82	-0.355465
61	0xbdfe38da	-0.12413187
62	0xbe16f5ab	-0.14742152
63	0xbf02bc39	-0.51068455
64	0xbdd222ac	-0.102605194
65	0x3e96d951	0.29462674
66	0x3d168197	0.03674468
67	0xbe97f5f6	-0.2967984
68	0xbf250b9f	-0.6447086
69	0xbe8e7a97	-0.27827904
70	0x3e8f3486	0.2796976
71	0xbd8d787f	-0.069077484
72	0xbe862248	-0.2619803
73	0x3e6608c4	0.22464281
74	0xbe416fd6	-0.18890318
75	0x3e9a6598	0.30155635
76	0xbd3b7708	-0.045767814
77	0x3de24df6	0.11050026
78	0xbe456bf5	-0.19279464
79	0x3f358fd4	0.7092259
80	0xbe0409c6	-0.12894353
81	0x3e92f9af	0.28706118
82	0x3e7ba307	0.24573909
83	0xbd82134f	-0.06351339
84	0x3ee71b83	0.45138177
85	0xbe2a7dd5	-0.16649564
86	0xbeae9841	-0.34100536
87	0xbcc72410	-0.024309188
88	0x3e6aefb9	0.2294301
89	0xbe20d0c6	-0.15704641
90	0xbe9e8e3c	-0.3096789
91	0xbe75b7d7	-0.2399591
92	0xbea67f95	-0.32519212
93	0x3e8c7139	0.27430132
94	0x3d9031a2	0.07040717
95	0xbeb59236	-0.35463113
96	0xbd72dc60	-0.059292197
97	0x3d88a85b	0.06672736
98	0x3e11a4cc	0.14223021
99	0xbbe11e02	-0.0068700323
100	0x3ea1439e	0.314969
101	0xbe86a038	-0.26294112
102	0xbca1b91d	-0.01974159
103	0xbd1edc82	-0.03878451
104	0xbe55c9e8	-0.20877802
105	0x3c9990c6	0.018745791
106	0xbe8eca48	-0.27888703
107	0xbe8d34ec	-0.2757944
108	0x3ed68332	0.4189697
109	0xbe8bec69	-0.27328804
110	0x3e90eba6	0.28304785
111	0xbeed0fee	-0.46301216
112	0xbe52d8a0	-0.20590448
113	0x3f380365	0.7188018
114	0x3ec61d5e	0.3869428
115	0xbf0d5064	-0.5520079
116	0xbc0748fd	-0.008257148
117	0x3d209b96	0.03921088
118	0x3ea15537	0.31510326
119	0x3efff35c	0.49990356
120	0xbdb9c338	-0.09070438
121	0xbe81638c	-0.2527126
122	0xbe80c1d4	-0.2514788
123	0xbf0da9d3	-0.55337256
124	0xbea9d863	-0.33172902
125	0x3ef09452	0.4698816
126	0xbdd5b7b3	-0.104354285
127	0x3edc381b	0.43011555
128	0x3c25166d	0.0100761475
129	0xbe514b97	-0.20438991
130	0xbeaa2ca7	-0.33237192
131	0x3e105f5e	0.1409888
132	0x3e5d8847	0.21634017
133	0x3e080fc0	0.13287258
134	0x3ecbeee2	0.3983069
135	0x3f1a16cb	0.6019103
136	0x3de20613	0.11036315
137	0x3f035575	0.5130227
138	0x3e26b41c	0.16279644
139	0x3e332f51	0.17498519
140	0xbe775384	-0.24152952
141	0xbea564da	-0.32303506
142	0x3e15e89c	0.14639515
143	0xbf2562d7	-0.6460394
144	0x3d96a13b	0.07354971
145	0x3e3dd04c	0.1853649
146	0xbe6bfd09	-0.23045744
147	0xbe432608	-0.19057477
148	0x3bb5f26f	0.005552582
149	0x3e933b62	0.28756243
150	0xbe8c7cda	-0.27439004
151	0x3e5f9f7d	0.21838184
152	0xbc467c1f	-0.012114554
153	0x3e360cb9	0.17778291
154	0x3e89873c	0.26860988
155	0x3ed75555	0.4205729
156	0xbd132b35	-0.035929877
157	0xbe1f18e3	-0.15536837
158	0x3ea1196f	0.31464717
159	0x3e96be9c	0.29442298
160	0xbda46d00	-0.080286026
161	0xbe08eada	-0.13370839
162	0x3ec4c33c	0.38430202
163	0xbf0745a2	-0.52840626
164	0x3e8d2cce	0.27573246
165	0xbca27dc6	-0.019835364
166	0x3d283ca4	0.041073456
167	0xbeac7f37	-0.33690807
168	0x3f20524a	0.62625563
169	0xbe64797f	-0.22311972
170	0x3db23347	0.087011866
171	0xbe1daeca	-0.15398708
172	0x3e88c268	0.2671082
173	0xbd826546	-0.063669726
174	0x3eca935c	0.3956555
175	0x3ed1b59f	0.40958878
176	0xbe558685	-0.20852096
177	0x3d81abe8	0.06331617
178	0x3d81f8ca	0.06346281
179	0xbe221b76	-0.15830788
180	0xbe3d6442	-0.18495277
181	0x3dce498e	0.10072623
182	0x3c728f37	0.014804653
183	0x3e5e4594	0.2170623
184	0x3e00e288	0.12586415
185	0xbec908cb	-0.3926452
186	0xbd92e5ee	-0.07172762
187	0x3dc28441	0.09497882
188	0x3e7490d4	0.23883373
189	0x3e0c939b	0.13728182
190	0xbe31be64	-0.17357785
191	0xbd962365	-0.0733097
192	0x3e43e6cb	0.1913101
193	0xbd8b3987	-0.06798082
194	0x3e944eb3	0.28966293
195	0x3ee5a9c9	0.44856098
196	0x3da1640a	0.07880409
197	0x3dd37b1d	0.10326216
198	0xbef6a6b8	-0.4817407
199	0x3d031fcb	0.032012742
200	0x3e2404ae	0.1601741
201	0xbe334ee6	-0.17510566
202	0x3e294ebb	0.1653394
203	0x3ea4e0aa	0.32202655
204	0xbea433db	-0.32070813
205	0xbec11897	-0.37714073
206	0x3d4a35be	0.04936766
207	0x3dc724cc	0.09723815
208	0x3ebc3051	0.36755612
209	0x3ec7f0b1	0.3905082
210	0xbe9fa7c1	-0.31182674
211	0x3e5554b4	0.20833093
212	0xbebfd515	-0.37467256
213	0xbc82b52c	-0.01595553
214	0xbd05a23c	-0.032625422
215	0x3f1282a7	0.5723061
216	0x3ed00c76	0.40634507
217	0xbf03b7b5	-0.5145219
218	0xbe8724a6	-0.26395148
219	0xbe5ae3ad	-0.21375914
220	0xbe5248bf	-0.20535563
221	0x3d998301	0.0749569
222	0x3dba35b1	0.09092272
223	0x3de590e2	0.11209275
224	0x3db8a050	0.09014952
225	0x3eb17c3e	0.34665102
226	0xbe1c2adc	-0.15250725
227	0xbe817ad3	-0.2528902
228	0xbd0732b1	-0.033007327
229	0xbddd85ec	-0.10816559
230	0xbd916cb0	-0.071008086
231	0xbd809a41	-0.062794216
232	0xbec8f463	-0.39248952
233	0xbed5e7c5	-0.4177839
234	0x3db30600	0.08741379
235	0xbf001013	-0.5002453
236	0xbece6a42	-0.40315443
237	0xbf0ec951	-0.55775934
238	0xbe82b5d1	-0.2552934
239	0xbecf481e	-0.4048471
240	0x3ec85495	0.3912703
241	0x3df1281b	0.11775228
242	0xbe998fd0	-0.29992533
243	0xbe6e65fd	-0.23281093
244	0xbd99ca61	-0.07509304
245	0xbe1b6b46	-0.1517764
246	0xbe02f4fc	-0.12788767
247	0x3ed2fcbc	0.41208446
248	0xbe25cb6f	-0.16190885
249	0xbe021a57	-0.1270536
250	0x3ed0a4dc	0.40750778
251	0x3e4d7c1d	0.20066877
252	0x3ea77684	0.32707608
253	0x3e89032b	0.2676023
254	0x3e306e3e	0.17229554
255	0x3eb9dbb3	0.3630043

linear_xa.bias f4 [128]
0	0x3e12a024	0.14318901
1	0x3dec89af	0.115496986
2	0xbabf0afc	-0.0014575417
3	0x3e851f1f	0.26000306
4	0x3c9d2d2a	0.019186575
5	0xbdc8179a	-0.09770127
6	0x3e4257c4	0.18978792
7	0x3e53353e	0.20625779
8	0xbe46fe57	-0.1943296
9	0xbe0078b9	-0.12546052
10	0xbd5e44d5	-0.054264862
11	0xbdf8801b	-0.12133809
12	0xbf00eecd	-0.5036438
13	0x3ec6940d	0.3878483
14	0x3ed05d50	0.40696192
15	0xbebe3678	-0.3715093
16	0xbe5f3d44	-0.21800715
17	0x3e11432c	0.1418578
18	0xbd34b0a3	-0.044113766
19	0xbe612c80	-0.21989632
20	0xbe9d0194	-0.30665267
21	0x3eac1d8a	0.33616287
22	0x3e7b31a0	0.24530649
23	0x3c753868	0.014967062
24	0x3e59f289	0.21283926
25	0x3d307537	0.043080535
26	0xbeba4a43	-0.36384782
27	0x3e02ee56	0.1278623
28	0xba796c59	-0.0009514741
29	0x3f169af1	0.5883017
30	0x3dc0d916	0.09416406
31	0x3e36afa8	0.17840445
32	0x3ed0863e	0.4072742
33	0x3ea6a58e	0.32548183
34	0x3ecb7b2b	0.39742407
35	0xbe6a8278	-0.22901332
36	0x3d4229bc	0.047403082
37	0xbe21564c	-0.15755576
38	0xbefe6b5c	-0.49691284
39	0x3e431b3b	0.19053356
40	0xbd993064	-0.07479933
41	0xbead112d	-0.33802167
42	0x3e94b6a5	0.29045597
43	0x3eb1a8f7	0.34699222
44	0xbf010756	-0.5040182
45	0x3e600d06	0.21879968
46	0xbe43b9cd	-0.19113846
47	0xbe653440	-0.22383213
48	0xbe8dc1e1	-0.2768698
49	0xbeab22d9	-0.33425024
50	0x3e21f024	0.15814263
51	0xbeaac429	-0.33352783
52	0x3d7edc7f	0.062222
53	0xbe248255	-0.16065343
54	0xbe7920b0	-0.24328876
55	0x3e5cffa6	0.21581897
56	0xbebf7914	-0.37397063
57	0x3e39f9ff	0.18161772
58	0x3eb9291a	0.3616417
59	0xbe94a459	-0.29031637
60	0x3c9336d5	0.017970482
61	0xbe8e5e11	-0.27806142
62	0xbe44bf10	-0.1921351
63	0x3ecd357e	0.40079874
64	0xbe1dfbbe	-0.15428063
65	0x3e485605	0.19564064
66	0xbec32de6	-0.38120955
67	0xbee03cbc	-0.43796337
68	0xbe627271	-0.22113968
69	0x3e298de4	0.16558033
70	0xbceb3ad2	-0.028714571
71	0x3d0f710e	0.035019927
72	0x3d09bedb	0.03362928
73	0x3e4f3d41	0.2023821
74	0xbe8c709a	-0.27429658
75	0x3e4f009c	0.20215076
76	0x3eae9988	0.3410151
77	0xbe11907a	-0.1421527
78	0xba1a84e2	-0.0005894435
79	0x3bc981d8	0.006149512
80	0xbeb6f0b2	-0.3573051
81	0x3dac2b55	0.084067024
82	0x3c0a83a9	0.008454242
83	0xbd6ec238	-0.05829069
84	0x3c16228c	0.00916351
85	0xbe71ae05	-0.2360154
86	0x3e8e5752	0.27800995
87	0x3eac3f20	0.3364191
88	0xbe1623ed	-0.14662142
89	0xbdc67b39	-0.096914716
90	0xbb9a65b6	-0.004711832
91	0x3e957f98	0.2919891
92	0x3ce84fd7	0.028358383
93	0x3eb84dfb	0.35996994
94	0xb9800ec4	-0.00024425064
95	0xbece46f2	-0.40288502
96	0x3eebf830	0.4608779
97	0xbdd5dbaf	-0.10442292
98	0x3def09ab	0.11671766
99	0x3ebb730e	0.36611217
100	0x3e8df803	0.2772828
101	0xbe23f988	-0.16013157
102	0x3e5202eb	0.20508926
103	0xbe534573	-0.20631962
104	0xbe3fb224	-0.18720299
105	0xbd4b60af	-0.04965275
106	0x3e012718	0.1261257
107	0x3eacc01b	0.33740315
108	0xbeb32443	-0.34988603
109	0x3b95cc1e	0.004571452
110	0xbef65260	-0.48109722
111	0xbf00a5e5	-0.50253135
112	0x3e9de835	0.30841222
113	0x3e9f948c	0.3116802
114	0xbe118dab	-0.14214198
115	0x3da09dca	0.07842596
116	0xbe8acd5c	-0.27109802
117	0x3d578159	0.05261359
118	0xbe2b3431	-0.16719128
119	0xbe2d0eab	-0.16900127
120	0x3e3880f0	0.18017936
121	0x3e384b64	0.17997509
122	0xbea6c459	-0.32571676
123	0x3c81f9c3	0.015866166
124	0x3e4e7c0f	0.20164512
125	0xbe1035ba	-0.14082995
126	0x3de0589e	0.109544024
127	0x3e8c8082	0.27441794

linear_aa.weight f4 [128, 128]
0	0x3ddf48ed	0.10902581
1	0x3e58a213	0.21155576
2	0x3e19312d	0.14960165
3	0x3e92f8ae	0.28705353
4	0x3cf5692b	0.029957375
5	0xbdc531be	-0.09628628
6	0xbe1ee6b8	-0.155177
7	0xbeccbd75	-0.39988294
8	0xbccfdd81	-0.025374176
9	0xbdc816dc	-0.09769985
10	0x3e892d4c	0.2679237
11	0x3a55662c	0.000814053
12	0x3c043ad9	0.008070671
13	0x3eb1d60b	0.34733614
14	0xbd4aa9a9	-0.049478207
15	0x3d8f7c32	0.0700611
16	0x3e2bc953	0.16776018
17	0x3e2863d3	0.1644433
18	0xbda36280	-0.07977772
19	0xbbb09f4c	-0.0053900834
20	0x3dfe57a8	0.12419063
21	0x3d08bb72	0.033381887
22	0xbe2d68aa	-0.16934457
23	0x3db6dee7	0.08929234
24	0x3b9fce2d	0.004876873
25	0xbe1eb839	-0.15499963
26	0x3d791cd1	0.060818497
27	0x3df21c21	0.118217714
28	0x3d7af7ad	0.06127136
29	0x3dd01148	0.10159546
30	0x3b82203b	0.0039711273
31	0xbe1c4cf9	-0.15263738
32	0x3e2a8054	0.16650516
33	0x3e31aecf	0.1735184
34	0x3e366f10	0.17815804
35	0xbe3e1730	-0.18563533
36	0x3d4126e1	0.04715622
37	0xbdb7871f	-0.08961319
38	0x3c81ca93	0.015843665
39	0x3d90bb9b	0.07067033
40	0x3d3054c8	0.043049604
41	0x3e170d67	0.14751206
42	0x3da9b9f3	0.0828742
43	0x3e047c03	0.12937932
44	0xbd30d588	-0.04317239
45	0xbe249507	-0.16072474
46	0x3df801a6	0.121096894
47	0xbc9be120	-0.019028246
48	0x3d5d2041	0.053985838
49	0xbdca049a	-0.09864159
50	0x3f0350dd	0.5129526
51	0x3eac0fda	0.33605844
52	0x3e2a2587	0.16615878
53	0xbd64de92	-0.055876322
54	0xbd9ced70	-0.07662475
55	0x3e41a607	0.1891099
56	0xbe15b460	-0.14619589
57	0x3d0387f3	0.032112073
58	0x3e7f19fc	0.24912256
59	0xbe906f8e	-0.2821011
60	0xbdde57e9	-0.10856611
61	0x3d7c297c	0.061563
62	0x3d872047	0.06597953
63	0xbe03f279	-0.12885465
64	0xbddd0712	-0.10792364
65	0xbdd4ae32	-0.103847876
66	0x3dd764fa	0.105173066
67	0xbac47979	-0.0014989815
68	0x3e572146	0.21008787
69	0xbe42aa20	-0.1901021
70	0xbce06551	-0.027392061
71	0xbd9b6960	-0.07588458
72	0x3e64e8a5	0.22354372
73	0x3d61b64a	0.055105485
74	0x3d5303f0	0.051517427
75	0xbe08ae9f	-0.13347863
76	0x3d1cf693	0.03832109
77	0x3e9a880b	0.30181918
78	0x3e6523db	0.22376959
79	0xbe84b522	-0.25919443
80	0xbe1d17e2	-0.15341142
81	0x3de57fd9	0.11206026
82	0x3cfbadcd	0.030722523
83	0x3d083529	0.033253822
84	0x3c696526	0.014245307
85	0x3d874342	0.06604625
86	0xbdd529c1	-0.104083546
87	0x3d317f83	0.043334495
88	0x3d7c2d54	0.061566666
89	0xbe9c19ef	-0.30488536
90	0x3dae3f85	0.08508209
91	0x3e273bcb	0.16331403
92	0xbc15adeb	-0.009135704
93	0x3ea902c4	0.33009923
94	0xbd2775e7	-0.040883925
95	0xbd9f184c	-0.07768306
96	0x3d8e9d99	0.06963653
97	0x3e2bb45a	0.16768017
98	0x3e1491ad	0.14508696
99	0xbcea5ffa	-0.028610218
100	0x3e317235	0.17328723
101	0xbe44b048	-0.19207871
102	0x3c90e6bc	0.017688148
103	0xbdbbcad8	-0.09169549
104	0x3d0207ff	0.031745907
105	0xbdda3cbe	-0.10656117
106	0xbd448c78	-0.047985524
107	0xbe05080f	-0.12991355
108	0x3ebda67f	0.3704109
109	0xbe9b9c97	-0.30392906
110	0xbd26b9b6	-0.04070445
111	0xbe985230	-0.29750204
112	0xbd55cc24	-0.052196637
113	0x3e357759	0.17721309
114	0xbe0306d7	-0.12795578
115	0x3eca5f11	0.39525655
116	0x3ba9fc08	0.005187515
117	0x3e10c908	0.14139187
118	0x3db3e071	0.08783043
119	0x3db45224	0.088047296
120	0xbe984452	-0.29739624
121	0x3cdd60ad	0.027023638
122	0x3d312d5e	0.043256156
123	0x3cda072b	0.026614746
124	0x3e5356d8	0.20638597
125	0x3e1e0298	0.15430677
126	0xbe8e7dbe	-0.2783031
127	0x3d979809	0.07402045
128	0x3e41cd88	0.1892606
129	0xbf018c27	-0.5060448
130	0xbdca6687	-0.09882837
131	0x3debd532	0.11515273
132	0x3d31fca0	0.043453813
133	0x3df52589	0.1197005
134	0xbe957150	-0.29188013
135	0xbcf55e19	-0.029952096
136	0xbcf26eff	-0.029593943
137	0x3cf88c3c	0.030340306
138	0xbcbcb295	-0.023034373
139	0xba50f0e6	-0.0007970467
140	0x3d441e4b	0.047880452
141	0xbd83ce53	-0.064358376
142	0xbd01523f	-0.031572577
143	0x3eaec2e7	0.34133074
144	0xbcdadf23	-0.026717728
145	0x3d53aa26	0.051675938
146	0xbe6a5d43	-0.22887139
147	0xbe793d1b	-0.24339716
148	0xbc304805	-0.010759358
149	0xbe788b15	-0.24271806
150	0x3e797df3	0.24364452
151	0xbe59ddf9	-0.21276082
152	0xba5de5a6	-0.0008464701
153	0xbd02a4d5	-0.031895477
154	0x3e1fdfbc	0.15612692
155	0x3d82bc72	0.06383599
156	0x3e7c59c0	0.24643612
157	0xbe84505d	-0.25842562
158	0xbe72a1bb	-0.23694508
159	0xbdf1337b	-0.11777397
160	0x3d13dab1	0.036097232
161	0xbe0df089	-0.13861288
162	0x3d249a89	0.04018644
163	0xbd165853	-0.036705326
164	0xbdbf01f4	-0.093265444
165	0x3e393f57	0.18090568
166	0xbc189c0b	-0.009314547
167	0xbe0f74a6	-0.14009342
168	0xbe2d0d3a	-0.16899577
169	0x3de65436	0.11246531
170	0xbdd98875	-0.1062173
171	0xbb67d69e	-0.0035375725
172	0x3e0461ce	0.12927935
173	0x3dd80af0	0.10548961
174	0x3e0a111c	0.13483089
175	0x3d127008	0.035751373
176	0x3e8ac0f7	0.27100345
177	0xbdedbab0	-0.116078734
178	0xbe2db65f	-0.169641
179	0x3ea38a3a	0.31941396
180	0xbd773821	-0.060356263
181	0x3d9bdb97	0.07610243
182	0x3d2aa094	0.041657045
183	0x3ccde6cc	0.025134467
184	0xbdc97717	-0.09837168
185	0xbcafdd5e	-0.02146786
186	0xbd5513ef	-0.052020963
187	0x3e2cbd61	0.16869117
188	0xbe127240	-0.14301395
189	0xbd9fb349	-0.07797868
190	0x3d0892a4	0.033342972
191	0xbbfb96db	-0.0076778955
192	0x3e47241b	0.19447367
193	0xbc1430f0	-0.009044871
194	0x3cb602a8	0.022218063
195	0xbcafdc05	-0.021467218
196	0xbd70e3be	-0.058810942
197	0xbd1259b7	-0.03573009
198	0xbe578e1e	-0.21050307
199	0xbd8a7c09	-0.06761939
200	0xbe1be86b	-0.15225379
201	0x3dd1c261	0.10242153
202	0xbc4610c9	-0.012088963
203	0x3cf5b333	0.029992675
204	0x3c3acfbc	0.011402067
205	0x3d2552e7	0.040362265
206	0x3d26861a	0.040655233
207	0x3df349c3	0.11879303
208	0xbdc5d7cb	-0.096603
209	0xbcc0de05	-0.023543367
210	0xbde0632b	-0.10956415
211	0x3e3baa97	0.18326794
212	0xbd8cbfb1	-0.068725
213	0x3ddff8c1	0.10936118
214	0xbd7a175b	-0.06105743
215	0x3df9e5d1	0.12202037
216	0x3e415369	0.18879475
217	0xbaeab27c	-0.0017905976
218	0xbcff6cbf	-0.031179784
219	0x3e681aed	0.22666521
220	0x3df9ba00	0.1219368
221	0x3dd12e33	0.1021389
222	0x3d9898dc	0.074510306
223	0x3dfdbcdb	0.12389537
224	0xbc770428	-0.0150766745
225	0xbe27111a	-0.16315117
226	0x3d51566d	0.051107813
227	0x3d86c441	0.06580401
228	0x3e055ff1	0.1302488
229	0xbe6a8632	-0.22902754
230	0xbd01ebc9	-0.031719003
231	0xbde86f25	-0.11349324
232	0xbd7713cf	-0.060321625
233	0xbdb09d65	-0.086237706
234	0xbdc2d18b	-0.095126234
235	0xbdb4b9a3	-0.0882447
236	0x3e9f95c0	0.31168938
237	0xbe8e94ec	-0.27847993
238	0x3e048eeb	0.12945144
239	0x3c16d996	0.00920715
240	0x3d0e4e78	0.034742802
241	0xbeb7996c	-0.3585924
242	0xbe506fd6	-0.20355162
243	0x3e2284a4	0.15870911
244	0xbe0593f7	-0.13044725
245	0x3d89f5e2	0.067363515
246	0x3d7c4a06	0.06159403
247	0xbc923ae3	-0.017850345
248	0xbca56ef3	-0.020194506
249	0x3c8b006a	0.01696797
250	0x3e2c4b1f	0.16825531
251	0xbd7cc833	-0.061714362
252	0x3c2e76bc	0.010648426
253	0xbd720fd6	-0.059097134
254	0xbe57e628	-0.21083891
255	0xbddbaba1	-0.10726095

linear_aa.bias f4 [128]
0	0x3e459fb8	0.19299209
1	0xbdd348cb	-0.103166185
2	0x3e284afd	0.16434856
3	0x3e10603f	0.14099215
4	0x3cc9d2ab	0.024636587
5	0xbe157e39	-0.14598931
6	0x3e8a3505	0.26993576
7	0x3bb387fd	0.0054788576
8	0xbe09ff98	-0.13476408
9	0xbe2bf4d5	-0.16792615
10	0xbe13fd9e	-0.14452216
11	0xbd350057	-0.044189777
12	0xbef1e226	-0.4724285
13	0x3e3b4434	0.18287736
14	0x3ea2442c	0.31692636
15	0xbe948bcb	-0.29012904
16	0xbe3ea478	-0.18617427
17	0x3e2bb5a9	0.16768517
18	0xbe0ff9d9	-0.14060153
19	0xbe452fa6	-0.19256458
20	0xbddb6300	-0.10712242
21	0x3eaab806	0.33343524
22	0x3e180297	0.14844738
23	0xbe1a624c	-0.1507656
24	0x3e221e17	0.15831791
25	0xbe50de02	-0.2039719
26	0xbecd6aef	-0.40120646
27	0x3d87605e	0.066101775
28	0xbd86adf9	-0.065761514
29	0x3eff851d	0.49906245
30	0x3d90840e	0.070564374
31	0x3e8fc4e2	0.28079897
32	0x3e9ef9a6	0.31049842
33	0x3e9ad39a	0.30239564
34	0x3ed6aa75	0.41926923
35	0xbce1de83	-0.027571922
36	0x3dd950c4	0.10611108
37	0xbde42efb	-0.11141773
38	0xbe9d7fce	-0.3076157
39	0x3d75980f	0.059959468
40	0x3c18e0a7	0.009330905
41	0xbe1b04bb	-0.15138523
42	0x3e811d4c	0.25217664
43	0x3ecd79a9	0.40131882
44	0xbed4c36e	-0.4155535
45	0xbc0dc9f1	-0.008654104
46	0xbdb78d60	-0.08962512
47	0xbe3140de	-0.17309901
48	0xbe3e0909	-0.18558134
49	0xbdd85399	-0.1056282
50	0x3e84ddb1	0.25950387
51	0xbe91838d	-0.28420678
52	0x3b5b19bd	0.003343209
53	0xbde86ed2	-0.11349262
54	0xbe4a535d	-0.19758363
55	0x3e0a20ae	0.13489029
56	0xbe347084	-0.17621046
57	0x3e631c2b	0.22178714
58	0x3e522bbd	0.20524497
59	0xbdeaad0a	-0.11458786
60	0xbd9a38a0	-0.075303316
61	0xbd97138e	-0.07376777
62	0xbccc018c	-0.024903081
63	0x3e86c83b	0.2632464
64	0xbe609510	-0.21931863
65	0x3e4f017f	0.20215414
66	0xbed7f76c	-0.42180955
67	0xbec3ede2	-0.38267428
68	0xbe971ce8	-0.2951424
69	0x3d8d63f4	0.0690383
70	0x3dcc7417	0.0998308
71	0x3cfe3b33	0.031034088
72	0xbdfd725b	-0.12375327
73	0x3dd10bc7	0.102073245
74	0xbeae9857	-0.341006
75	0x3d603e8f	0.05474716
76	0x3e431f98	0.19055021
77	0x3bb1fad2	0.0054315114
78	0x3c9d65bd	0.019213552
79	0x3dee8dbb	0.11648127
80	0xbdfee3f7	-0.124458246
81	0x3e18aba3	0.14909224
82	0xbd72b4b3	-0.05925436
83	0xbd02a11e	-0.031891935
84	0xbd3eea33	-0.04661007
85	0xbe89d9b8	-0.2692392
86	0x3e4bf0d8	0.19916093
87	0x3e9a0a3e	0.3008594
88	0x3ce173bf	0.027521012
89	0xbd89e905	-0.06733898
90	0xbd8acbb5	-0.06777135
91	0x3e8e686c	0.27814043
92	0xbde86a92	-0.11348452
93	0x3e7b6235	0.24549182
94	0xbdf9ab3a	-0.12190862
95	0xbeaaea2e	-0.3338179
96	0x3f15c075	0.5849679
97	0xbde0caa3	-0.1097615
98	0x3e13ca8f	0.14432739
99	0x3e9bad38	0.30405593
100	0x3e426e4a	0.18987384
101	0x3c6349ea	0.013872603
102	0x3e055c87	0.13023578
103	0xbea76128	-0.32691312
104	0xbda2a3a4	-0.07941368
105	0x3d2ecbbb	0.04267476
106	0x3e1739ef	0.14768194
107	0x3e7d8220	0.2475667
108	0xbe978f11	-0.29601339
109	0x3cfcd61e	0.030863818
110	0xbecf2c5a	-0.40463525
111	0xbec833cc	-0.39102018
112	0x3e566edc	0.20940727
113	0x3eb0b2b6	0.34511346
114	0xbe3b46b9	-0.18288697
115	0xbd92fb5e	-0.07176851
116	0xbea6eec6	-0.32604045
117	0x3da732e5	0.08164004
118	0xbe12d401	-0.14338686
119	0xbed0acd2	-0.4075685
120	0x3dffd130	0.12491071
121	0x3db11d48	0.08648163
122	0xbe80cca7	-0.25156137
123	0x3d3f6be7	0.046733763
124	0x3da1ff2c	0.07909998
125	0xbd8eb0f7	-0.06967347
126	0xbbd46603	-0.0064818873
127	0x3e5bd5f0	0.2146833

linear_ay.weight f4 [65, 128]
0	0xbd878fad	-0.06619201
1	0xbe47717f	-0.19476889
2	0xbe96d7e1	-0.29461578
3	0xbe3cc8ae	-0.18435928
4	0x3b9cf4b9	0.0047899154
5	0x3e039d2e	0.12852928
6	0x3c8ab582	0.016932253
7	0xbc01ba9e	-0.007918028
8	0xbea977f5	-0.33099332
9	0x3d60fc59	0.054928157
10	0xbc5f8fb6	-0.013645103
11	0x3da80391	0.08203805
12	0x3d9fe317	0.07806986
13	0x3d8b4f2c	0.0680221
14	0x3d44bf8f	0.048034247
15	0xbd2a6872	-0.041603513
16	0x3e7e76ba	0.24849978
17	0xbc8c1525	-0.017099926
18	0xbe37d5f2	-0.17952707
19	0xbe4ea2a2	-0.20179227
20	0xbda24566	-0.07923393
21	0x3e1d9a67	0.15390931
22	0x3d089939	0.03334925
23	0xbe81198a	-0.25214797
24	0xbe25ddc9	-0.16197886
25	0x3ca1edab	0.01976665
26	0x3e9de84a	0.30841285
27	0x38842f5d	6.3030726e-05
28	0x3ca1b561	0.019739809
29	0x3c2c6d85	0.010524158
30	0xbc62a11f	-0.01383236
31	0xbe39c151	-0.1814015
32	0xbdec9502	-0.115518585
33	0x3de899bd	0.11357448
34	0xbdbc389c	-0.09190485
35	0x3da5f94c	0.0810419
36	0xbdc76b56	-0.097372696
37	0x3d505623	0.050863396
38	0xbd6c317d	-0.057664383
39	0x3df72542	0.12067653
40	0xbe8a8de7	-0.27061388
41	0xbe12c462	-0.14332727
42	0x3dbfe376	0.093695566
43	0x3e53825b	0.20655195
44	0x3b5cbdb7	0.0033682415
45	0x3e2498e4	0.16073948
46	0xbdf98d5c	-0.12185165
47	0xbd2e0b06	-0.04249098
48	0xbca526fc	-0.02016019
49	0x3e64e324	0.22352272
50	0xbd8fd0ef	-0.07022273
51	0x3c56b618	0.013104938
52	0xbdb33a0f	-0.08751308
53	0xbedba3d3	-0.42898425
54	0xbb8c770c	-0.0042866524
55	0xbe1e8967	-0.15482102
56	0xbe38fcf6	-0.18065247
57	0xbbf17cca	-0.0073696123
58	0x3d55df95	0.052215178
59	0x3c45c9d5	0.012072046
60	0xbeb8e83f	-0.3611469
61	0xbd0c446c	-0.03424494
62	0x3ec1765a	0.37785608
63	0x3d88eb4b	0.066855036
64	0xbdc523d3	-0.096259736
65	0x3e09cc96	0.1345695
66	0x3d86e3c0	0.065864086
67	0x3dbbbdcc	0.0916706
68	0x3da9d5c6	0.08292727
69	0x3d10681d	0.03525554
70	0x3dd2ffbd	0.103026845
71	0xbe75e77e	-0.24014089
72	0x3dbfbf71	0.093626864
73	0x3d1de137	0.03854486
74	0x3e119aaa	0.14219156
75	0xbeac0d3e	-0.33603853
76	0x3dd5ee93	0.10445895
77	0xbdd0c245	-0.10193304
78	0x3e765d46	0.24059018
79	0xbe10e2ce	-0.14149019
80	0x3c2b8408	0.01046849
81	0xbeabe400	-0.33572388
82	0x3defea05	0.117145576
83	0xbe9f7940	-0.31147194
84	0xbdd47441	-0.10373736
85	0x3e279a37	0.16367422
86	0x3d6cd9bd	0.05782484
87	0x3b4233c4	0.0029632905
88	0x3e862836	0.26202554
89	0xbd357fee	-0.044311456
90	0x3da055ee	0.0782889
91	0x3cbc989e	0.023021992
92	0x3e032de4	0.12810475
93	0x3cf1bbe9	0.029508548
94	0xbe9f853c	-0.31156337
95	0xbd4b910d	-0.049698878
96	0xbe413701	-0.18868639
97	0xbdf5c8cd	-0.1200119
98	0x3d081088	0.03321889
99	0x3e283320	0.16425753
100	0x3e46ebcc	0.19425887
101	0x3e392185	0.18079193
102	0x3e8ef29d	0.27919474
103	0xbc84e2a5	-0.016221354
104	0xbdf85f68	-0.12127572
105	0xbd9d7734	-0.07688752
106	0x3e2161a0	0.15759897
107	0xbea3ea6a	-0.3201478
108	0xbd50e3c7	-0.050998475
109	0xbd994f64	-0.07485846
110	0x3d271e15	0.040800173
111	0xbe0cd180	-0.13751793
112	0xbde4d8cc	-0.11174163
113	0xbe44c151	-0.1921437
114	0xbe88602b	-0.2663587
115	0x3e271d12	0.16319683
116	0xbcdf4256	-0.027253311
117	0x3c4009cb	0.011721085
118	0x3d435324	0.04768671
119	0x3cd5422b	0.026032528
120	0x3e02b29b	0.12763445
121	0x3e4f1362	0.20222238
122	0x3d310f60	0.043227553
123	0x3e11c438	0.14235008
124	0x3d71190c	0.058861777
125	0xbd18ccab	-0.03730456
126	0xbe629c4d	-0.22129937
127	0x3d74d518	0.059773535
128	0xbd1e8a55	-0.038706142
129	0xbe7e59ef	-0.24838994
130	0xbe9400c5	-0.28906837
131	0xbe20f992	-0.15720204
132	0x3c70c402	0.014695169
133	0x3e46f9cb	0.19431226
134	0x3e9053d2	0.2818895
135	0xbd4c29d9	-0.049844597
136	0xbee497e7	-0.44647142
137	0x3e074c08	0.13212597
138	0x3e608925	0.21927316
139	0x3e6ae451	0.22938658
140	0xbdc76ab3	-0.09737148
141	0x3e0ea970	0.13931823
142	0x3da84031	0.082153685
143	0xbda2bcbd	-0.07946155
144	0x3e9f5e7d	0.31126776
145	0x3c91ec6a	0.017812926
146	0xbdfca130	-0.123354316
147	0xbe6cd73a	-0.23128977
148	0xbe522450	-0.20521665
149	0x3e415a6d	0.18882151
150	0x3e120b2c	0.14262074
151	0xbeb889ac	-0.36042535
152	0xbe9a8294	-0.30177748
153	0xbd0bab57	-0.03409895
154	0x3e8c0716	0.27349156
155	0x3c3761f1	0.011192785
156	0x3b44ff65	0.0030059454
157	0xbd13a305	-0.03604414
158	0xbcfcfb53	-0.03088156
159	0xbdc17584	-0.094462425
160	0xbd828ece	-0.06374894
161	0x3e2bce5d	0.1677794
162	0xbd82edfa	-0.06393047
163	0x3e1d31de	0.15351054
164	0xbdb4a594	-0.08820644
165	0x3c618db3	0.013766694
166	0xbdc01113	-0.09378257
167	0x3dc43b06	0.0958157
168	0xbde5ebd4	-0.11226621
169	0xbe11884a	-0.14212146
170	0x3a9e05ba	0.001205615
171	0x3e1dac44	0.15397745
172	0xbd031906	-0.032006286
173	0x3e4c5351	0.19953658
174	0xbe484f32	-0.1956146
175	0x3db9fc66	0.09081344
176	0xbe198952	-0.1499379
177	0x3e5608f7	0.20901857
178	0x3d65acbb	0.05607293
179	0xbdd4bc53	-0.103874825
180	0xbdb87c9a	-0.09008141
181	0xbf04c50f	-0.5186319
182	0x3c13d9ac	0.009024065
183	0xbe6ed1da	-0.2332224
184	0xbe2b2ba2	-0.16715863
185	0x3ded5717	0.11588877
186	0x3ebd4e1a	0.3697365
187	0xbb327b4f	-0.0027234142
188	0xbec756d2	-0.38933426
189	0xbe463f3c	-0.1936006
190	0x3ebb8227	0.36622736
191	0xbd0bf7c7	-0.034171846
192	0xbe13a105	-0.14416893
193	0x3e2256d6	0.15853438
194	0xbca2d4b9	-0.019876825
195	0x3e14fdd0	0.14549947
196	0xbdccaaa0	-0.09993482
197	0xbcd72b6c	-0.026265822
198	0x3da869da	0.082233146
199	0xbe4f61df	-0.20252179
200	0x3e0eabc4	0.13932711
201	0x3da3e143	0.0800195
202	0x3e9616aa	0.29314166
203	0xbeaf6164	-0.3425399
204	0x3d6bb3f6	0.05754467
205	0xbe5e481b	-0.21707194
206	0x3e97abc7	0.29623243
207	0xbd646b40	-0.055766344
208	0x3d13af1b	0.036055665
209	0xbec58404	-0.38577282
210	0xbbe51fe3	-0.0069923266
211	0xbe836da2	-0.2566958
212	0xbe4ca50b	-0.19984834
213	0x3dd0d09e	0.101960406
214	0x3e1a7c66	0.15086517
215	0x3ae492d6	0.001743878
216	0x3e9775c8	0.29582047
217	0xbca69b38	-0.020337686
218	0x3dd8e06b	0.10589679
219	0x3e29f137	0.16595922
220	0x3e13f4dc	0.14448875
221	0x3e633b28	0.22190535
222	0xbe9b1c1e	-0.3029489
223	0xbd885caf	-0.06658303
224	0xbce5394a	-0.02798142
225	0xbe26336a	-0.1623055
226	0xbd0fb672	-0.035086103
227	0x3e22fcae	0.15916702
228	0x3e54fb71	0.20799042
229	0x3e9585e8	0.29203725
230	0x3e96082e	0.29303116
231	0x3d5da04c	0.05410795
232	0x3c03020f	0.007996096
233	0xbdd39b5e	-0.10332368
234	0x3e5ec48a	0.21754661
235	0xbdebd4f2	-0.115152255
236	0xbe5688f6	-0.20950684
237	0xbe14b16d	-0.14520808
238	0x3d4f75c4	0.05064942
239	0xbe83c93c	-0.25739467
240	0xbd4eae85	-0.050459404
241	0xbe27d6f4	-0.16390592
242	0xbe19b606	-0.15010843
243	0x3e8c0cea	0.27353603
244	0x3d28e69a	0.041235544
245	0x3c828ec0	0.01593721
246	0x3d2c0904	0.042000785
247	0x3dab7ff8	0.083740175
248	0x3e9d28da	0.3069523
249	0x3e323f75	0.1740702
250	0xbdb61ed3	-0.08892598
251	0x3e8b7ac7	0.2724211
252	0x3e5a0fc2	0.21295074
253	0x3c8a0d89	0.016852157
254	0xbe966723	-0.29375562
255	0x3e9925ba	0.29911596

linear_ay.bias f4 [65]
0	0xbe20c939	-0.1570176
1	0xbe299956	-0.165624
2	0x3d9e53ca	0.07730825
3	0x3e17a81f	0.14810227
4	0x3d29d852	0.041466065
5	0x3e2ffca9	0.17186226
6	0xbe974eaa	-0.29552203
7	0xbbb7aa7d	-0.0056050406
8	0xbdc6a53e	-0.09699486
9	0xbd072105	-0.032990474
10	0x3d306782	0.043067463
11	0x3d99badc	0.07506344
12	0x3d0cf9c5	0.034417886
13	0x3d822322	0.06354357
14	0x3dddf1db	0.10837146
15	0xbd689d74	-0.056790784
16	0xbeaed3ba	-0.3414591
17	0x3cc04dc1	0.023474576
18	0xbed85ef7	-0.42259952
19	0x3d8ed303	0.06973841
20	0xbd035dde	-0.03207194
21	0xbeb21bc1	-0.347868
22	0x3d5334e5	0.051564116
23	0xbe1cc2d3	-0.15308695
24	0xbd9498ee	-0.072557315
25	0xbed9930e	-0.42495006
26	0xbcbfef82	-0.023429636
27	0x3e1c4a5a	0.15262738
28	0x3d6a5d5a	0.057217933
29	0x3ce58b03	0.028020388
30	0xbe4f141d	-0.20222516
31	0xbd87e736	-0.06635897
32	0x3dd723c9	0.10504872
33	0x3dc38478	0.09546751
34	0x3d3d52e0	0.046221614
35	0x3ddbf01e	0.10739158
36	0xbc51a275	-0.01279508
37	0x3e0177eb	0.12643401
38	0xbcadfa49	-0.02123751
39	0xbeb21ebf	-0.34789082
40	0xbc651ae6	-0.013983464
41	0x3dbc78e1	0.09202743
42	0xbde94193	-0.113894604
43	0xbe18a907	-0.14908229
44	0xbde0c763	-0.1097553
45	0xbe07bade	-0.13254878
46	0x3ceba256	0.028763931
47	0xbd52e60b	-0.051488917
48	0xbd0a29df	-0.033731338
49	0xbebd4fa1	-0.36974815
50	0xbeb3ec78	-0.3514135
51	0xbe9eec3b	-0.31039605
52	0xbeb5a254	-0.3547541
53	0xbabfc2be	-0.0014630181
54	0x3c93aeef	0.01802775
55	0x3d9e2397	0.07721632
56	0x3c480327	0.012207783
57	0xbe31a6ba	-0.17348757
58	0x3d9fe617	0.07807558
59	0xbe648569	-0.22316517
60	0x3e09cc79	0.13456906
61	0xbe8d248c	-0.27566946
62	0xbe0a3235	-0.13495715
63	0xbdc429be	-0.09578274
64	0x3ca38140	0.019959092

exp_avg f4 [65, 32]
0	0xb84b09b6	-4.8408016e-05
1	0xb73c87ce	-1.1237293e-05
2	0x38416267	4.610643e-05
3	0xb73d389e	-1.127846e-05
4	0x380e5066	3.3930315e-05
5	0xb74080dc	-1.1474094e-05
6	0x387921bb	5.939764e-05
7	0xb743548f	-1.1642594e-05
8	0xb8c67684	-9.463451e-05
9	0xb911dbea	-0.00013910202
10	0xb7dde646	-2.6452482e-05
11	0x3783971e	1.5686786e-05
12	0x396751f0	0.00022060401
13	0x394de9b4	0.00019637385
14	0xb7aafb7f	-2.0382691e-05
15	0xb7cb2de7	-2.422086e-05
16	0x3804cfa6	3.166464e-05
17	0xb88b02ad	-6.628535e-05
18	0x395c8c50	0.00021033105
19	0x382350c3	3.8937444e-05
20	0x38f58c48	0.0001170864
21	0x38b4dc11	8.6240594e-05
22	0x38da793c	0.00010417632
23	0x3495098b	2.7760356e-07
24	0x38841a09	6.2991e-05
25	0xb8b4ee1e	-8.6274216e-05
26	0x37fd1a1f	3.0172114e-05
27	0xb8dee3db	-0.00010628226
28	0xb84984e4	-4.80459e-05
29	0xb8e9c418	-0.00011146831
30	0x389edc7b	7.575095e-05
31	0x3774c2fd	1.4588933e-05
32	0xb8aca3d6	-8.232116e-05
33	0xb89798bf	-7.228692e-05
34	0xb76980b7	-1.3917851e-05
35	0x38e45146	0.000108870256
36	0x383e5fa3	4.53886e-05
37	0x3813a7bb	3.5203742e-05
38	0xb7e0f103	-2.681511e-05
39	0x3784f89c	1.5851394e-05
40	0xb7a4ad65	-1.9631067e-05
41	0xb4ffd864	-4.7654896e-07
42	0x384ed159	4.9309197e-05
43	0xb8d4f661	-0.000101548394
44	0xb9071b4f	-0.00012884777
45	0xb919e73e	-0.00014677361
46	0x37865d24	1.6017417e-05
47	0xb7ff5f2e	-3.044269e-05
48	0x36a4afd7	4.9080513e-06
49	0xb6e777b3	-6.8982713e-06
50	0xb65792ca	-3.212294e-06
51	0xb88f0c30	-6.8210415e-05
52	0x36459131	2.94398e-06
53	0xb8bc9795	-8.992773e-05
54	0xb89ecfeb	-7.572755e-05
55	0xb84eb113	-4.927914e-05
56	0xb837a63f	-4.378543e-05
57	0x38d23443	0.00010023315
58	0xb7a7e69b	-2.0015335e-05
59	0x37f03f20	2.8639624e-05
60	0xb79c6267	-1.8642471e-05
61	0x38305cd2	4.2048116e-05
62	0xb89094fb	-6.894205e-05
63	0xb9127b12	-0.00013969492
64	0xb9cc9a19	-0.00039024724
65	0x398ac8ce	0.00026471022
66	0x39acf44a	0.00032988406
67	0xb9064518	-0.00012804975
68	0xb9882cad	-0.00025973227
69	0xb886d492	-6.429212e-05
70	0xba45fefe	-0.00075529504
71	0x3a6771da	0.0008828916
72	0x3a15204a	0.00056887104
73	0x3a16700a	0.0005738741
74	0x3a31568e	0.0006764912
75	0x38133613	3.509789e-05
76	0x39cb3158	0.0003875594
77	0xba558337	-0.0008144858
78	0xb9cb620f	-0.00038792237
79	0xba0977c9	-0.00052439846
80	0xb9d8ee3a	-0.00041376223
81	0x394a9a8b	0.00019321793
82	0xb9dbaac2	-0.0004189816
83	0x39af351a	0.00033418165
84	0xb9b5f42f	-0.0003470494
85	0x399ca1bb	0.00029875137
86	0x391194d5	0.00013883722
87	0xb995f82c	-0.00028604397
88	0x39f51166	0.00046743004
89	0xb9c2dc16	-0.0003716654
90	0x393d4152	0.00018048778
91	0xba5be1c0	-0.00083878264
92	0xb969949a	-0.0002227597
93	0x393a69cf	0.00017777759
94	0xba487657	-0.00076470285
95	0x3a73d449	0.00093013473
96	0x38d45de7	0.000101264384
97	0x377b9397	1.4995129e-05
98	0x38b47b5b	8.6060456e-05
99	0x37a574b1	1.9723871e-05
100	0x393f7c83	0.00018261564
101	0x37d6ce6b	2.5606909e-05
102	0xb902d396	-0.00012476588
103	0xb697c5ff	-4.5232005e-06
104	0xb814d771	-3.5486595e-05
105	0xb914c274	-0.0001418682
106	0xb88099bf	-6.132153e-05
107	0xb8ab29d3	-8.161706e-05
108	0xb87203ad	-5.770072e-05
109	0xb8cb9193	-9.7069096e-05
110	0x38e23afc	0.000107875065
111	0xb8a9ad35	-8.09081e-05
112	0x382a1a04	4.0555387e-05
113	0xb8823a63	-6.2097584e-05
114	0xb8c4e5c5	-9.388806e-05
115	0x38102bef	3.437319e-05
116	0xb89cb9ff	-7.473304e-05
117	0x37431b04	1.1629196e-05
118	0xb6243294	-2.4467345e-06
119	0x390a998d	0.00013217908
120	0x38cccc34	9.765514e-05
121	0xb8a15c6b	-7.6942924e-05
122	0x37f21e6a	2.886281e-05
123	0x383ecfe4	4.5493143e-05
124	0xb8c11fbc	-9.208868e-05
125	0x37e36ce1	2.711121e-05
126	0xb8dd4bf0	-0.00010552246
127	0x38606ddf	5.3508087e-05
128	0xb619038f	-2.2800848e-06
129	0xb9290a21	-0.00016120869
130	0xb9b62c45	-0.00034746728
131	0x3901784a	0.0001234721
132	0x3a2e9371	0.0006659544
133	0x39c698c2	0.00037879316
134	0xb7845041	-1.5772997e-05
135	0x39e1540a	0.00042977958
136	0xb970ab0c	-0.00022951904
137	0xb9bfd799	-0.00036590992
138	0x37f4ad76	2.916784e-05
139	0xb93cba4b	-0.00017998477
140	0x399040c0	0.00027514063
141	0xb9bd113a	-0.00036061724
142	0xb78f4b94	-1.7082122e-05
143	0xb9f0b430	-0.00045910617
144	0x399a0e2d	0.0002938373
145	0x39335b67	0.0001710482
146	0xba085d95	-0.0005201933
147	0xb8ca688e	-9.6515854e-05
148	0xb8f38b5f	-0.00011613103
149	0xb93c4e1a	-0.00017958172
150	0xba059281	-0.0005095378
151	0x39c6ffe2	0.0003795615
152	0xb81e23c0	-3.770343e-05
153	0xb7ddca21	-2.6439377e-05
154	0x396fe2a0	0.0002287724
155	0xb96ac67c	-0.0002238992
156	0x3937f26d	0.0001754255
157	0xb92d418c	-0.00016522984
158	0x37ebe079	2.8118711e-05
159	0x38bd47d7	9.0256035e-05
160	0x39935af8	0.00028105802
161	0x3b4a3589	0.0030854663
162	0x3a73c641	0.00092992565
163	0x3a4e2974	0.00078644534
164	0xb9804146	-0.00024462695
165	0xbaacf7d9	-0.0013196423
166	0xbadca0f6	-0.0016832638
167	0xba2f6265	-0.0006690382
168	0x38cc1b2a	9.732538e-05
169	0xbab610eb	-0.001389054
170	0x3a85a741	0.001019694
171	0xba8e9869	-0.0010879162
172	0x3b480845	0.0030522507
173	0xbb06f4ce	-0.0020592692
174	0xba0195bd	-0.0004943272
175	0xb971554b	-0.00023015325
176	0x3742148a	1.1568083e-05
177	0x3a95fd0b	0.001144321
178	0x3993a42d	0.00028160345
179	0xbaae0089	-0.0013275306
180	0xba839705	-0.0010039514
181	0xb81baa7c	-3.7113656e-05
182	0x39943d17	0.00028274275
183	0x3ae0ddbb	0.0017155925
184	0xba03569b	-0.00050101586
185	0xba2f7fea	-0.0006694781
186	0x3b43be1d	0.0029867955
187	0xbb081caf	-0.002076905
188	0x3a5c1bfb	0.00083965034
189	0x39fca1f8	0.00048185862
190	0xb8d2a36a	-0.000100440186
191	0x39230def	0.00015550082
192	0x3526583f	6.1968234e-07
193	0x3649a137	3.0045173e-06
194	0x352c9cbe	6.4303083e-07
195	0xb4ba1f06	-3.4667772e-07
196	0x34890456	2.5521393e-07
197	0xb54ebbc7	-7.701423e-07
198	0xb51e07af	-5.887077e-07
199	0xb5cd4f0d	-1.5296697e-06
200	0x3621bc86	2.4100605e-06
201	0x3504af45	4.942888e-07
202	0xb58a6f05	-1.0314112e-06
203	0x34d94879	4.047213e-07
204	0x360c4333	2.090074e-06
205	0xb5708fff	-8.961651e-07
206	0xb6885dbd	-4.0640284e-06
207	0xb64bc7d8	-3.0365682e-06
208	0x347eaade	2.3717755e-07
209	0xb5eae002	-1.7499553e-06
210	0x3606f282	2.0108714e-06
211	0xb4b52d30	-3.3746755e-07
212	0x34ab232a	3.1876817e-07
213	0x36005df2	1.912817e-06
214	0x361696a1	2.243942e-06
215	0x35934acd	1.0974123e-06
216	0xb605e215	-1.9950141e-06
217	0x364cd2b5	3.0521016e-06
218	0x35e645a0	1.7156599e-06
219	0x3573c291	9.0807686e-07
220	0x367a9c39	3.7343837e-06
221	0x34aaea67	3.1835518e-07
222	0x3626e1e0	2.4867404e-06
223	0xb426ed89	-1.554637e-07
224	0x3943b37f	0.00018663517
225	0x397eccdc	0.00024299644
226	0xba6d58b3	-0.000905405
227	0xb9056997	-0.00012723204
228	0x39effdd5	0.00045774752
229	0x3a24b66b	0.0006283286
230	0xba8ccb4d	-0.0010741741
231	0xb9c58a86	-0.00037677976
232	0xb92e866e	-0.00016644012
233	0xba19a532	-0.0005861103
234	0x393af9c0	0.00017831381
235	0x39f5e31c	0.0004689925
236	0x383039b2	4.2015403e-05
237	0x39125304	0.00013954571
238	0xb580f1c7	-9.60711e-07
239	0xba34e2b3	-0.0006900236
240	0xb925566c	-0.00015767821
241	0xb925da0c	-0.00015816855
242	0xb9da06c4	-0.0004158524
243	0x381c8b1e	3.732286e-05
244	0xb919cac7	-0.00014666757
245	0x39d0e9e9	0.00039847128
246	0x39ac5d61	0.0003287597
247	0xb93b5455	-0.00017865126
248	0x3aa35f05	0.0012464231
249	0xb8a0785a	-7.651812e-05
250	0xb9932024	-0.00028061972
251	0xb7c2ab9e	-2.3206518e-05
252	0x3971603a	0.00023019398
253	0x39529f70	0.00020086556
254	0xb780129d	-1.5267457e-05
255	0x3a31ac86	0.0006777722

exp_avg_sq f4 [65, 32]
0	0x3389835a	6.403452e-08
1	0x3348f969	4.6792966e-08
2	0x33ae62a2	8.1204476e-08
3	0x337fb3b7	5.9535264e-08
4	0x336f2b24	5.568576e-08
5	0x33a259e5	7.5600646e-08
6	0x33fd4680	1.17940544e-07
7	0x3378cf82	5.7930727e-08
8	0x33b818a4	8.57265e-08
9	0x3427531a	1.5583319e-07
10	0x33b03ce0	8.206712e-08
11	0x3382dbb2	6.093559e-08
12	0x348c880a	2.6176014e-07
13	0x3448af49	1.869022e-07
14	0x338e37cf	6.622542e-08
15	0x3455a1b4	1.9895998e-07
16	0x33729e07	5.648874e-08
17	0x339b3f1d	7.22923e-08
18	0x33e4e5aa	1.0658853e-07
19	0x32ffd75d	2.9783843e-08
20	0x339ab8a0	7.204767e-08
21	0x3410742b	1.3453307e-07
22	0x3420e7a2	1.4985429e-07
23	0x33aede42	8.142935e-08
24	0x3459b6b5	2.0276168e-07
25	0x341e370b	1.4734921e-07
26	0x3399951c	7.1517405e-08
27	0x33dfd385	1.0422722e-07
28	0x33307429	4.108384e-08
29	0x33cfb181	9.6714764e-08
30	0x3397a4af	7.061441e-08
31	0x33a7779d	7.798301e-08
32	0x337c1824	5.8695278e-08
33	0x33a11d23	7.502447e-08
34	0x3381a860	6.037658e-08
35	0x33a42d06	7.645035e-08
36	0x33894a1a	6.3930386e-08
37	0x3365437d	5.3379598e-08
38	0x33e53438	1.0673142e-07
39	0x3398ade6	7.1096835e-08
40	0x33a56d94	7.7033434e-08
41	0x33f672c2	1.1476142e-07
42	0x339574d0	6.959601e-08
43	0x33a13c1e	7.508082e-08
44	0x347cbce9	2.3538054e-07
45	0x3405048a	1.2388242e-07
46	0x33ba8c0b	8.6867736e-08
47	0x3418b83d	1.4223129e-07
48	0x33a2bda9	7.578212e-08
49	0x337a55e1	5.8285767e-08
50	0x3405bcd5	1.2455287e-07
51	0x335af55f	5.0980244e-08
52	0x33a72dcb	7.784873e-08
53	0x3395b4f6	6.97127e-08
54	0x340d3887	1.3152213e-07
55	0x33b39332	8.362112e-08
56	0x33dac6d9	1.0187586e-07
57	0x33b32469	8.34196e-08
58	0x33327da2	4.1558117e-08
59	0x33cc8b33	9.5248105e-08
60	0x33dd0ce5	1.029346e-07
61	0x34009247	1.1974144e-07
62	0x33d46d5b	9.891911e-08
63	0x339c81f2	7.287953e-08
64	0x356aae92	8.7425826e-07
65	0x359b8086	1.1585805e-06
66	0x3536e48e	6.8132874e-07
67	0x358f47ed	1.0675263e-06
68	0x35202357	5.965607e-07
69	0x35229c4e	6.0577156e-07
70	0x3527f106	6.2563083e-07
71	0x357975ce	9.2931157e-07
72	0x35232a30	6.078362e-07
73	0x3560221d	8.3496144e-07
74	0x3555bfac	7.96276e-07
75	0x34f38b68	4.5363709e-07
76	0x356ef70c	8.902141e-07
77	0x359b016d	1.1548815e-06
78	0x34d05295	3.8803105e-07
79	0x35a10e02	1.1999512e-06
80	0x34c92c91	3.7471594e-07
81	0x355f669c	8.322329e-07
82	0x35043fc5	4.926663e-07
83	0x34f0ef1e	4.4877464e-07
84	0x355f1340	8.3101986e-07
85	0x351d2446	5.853984e-07
86	0x35216576	6.012482e-07
87	0x3568a4b5	8.6666415e-07
88	0x352866f2	6.273468e-07
89	0x351879fe	5.6801935e-07
90	0x353e8515	7.0974176e-07
91	0x350cf7e4	5.251479e-07
92	0x35196120	5.7138277e-07
93	0x35069544	5.01361e-07
94	0x356893d9	8.664188e-07
95	0x356460d9	8.507755e-07
96	0x355b611e	8.172518e-07
97	0x351c43b1	5.821303e-07
98	0x34b08ceb	3.2885086e-07
99	0x35683554	8.650434e-07
100	0x352b8485	6.3895305e-07
101	0x352528b0	6.15265e-07
102	0x350d8591	5.272096e-07
103	0x34f54eee	4.5692235e-07
104	0x354155f7	7.20232e-07
105	0x355163e3	7.800392e-07
106	0x3542a07e	7.250418e-07
107	0x34d0407a	3.8789932e-07
108	0x35346363	6.719985e-07
109	0x35803c42	9.55428e-07
110	0x350616e2	4.995219e-07
111	0x357a7136	9.3297e-07
112	0x34d8492e	4.028638e-07
113	0x353917e4	6.8952636e-07
114	0x3525b24a	6.1726735e-07
115	0x34c1dfd8	3.611192e-07
116	0x351b150b	5.777262e-07
117	0x34ec3aa4	4.4001092e-07
118	0x34afefd3	3.2770785e-07
119	0x3543d35c	7.295073e-07
120	0x34f59cfa	4.5749022e-07
121	0x34fef291	4.7487677e-07
122	0x35223540	6.042719e-07
123	0x34fb7f01	4.68448e-07
124	0x3501f8f3	4.8418514e-07
125	0x34f2c073	4.5216038e-07
126	0x3532c445	6.6595777e-07
127	0x358ad24d	1.0343007e-06
128	0x356d7c75	8.847049e-07
129	0x356ef849	8.902321e-07
130	0x352997c6	6.3178265e-07
131	0x35506068	7.762633e-07
132	0x35313154	6.600942e-07
133	0x34c9a581	3.7559587e-07
134	0x3519c0e5	5.727764e-07
135	0x358b9933	1.0400894e-06
136	0x356613bc	8.5710394e-07
137	0x353e9d80	7.100971e-07
138	0x35413d12	7.198697e-07
139	0x34c5e226	3.6858654e-07
140	0x356ea557	8.890251e-07
141	0x353966c5	6.906742e-07
142	0x349783c7	2.8221822e-07
143	0x3576d22f	9.1948e-07
144	0x34e839ef	4.325552e-07
145	0x3524fcd4	6.1462674e-07
146	0x34d7911b	4.015245e-07
147	0x34e270cc	4.217785e-07
148	0x34ae6fac	3.2491278e-07
149	0x34ce4558	3.8420944e-07
150	0x35253e45	6.1557904e-07
151	0x34f64466	4.5870837e-07
152	0x35428050	7.245735e-07
153	0x35259c5f	6.169484e-07
154	0x35231e77	6.0766564e-07
155	0x351c3c7b	5.820254e-07
156	0x3535042f	6.743384e-07
157	0x351f03a0	5.923739e-07
158	0x3535b9d4	6.769817e-07
159	0x3567e22c	8.638333e-07
160	0x37145683	8.84163e-06
161	0x37705156	1.4324052e-05
162	0x37490d6b	1.1983658e-05
163	0x37893452	1.6356036e-05
164	0x3730d9db	1.0541141e-05
165	0x37b26cf5	2.126999e-05
166	0x37a12bc7	1.9213081e-05
167	0x375de0a7	1.3224932e-05
168	0x370cce86	8.392735e-06
169	0x372d00ab	1.0311759e-05
170	0x36c4af08	5.8616315e-06
171	0x372d1155	1.0315639e-05
172	0x376b671f	1.4031101e-05
173	0x37dd79de	2.6402002e-05
174	0x373100bc	1.0550193e-05
175	0x374a14ad	1.2044952e-05
176	0x370845ef	8.122514e-06
177	0x37bcaa83	2.2490747e-05
178	0x371b42a1	9.254233e-06
179	0x370687fc	8.018684e-06
180	0x373d8ef7	1.12985645e-05
181	0x37133c58	8.775933e-06
182	0x36d79404	6.4247306e-06
183	0x37562511	1.2764024e-05
184	0x37342792	1.0738049e-05
185	0x37530dfa	1.2579834e-05
186	0x374c5bf1	1.2180754e-05
187	0x37589b12	1.2910708e-05
188	0x37031cb4	7.814891e-06
189	0x3700fe14	7.688552e-06
190	0x37107702	8.6107775e-06
191	0x37556e68	1.2721495e-05
192	0x339fb519	7.436956e-08
193	0x338c0f79	6.5220725e-08
194	0x33438300	4.552112e-08
195	0x33970b14	7.0335005e-08
196	0x336c1f8e	5.497673e-08
197	0x32f19662	2.8124479e-08
198	0x334b54db	4.7341796e-08
199	0x33b69164	8.501482e-08
200	0x33494e9b	4.687045e-08
201	0x340194bc	1.206817e-07
202	0x32b044ff	2.0520472e-08
203	0x3320e77e	3.7463444e-08
204	0x33cc95ad	9.526716e-08
205	0x3394c09e	6.926824e-08
206	0x33abe52e	8.0044956e-08
207	0x34428042	1.8114318e-07
208	0x32ab7c8d	1.996366e-08
209	0x330ab992	3.2299404e-08
210	0x338ad381	6.464598e-08
211	0x332cbbfa	4.0217834e-08
212	0x335a8dd7	5.0886083e-08
213	0x33c097fe	8.968344e-08
214	0x334611d2	4.6116675e-08
215	0x338a898b	6.451145e-08
216	0x33060a94	3.1208927e-08
217	0x33575a29	5.014059e-08
218	0x33bddb51	8.840892e-08
219	0x32a5faca	1.9322574e-08
220	0x33ba8e8e	8.6872305e-08
221	0x33669926	5.3690336e-08
222	0x33aacb65	7.953239e-08
223	0x32d5066c	2.4799384e-08
224	0x369c6b4d	4.6616537e-06
225	0x36b7be9f	5.476016e-06
226	0x36b0790f	5.259302e-06
227	0x36791eb7	3.712177e-06
228	0x36365296	2.7168185e-06
229	0x36b15994	5.2854393e-06
230	0x36ff0e15	7.6012316e-06
231	0x3701a1cf	7.726673e-06
232	0x36117b33	2.1678395e-06
233	0x3696b1f3	4.4910644e-06
234	0x3610ec0f	2.1595076e-06
235	0x3632a445	2.6619684e-06
236	0x35cc2e3a	1.5212638e-06
237	0x36c9da99	6.015715e-06
238	0x3603ed48	1.9658637e-06
239	0x371073e6	8.610054e-06
240	0x3639c78b	2.7683298e-06
241	0x361bbf96	2.3208318e-06
242	0x364621ec	2.9524044e-06
243	0x35f667ef	1.8358677e-06
244	0x368b3ff7	4.1499693e-06
245	0x363dace4	2.826383e-06
246	0x35e5dd1f	1.7126184e-06
247	0x36348476	2.6899193e-06
248	0x3654af35	3.1692446e-06
249	0x36142d81	2.2080205e-06
250	0x35fe260f	1.8935551e-06
251	0x3651370c	3.1175468e-06
252	0x35ecb8c6	1.7637146e-06
253	0x362a417f	2.5370098e-06
254	0x36a89ed8	5.025282e-06
255	0x365145ad	3.1183984e-06
