checkpoints/transformer.ckpt (torch, 735573 bytes, 160 tensors)

tok_embedding.weight f4 [65, 32]
0	0xbfdd6a9e	-1.7298162
1	0xbf0b0a7a	-0.5431286
2	0xbede14a9	-0.43375137
3	0xbf2cecdd	-0.67548925
4	0xbf33a965	-0.7018035
5	0x3f9a7a8a	1.2068646
6	0xbfd0a3cc	-1.6299987
7	0x3f8888e5	1.0666777
8	0x3f9e1318	1.2349577
9	0x3fb47780	1.4098969
10	0xbfde3f69	-1.7363101
11	0x3f90cb16	1.1311977
12	0xbf0865f5	-0.53280574
13	0xbe28626e	-0.16443798
14	0x3fb8a743	1.4426044
15	0xc01c6cc9	-2.4441397
16	0xbe934c03	-0.2876893
17	0x3fbc2dae	1.470144
18	0xbf595e13	-0.8490917
19	0x3fa7ec8b	1.3119062
20	0xbe164424	-0.14674431
21	0x3fe81531	1.8131467
22	0xbe9afba9	-0.30270126
23	0xbf875d0c	-1.0575271
24	0x3e2fddbc	0.17174429
25	0x3ee69dba	0.4504221
26	0xc00e1d14	-2.2205248
27	0x3faa1fb6	1.3290927
28	0x3fa1d2ca	1.2642453
29	0xbb5d221e	-0.003374226
30	0xbf15441a	-0.5830704
31	0xbf34863e	-0.7051734
32	0xc00d469c	-2.2074347
33	0xbe687615	-0.22701295
34	0xbee0f273	-0.43934974
35	0xbda6af3c	-0.08138892
36	0xbf13d40e	-0.57745445
37	0xbf385943	-0.720112
38	0x3fe15e04	1.7606816
39	0x3db42fe6	0.087981984
40	0xbfee62f1	-1.8623945
41	0xc012ab42	-2.2917027
42	0xbe12b007	-0.14324962
43	0xbf3fffd3	-0.7499973
44	0xbec0aaa8	-0.376302
45	0xbf9ded91	-1.2338125
46	0x3fc04282	1.5020297
47	0xbfae438a	-1.3614361
48	0xbec8c405	-0.3921205
49	0xc01f5ce1	-2.4900439
50	0x3e906149	0.28199223
51	0xbfe5d2a6	-1.795491
52	0xbee4c5bd	-0.44682112
53	0x4029cf84	2.6532907
54	0x40094694	2.1449327
55	0x3f0c4832	0.5479766
56	0xbf13716d	-0.5759495
57	0xbd415ed0	-0.04720956
58	0x3ec6df91	0.38842443
59	0xbf81ec16	-1.0150173
60	0xbf95dda5	-1.1708266
61	0xbdd37faf	-0.10327088
62	0x3fabe775	1.343001
63	0x3d04bb04	0.032404914
64	0xbe325a03	-0.17417149
65	0xbfea801a	-1.8320343
66	0x3fc9eb9b	1.5775026
67	0xbfae45fd	-1.3615109
68	0xbf64938b	-0.8928763
69	0x3f5015ec	0.8128345
70	0xbfa596cc	-1.2936645
71	0xbdae81f6	-0.08520882
72	0xbfb03801	-1.3767091
73	0x3d91078b	0.07081517
74	0xbe6462c2	-0.22303298
75	0x3cfe2b34	0.03102646
76	0xbf0e0356	-0.5547384
77	0xbf9fa8bd	-1.247337
78	0xbf062b71	-0.52410036
79	0x3e684fa4	0.2268663
80	0x3ecf43b0	0.4048133
81	0xbf810f3f	-1.0082778
82	0xbea201a7	-0.31641886
83	0x3f198f70	0.59984493
84	0xbe338e21	-0.17534687
85	0x3f8fb6f9	1.1227714
86	0xbcd6c376	-0.02621625
87	0x3f80e018	1.0068388
88	0xbebcb0eb	-0.36853728
89	0xbea7e293	-0.3279005
90	0xbf9aad82	-1.20842
91	0xbde0f570	-0.109843135
92	0x3f441560	0.76595116
93	0x3fd399ee	1.6531351
94	0xbf6cec4f	-0.9254808
95	0xbf9cb20a	-1.2241833
96	0x3f995ef9	1.1982108
97	0x3eae3944	0.34028065
98	0xbe2a9d52	-0.16661575
99	0x3f36f633	0.7146942
100	0x3cf0400d	0.029327417
101	0x3e2c1985	0.1680661
102	0xbd1b0952	-0.037850685
103	0xbf0895f7	-0.5335383
104	0xbe1f55d7	-0.15560089
105	0x3f9bb7c7	1.2165459
106	0x3f973d3d	1.1815563
107	0xbf06dbb5	-0.52678996
108	0xbf8c278f	-1.0949572
109	0x3fa365c8	1.2765436
110	0xbddc33ca	-0.107520655
111	0x3fa8dd20	1.3192482
112	0xbea91a0f	-0.33027694
113	0xbf3efdd4	-0.7460606
114	0xbfd96de7	-1.6986665
115	0xbfba57ee	-1.4558084
116	0xbea1749e	-0.31534284
117	0xbe441427	-0.19148313
118	0x3f3b2606	0.73104894
119	0xbf01d44d	-0.5071457
120	0x3f0ebf1c	0.5576036
121	0x3bae7acc	0.005324697
122	0x3e768040	0.24072361
123	0x3fb11a3e	1.3836133
124	0xbf99be82	-1.2011263
125	0xbf13ba7e	-0.5770644
126	0x3ebd937c	0.37026584
127	0x3e03065e	0.12795398
128	0xbf760c35	-0.96112376
129	0xbfd1d19e	-1.6392095
130	0xbe668574	-0.22511846
131	0x3f0a1876	0.53943574
132	0xbfa5ced5	-1.2953745
133	0x3d1d7e94	0.038450792
134	0x3f7235f3	0.9461357
135	0x3f48698b	0.78286046
136	0x3e9d95ac	0.30778253
137	0xbf8e9840	-1.1140213
138	0xbd9afd7b	-0.07567879
139	0x3e0a2729	0.13491501
140	0x3fc74106	1.5566719
141	0x3edd3195	0.4320189
142	0xbe5a9cb8	-0.21348846
143	0x3f533233	0.8249847
144	0x3dcd95b4	0.10038319
145	0xbf90e0a6	-1.1318557
146	0xbf830b84	-1.0237889
147	0xbeda19c4	-0.42597783
148	0x3fc4ea1c	1.5383945
149	0xc0051b21	-2.0797808
150	0x3fae1268	1.3599367
151	0x3fcc3004	1.5952153
152	0xbf55a937	-0.83461326
153	0xc001c541	-2.0276644
154	0x3f57ca01	0.8429261
155	0x3f9ac376	1.20909
156	0x3fa555c3	1.2916797
157	0xbfef00d8	-1.8672132
158	0xbcab7aec	-0.020932637
159	0xc0006643	-2.0062416
160	0x3faf5f0f	1.3700885
161	0x3f02b419	0.5105606
162	0xbdf3d147	-0.11905151
163	0x3efb0865	0.49029842
164	0x3f0b4919	0.54408413
165	0xbf477a45	-0.77920943
166	0xbf5e90c5	-0.8693965
167	0x3f27d855	0.6556447
168	0xbfb9810e	-1.4492509
169	0x3ff2240e	1.8917253
170	0xbf9af3d8	-1.2105665
171	0xbf33c208	-0.70217943
172	0xbf603164	-0.87575364
173	0x3e112271	0.14173295
174	0xbea9187a	-0.33026487
175	0x3ec81dcc	0.39085233
176	0x3f08bbb8	0.53411436
177	0x3eba8019	0.36425856
178	0xbf5759b9	-0.8412128
179	0xbf020da2	-0.5080205
180	0xbe2ba8b5	-0.16763575
181	0xbe8b1e55	-0.2717158
182	0x3f41dc73	0.75727004
183	0xbf86f702	-1.0544131
184	0x3df77867	0.12083512
185	0x3e45bf40	0.19311237
186	0xbf0e80f6	-0.5566553
187	0x3ea442d9	0.3208225
188	0xbfd4aa71	-1.6614515
189	0x3f7cf86c	0.9881656
190	0xbed4ae8b	-0.41539416
191	0x3f3c7dbe	0.7362937
192	0x3f7fe207	0.99954265
193	0x3f1af684	0.60532403
194	0xbe7da9c6	-0.24771795
195	0xbecdafd3	-0.40173206
196	0xbed27409	-0.41104153
197	0x3e16c051	0.147218
198	0x3eaac99f	0.3335695
199	0xbe903a73	-0.28169593
200	0x3f243610	0.6414499
201	0xbea75759	-0.32683828
202	0xc00990cc	-2.1494627
203	0xbea1c1a1	-0.3159304
204	0x3f2ef651	0.683446
205	0x3d21f3a5	0.039539
206	0xbfe7f2d7	-1.8120984
207	0x3faf2799	1.3683959
208	0x3f81dde3	1.014584
209	0xbf4f02af	-0.8086347
210	0xbf976a25	-1.1829268
211	0xbe136469	-0.14393772
212	0xbf843384	-1.0328221
213	0xbf8e6d24	-1.1127057
214	0xbe46a6d6	-0.1939958
215	0x3f5da841	0.8658486
216	0x3f101147	0.56276363
217	0xbe6d20d8	-0.2315706
218	0xbec079f3	-0.3759304
219	0x3abf58dd	0.0014598627
220	0x3ea8b3ee	0.32949775
221	0x3ede5a13	0.43428096
222	0x4014853c	2.320632
223	0xbf6f7d72	-0.9355079
224	0xbf7b6225	-0.9819663
225	0xbfce73b8	-1.6129065
226	0xbf04e609	-0.51913506
227	0x4015a160	2.3379745
228	0xbf96eb8d	-1.1790634
229	0x3f5b7435	0.8572419
230	0xbeb8c69d	-0.3608903
231	0x3fa6b521	1.3024026
232	0xbf883f71	-1.0644361
233	0x3f81c6d2	1.01388
234	0x3f732ac3	0.94987124
235	0x3fd3988c	1.6530929
236	0xbfe58cc6	-1.7933586
237	0xc009f1dc	-2.155387
238	0xbeb420c2	-0.35181242
239	0x3fece86f	1.8508433
240	0xbf5d30cd	-0.8640259
241	0xbe172c5e	-0.14763018
242	0x3f4ea4e1	0.80720335
243	0xbf1175e1	-0.56820494
244	0x3ea0fe82	0.31444174
245	0xbe6d9244	-0.23200327
246	0xbfab3df7	-1.3378285
247	0xbfb23390	-1.3921986
248	0xbf329aef	-0.6976766
249	0xbdd1780a	-0.10227974
250	0xbeb02ffc	-0.3441161
251	0xbf7b7c2e	-0.9823636
252	0x3da27c0d	0.07933817
253	0x3ecf085f	0.40436074
254	0x3f4bc301	0.7959443
255	0x3f2e4ec7	0.68088955

pos_embedding.weight f4 [16, 32]
0	0x3f5ff474	0.8748238
1	0xbffccef5	-1.9750658
2	0xbe8d33ad	-0.27578488
3	0x3f9bd5b4	1.2174592
4	0x3e250b16	0.1611751
5	0xbf044ce8	-0.5167985
6	0x3f87142a	1.0553029
7	0xbeaedcd0	-0.34152842
8	0x3eabff54	0.33593237
9	0xbf9f35ad	-1.2438256
10	0x3f4764b4	0.77888036
11	0x3fa86b28	1.3157701
12	0x3f96789b	1.1755556
13	0x3f7c698f	0.9859857
14	0x3d8756f1	0.0660838
15	0x3fc6b20f	1.5523089
16	0x4020fd25	2.5154507
17	0x3fc4e85a	1.5383408
18	0xbf97f2b6	-1.1870944
19	0xbfac7562	-1.3473322
20	0xbf023670	-0.50864315
21	0x3f9ebc05	1.2401129
22	0x3f3d968e	0.74057853
23	0xbfcb8f99	-1.5903198
24	0x402082b4	2.5079775
25	0x3d6efa75	0.058344323
26	0xbe186ebc	-0.14885992
27	0x3fad2eff	1.3529967
28	0xbf06829b	-0.5254304
29	0x3f853db8	1.040946
30	0x3dbf8517	0.09351557
31	0xbfe85f9c	-1.8154178
32	0xbfb02ac9	-1.3763057
33	0xbe81521d	-0.2525796
34	0x3e80badf	0.2514257
35	0xbdc30381	-0.09522153
36	0x3bc7a036	0.0060920967
37	0xbea8bca0	-0.3295641
38	0x3fab861f	1.3400306
39	0x3f8b520f	1.0884417
40	0xbeb298a2	-0.34882075
41	0x3f214ac1	0.6300469
42	0x3e705e7d	0.23473544
43	0xbf96a4f5	-1.1769091
44	0x3fa83343	1.3140644
45	0xbf4f1609	-0.80893
46	0xbd17e662	-0.037084945
47	0x3ef13458	0.47110248
48	0x3f9c148e	1.2193773
49	0x3e5bbf9f	0.21459816
50	0xbf47ed06	-0.78096044
51	0xbf8bcf22	-1.0922587
52	0xbf682bd7	-0.90691894
53	0x3ee95be6	0.45577925
54	0x3ed188c7	0.40924665
55	0xbf223aaf	-0.63370794
56	0x3e8f5523	0.27994642
57	0x3fc1d6e5	1.5143706
58	0x3f2d1491	0.67609507
59	0x3ee8477b	0.45367035
60	0x3e8c4b24	0.27401078
61	0x3e10cc12	0.14140347
62	0x3f1cbcfa	0.61225855
63	0xbfc62974	-1.54814
64	0xbf4de851	-0.8043261
65	0x3d1e9429	0.038715515
66	0xbf1d7631	-0.6150847
67	0x3f58587e	0.8451003
68	0x3d7021da	0.058626033
69	0x3f18fc4b	0.5975997
70	0x3ccca214	0.024979629
71	0x3e68e57c	0.22743791
72	0x3eea1aaf	0.45723483
73	0x3f37d8c2	0.7181512
74	0x3eecfa38	0.46284652
75	0xbf0fb3a0	-0.5613346
76	0x4011164f	2.2669866
77	0x3e99db6e	0.30050224
78	0x3f0800cd	0.5312622
79	0x3f235c9e	0.638132
80	0x3f992b9e	1.1966436
81	0x3f540402	0.82818615
82	0x3ec89aaf	0.39180514
83	0xbdc66a58	-0.09688252
84	0x3dfb7341	0.12277842
85	0xbe92a281	-0.28639606
86	0x3fa55602	1.2916873
87	0x3bf184d8	0.0073705725
88	0x3fdcaa4c	1.723947
89	0x3ec33f12	0.38134056
90	0x3ee2a80f	0.44268844
91	0x3f19e58f	0.60115904
92	0xbf00c98d	-0.5030754
93	0x3fa0b27c	1.2554469
94	0xbf69263c	-0.91073966
95	0xbe9cd991	-0.3063474
96	0xbf4a2779	-0.7896648
97	0x3ec48364	0.38381493
98	0x3f2e4784	0.68077874
99	0x3c9bd099	0.019020366
100	0x3f9392a5	1.1529127
101	0xbf17d732	-0.59312737
102	0xbf8efe12	-1.1171286
103	0xbef01765	-0.4689285
104	0x3e6ecfda	0.23321477
105	0xbebd2a95	-0.3694655
106	0xbdf6da1d	-0.120533206
107	0xbf406d6c	-0.75166965
108	0xbf9d6665	-1.2296873
109	0xbed48c6c	-0.41513383
110	0xbf41c0f5	-0.75685054
111	0x3e716e5c	0.23577255
112	0xbf1d073a	-0.6133915
113	0x4001051e	2.0159373
114	0x3f240453	0.640691
115	0xbf7b86c0	-0.9825249
116	0xbf46e258	-0.77689123
117	0x3f199eeb	0.60008115
118	0xbeef86b2	-0.46782452
119	0x3f1a900d	0.60376054
120	0x3f7757da	0.96618426
121	0xbf8ffcbc	-1.1249003
122	0x3f07b314	0.53007627
123	0x3ec3c303	0.3823472
124	0x3f316dba	0.69308054
125	0xbeaebc9f	-0.3412828
126	0xbfa38943	-1.2776264
127	0xbe8f8965	-0.2803451
128	0x3f57486a	0.8409487
129	0xbe793d52	-0.24339798
130	0x3deb362f	0.11484944
131	0x3d277c9d	0.040890325
132	0xbf6a6bfe	-0.91571033
133	0x3e42fe6b	0.19042365
134	0x3f732ae5	0.94987327
135	0xbf20b398	-0.6277404
136	0x3e62284e	0.22085688
137	0x3eb20b2d	0.3477415
138	0x3f84673b	1.0344003
139	0xbd8a6ca3	-0.06759002
140	0x3ef6e932	0.4822479
141	0x3f67a849	0.9049116
142	0xbfce8a0f	-1.6135882
143	0xbd196e8d	-0.037458945
144	0xbdaf93c5	-0.08573107
145	0x3f8d78ce	1.1052492
146	0xbc3e0922	-0.011598857
147	0xbfe1bbcd	-1.7635437
148	0x3f9d53c5	1.229119
149	0xbf1a9af9	-0.6039272
150	0x3f0012c3	0.5002863
151	0x3f967e9a	1.1757386
152	0x3ed2ab7f	0.41146466
153	0x3e110fb4	0.14166147
154	0xbe576086	-0.21032915
155	0x3d20b111	0.039231364
156	0x3f8cc463	1.0997432
157	0x3f609d1d	0.87739736
158	0xbf8532f3	-1.0406173
159	0x3f09ecb4	0.53876805
160	0xbec9081d	-0.39264002
161	0x3f3a41e0	0.7275677
162	0x3f015031	0.5051299
163	0x3f93ce8b	1.1547407
164	0x3fb0494c	1.3772368
165	0x3fb14f18	1.3852262
166	0xbfac968f	-1.3483447
167	0xbe1a896c	-0.15091485
168	0x3f2a3303	0.6648409
169	0x3eaf09e3	0.3418723
170	0x3fadabb3	1.3568023
171	0xbd9f7f4d	-0.077879526
172	0x3f8b4041	1.0878984
173	0x3f23896a	0.6388155
174	0xbfc6277a	-1.5480797
175	0x3f30eb6d	0.6910923
176	0xbeda313c	-0.42615688
177	0x40157041	2.3349764
178	0xbe48d5ad	-0.19612761
179	0x3de048ed	0.109514095
180	0x3e62b440	0.22139072
181	0x3f864d42	1.0492327
182	0x3e28a8c8	0.16470635
183	0x3f496363	0.7866728
184	0xbed41860	-0.41424847
185	0x3fb98783	1.449448
186	0xbd1d7f96	-0.038451754
187	0x3e902b70	0.2815814
188	0xbf5207f9	-0.82043415
189	0x3f5b5f4f	0.85692304
190	0x3d22a4b9	0.039707873
191	0x3f075c08	0.52874804
192	0xbe3efcea	-0.18651167
193	0xbf93bbde	-1.1541708
194	0xbda3c0ec	-0.07995781
195	0xbe90f9ad	-0.28315488
196	0x3fb5f352	1.421488
197	0xbf37faff	-0.71867365
198	0x3e8998a7	0.26874277
199	0xbfa87832	-1.3161681
200	0x3e9dd808	0.3082888
201	0xbe33266b	-0.17495124
202	0x3ed6bfaf	0.41943118
203	0xbf264d29	-0.6496149
204	0xbf30f128	-0.69117975
205	0x3eb31c0d	0.3498234
206	0xbfc23bcc	-1.5174499
207	0xbbeb8c9e	-0.0071883937
208	0xbf4484bb	-0.7676503
209	0x3f0e0095	0.5546964
210	0xbdca425d	-0.09875939
211	0x3da7df43	0.08196881
212	0x3e1efc41	0.15525915
213	0x3f4bea7a	0.7965466
214	0xbeb96c7d	-0.36215582
215	0x3efc29e6	0.49250716
216	0xbf20033d	-0.6250494
217	0xbe0e485a	-0.13894787
218	0xbe2cbdee	-0.16869327
219	0x3ee23f5d	0.44188967
220	0x3f5339ff	0.8251037
221	0xbcb33694	-0.02187661
222	0x3f01ebc0	0.5075035
223	0x3f15d466	0.5852722
224	0x3dd7b4a3	0.105325006
225	0xbffaae97	-1.958453
226	0xbf0c7758	-0.54869604
227	0xbe4b2459	-0.19838084
228	0x3eb775ac	0.35831964
229	0xbe3d4201	-0.1848221
230	0x3fc2e3af	1.5225734
231	0xbfcc6f93	-1.597155
232	0x3fa0ebcc	1.257196
233	0x3e785019	0.24249305
234	0xbf17ad47	-0.59248775
235	0xbf3da8b1	-0.7408553
236	0x3f8f6b37	1.1204594
237	0xbe59677b	-0.21230881
238	0x3ef6e312	0.48220116
239	0xbd99c69c	-0.07508585
240	0x3f351a9c	0.7074373
241	0xbfc1ea57	-1.514964
242	0xbec7734a	-0.38955146
243	0x3f2c9677	0.6741709
244	0x3f0a09bb	0.539211
245	0x3ec61513	0.38687953
246	0x3e847846	0.2587301
247	0x3e959909	0.2921832
248	0xbe10f2ae	-0.14155075
249	0x3f63e799	0.89025265
250	0x3ef27e11	0.47361806
251	0x3f996ddf	1.1986655
252	0x3e0f5feb	0.14001434
253	0x3db8992b	0.090135895
254	0x3f7adeb4	0.9799607
255	0x3f0d233f	0.55131906

encoders.0.attention.mask f4 [16, 16]
0	0x3f800000	1.0
1	0x00000000	0.0
2	0x00000000	0.0
3	0x00000000	0.0
4	0x00000000	0.0
5	0x00000000	0.0
6	0x00000000	0.0
7	0x00000000	0.0
8	0x00000000	0.0
9	0x00000000	0.0
10	0x00000000	0.0
11	0x00000000	0.0
12	0x00000000	0.0
13	0x00000000	0.0
14	0x00000000	0.0
15	0x00000000	0.0
16	0x3f800000	1.0
17	0x3f800000	1.0
18	0x00000000	0.0
19	0x00000000	0.0
20	0x00000000	0.0
21	0x00000000	0.0
22	0x00000000	0.0
23	0x00000000	0.0
24	0x00000000	0.0
25	0x00000000	0.0
26	0x00000000	0.0
27	0x00000000	0.0
28	0x00000000	0.0
29	0x00000000	0.0
30	0x00000000	0.0
31	0x00000000	0.0
32	0x3f800000	1.0
33	0x3f800000	1.0
34	0x3f800000	1.0
35	0x00000000	0.0
36	0x00000000	0.0
37	0x00000000	0.0
38	0x00000000	0.0
39	0x00000000	0.0
40	0x00000000	0.0
41	0x00000000	0.0
42	0x00000000	0.0
43	0x00000000	0.0
44	0x00000000	0.0
45	0x00000000	0.0
46	0x00000000	0.0
47	0x00000000	0.0
48	0x3f800000	1.0
49	0x3f800000	1.0
50	0x3f800000	1.0
51	0x3f800000	1.0
52	0x00000000	0.0
53	0x00000000	0.0
54	0x00000000	0.0
55	0x00000000	0.0
56	0x00000000	0.0
57	0x00000000	0.0
58	0x00000000	0.0
59	0x00000000	0.0
60	0x00000000	0.0
61	0x00000000	0.0
62	0x00000000	0.0
63	0x00000000	0.0
64	0x3f800000	1.0
65	0x3f800000	1.0
66	0x3f800000	1.0
67	0x3f800000	1.0
68	0x3f800000	1.0
69	0x00000000	0.0
70	0x00000000	0.0
71	0x00000000	0.0
72	0x00000000	0.0
73	0x00000000	0.0
74	0x00000000	0.0
75	0x00000000	0.0
76	0x00000000	0.0
77	0x00000000	0.0
78	0x00000000	0.0
79	0x00000000	0.0
80	0x3f800000	1.0
81	0x3f800000	1.0
82	0x3f800000	1.0
83	0x3f800000	1.0
84	0x3f800000	1.0
85	0x3f800000	1.0
86	0x00000000	0.0
87	0x00000000	0.0
88	0x00000000	0.0
89	0x00000000	0.0
90	0x00000000	0.0
91	0x00000000	0.0
92	0x00000000	0.0
93	0x00000000	0.0
94	0x00000000	0.0
95	0x00000000	0.0
96	0x3f800000	1.0
97	0x3f800000	1.0
98	0x3f800000	1.0
99	0x3f800000	1.0
100	0x3f800000	1.0
101	0x3f800000	1.0
102	0x3f800000	1.0
103	0x00000000	0.0
104	0x00000000	0.0
105	0x00000000	0.0
106	0x00000000	0.0
107	0x00000000	0.0
108	0x00000000	0.0
109	0x00000000	0.0
110	0x00000000	0.0
111	0x00000000	0.0
112	0x3f800000	1.0
113	0x3f800000	1.0
114	0x3f800000	1.0
115	0x3f800000	1.0
116	0x3f800000	1.0
117	0x3f800000	1.0
118	0x3f800000	1.0
119	0x3f800000	1.0
120	0x00000000	0.0
121	0x00000000	0.0
122	0x00000000	0.0
123	0x00000000	0.0
124	0x00000000	0.0
125	0x00000000	0.0
126	0x00000000	0.0
127	0x00000000	0.0
128	0x3f800000	1.0
129	0x3f800000	1.0
130	0x3f800000	1.0
131	0x3f800000	1.0
132	0x3f800000	1.0
133	0x3f800000	1.0
134	0x3f800000	1.0
135	0x3f800000	1.0
136	0x3f800000	1.0
137	0x00000000	0.0
138	0x00000000	0.0
139	0x00000000	0.0
140	0x00000000	0.0
141	0x00000000	0.0
142	0x00000000	0.0
143	0x00000000	0.0
144	0x3f800000	1.0
145	0x3f800000	1.0
146	0x3f800000	1.0
147	0x3f800000	1.0
148	0x3f800000	1.0
149	0x3f800000	1.0
150	0x3f800000	1.0
151	0x3f800000	1.0
152	0x3f800000	1.0
153	0x3f800000	1.0
154	0x00000000	0.0
155	0x00000000	0.0
156	0x00000000	0.0
157	0x00000000	0.0
158	0x00000000	0.0
159	0x00000000	0.0
160	0x3f800000	1.0
161	0x3f800000	1.0
162	0x3f800000	1.0
163	0x3f800000	1.0
164	0x3f800000	1.0
165	0x3f800000	1.0
166	0x3f800000	1.0
167	0x3f800000	1.0
168	0x3f800000	1.0
169	0x3f800000	1.0
170	0x3f800000	1.0
171	0x00000000	0.0
172	0x00000000	0.0
173	0x00000000	0.0
174	0x00000000	0.0
175	0x00000000	0.0
176	0x3f800000	1.0
177	0x3f800000	1.0
178	0x3f800000	1.0
179	0x3f800000	1.0
180	0x3f800000	1.0
181	0x3f800000	1.0
182	0x3f800000	1.0
183	0x3f800000	1.0
184	0x3f800000	1.0
185	0x3f800000	1.0
186	0x3f800000	1.0
187	0x3f800000	1.0
188	0x00000000	0.0
189	0x00000000	0.0
190	0x00000000	0.0
191	0x00000000	0.0
192	0x3f800000	1.0
193	0x3f800000	1.0
194	0x3f800000	1.0
195	0x3f800000	1.0
196	0x3f800000	1.0
197	0x3f800000	1.0
198	0x3f800000	1.0
199	0x3f800000	1.0
200	0x3f800000	1.0
201	0x3f800000	1.0
202	0x3f800000	1.0
203	0x3f800000	1.0
204	0x3f800000	1.0
205	0x00000000	0.0
206	0x00000000	0.0
207	0x00000000	0.0
208	0x3f800000	1.0
209	0x3f800000	1.0
210	0x3f800000	1.0
211	0x3f800000	1.0
212	0x3f800000	1.0
213	0x3f800000	1.0
214	0x3f800000	1.0
215	0x3f800000	1.0
216	0x3f800000	1.0
217	0x3f800000	1.0
218	0x3f800000	1.0
219	0x3f800000	1.0
220	0x3f800000	1.0
221	0x3f800000	1.0
222	0x00000000	0.0
223	0x00000000	0.0
224	0x3f800000	1.0
225	0x3f800000	1.0
226	0x3f800000	1.0
227	0x3f800000	1.0
228	0x3f800000	1.0
229	0x3f800000	1.0
230	0x3f800000	1.0
231	0x3f800000	1.0
232	0x3f800000	1.0
233	0x3f800000	1.0
234	0x3f800000	1.0
235	0x3f800000	1.0
236	0x3f800000	1.0
237	0x3f800000	1.0
238	0x3f800000	1.0
239	0x00000000	0.0
240	0x3f800000	1.0
241	0x3f800000	1.0
242	0x3f800000	1.0
243	0x3f800000	1.0
244	0x3f800000	1.0
245	0x3f800000	1.0
246	0x3f800000	1.0
247	0x3f800000	1.0
248	0x3f800000	1.0
249	0x3f800000	1.0
250	0x3f800000	1.0
251	0x3f800000	1.0
252	0x3f800000	1.0
253	0x3f800000	1.0
254	0x3f800000	1.0
255	0x3f800000	1.0

encoders.0.attention.qkv.weight f4 [96, 32]
0	0xbd738b59	-0.059459064
1	0xbdf1a246	-0.11798529
2	0xbd464ef2	-0.048415132
3	0x3e0516cc	0.12996978
4	0xbebb49ea	-0.3657983
5	0xbde84a7e	-0.11342333
6	0xbe0c648a	-0.13710228
7	0x3df6fffa	0.120605424
8	0xbe9b5ffd	-0.3034667
9	0x39a836e4	0.00032084354
10	0x3dc398b5	0.09550611
11	0x3f2b24f8	0.66853285
12	0x3d985123	0.074373506
13	0x3c8a5f41	0.016891124
14	0xbe7e81f8	-0.24854267
15	0xbe849e41	-0.25901988
16	0xbe33a966	-0.17545089
17	0x3da5167f	0.080609314
18	0xbe888a8b	-0.266682
19	0xbe6cd2d0	-0.23127294
20	0xbe1361c7	-0.14392768
21	0x3d6e97d1	0.058250252
22	0xbe6bc921	-0.23025943
23	0x3e8e65d9	0.2781208
24	0xbeb198ae	-0.34686798
25	0xbe48e8a2	-0.19619992
26	0xbe1467f9	-0.14492787
27	0x3e1a3d58	0.15062463
28	0xbe0ade36	-0.13561329
29	0x3e97678a	0.29571182
30	0x3e2f7ff3	0.17138653
31	0xbbdbc039	-0.0067062643
32	0xbe86bf2c	-0.26317728
33	0x3d7e5b53	0.062098812
34	0xbecbf34c	-0.39834058
35	0xbd17f7fc	-0.03710173
36	0x3dbb6baf	0.091513984
37	0xbdeae593	-0.11469569
38	0x3e7299cb	0.2369148
39	0x3f1ead66	0.61983335
40	0xbc9c5970	-0.019085616
41	0xbd72f9ac	-0.059320137
42	0xbd831ffc	-0.06402585
43	0x3dc777d2	0.09739651
44	0x3d9a67a1	0.07539297
45	0xbea2aacb	-0.3177093
46	0xbd6b32d5	-0.057421524
47	0x3e450f94	0.19244224
48	0xbeb52ac1	-0.3538418
49	0xbdf16769	-0.11787302
50	0xbea272b7	-0.31728145
51	0x3e699292	0.22809818
52	0x3d001c92	0.031277247
53	0x3ec1a18e	0.3781857
54	0x3df036ad	0.117291786
55	0x3ce6c68b	0.028170845
56	0xbe432b98	-0.19059598
57	0x3eb13c24	0.34616196
58	0xbe1ef159	-0.15521754
59	0x3ecb135e	0.39663213
60	0x3e77ae4b	0.24187581
61	0xbe6ba713	-0.23012953
62	0x3d898964	0.06715658
63	0x3ec7d187	0.39027044
64	0xbd7c2219	-0.061555956
65	0xbe952b36	-0.2913453
66	0xbd724fe1	-0.05915821
67	0xbdf75699	-0.12077064
68	0xbdeba8c3	-0.11506798
69	0x3e7626e0	0.24038267
70	0xbd54749a	-0.051869012
71	0x3db874de	0.09006666
72	0x3da393a2	0.07987143
73	0x3e747483	0.2387257
74	0xbcd7fe5e	-0.026366409
75	0x3db297e2	0.087203756
76	0x3ee7b371	0.4525409
77	0x3e2eee46	0.17083082
78	0xbe68fca9	-0.22752632
79	0x3e4e76ed	0.20162554
80	0xbd7cd822	-0.061729558
81	0x3ea02eef	0.31285807
82	0xbe6d45f3	-0.23171215
83	0x3e5d68be	0.21621987
84	0x3df3dc4c	0.11907253
85	0xbe2171e2	-0.15766099
86	0xbc835264	-0.016030498
87	0xbe3a6f12	-0.18206432
88	0xbe5f85cb	-0.21828382
89	0xbdd27ca0	-0.102776766
90	0x3eefb33f	0.4681644
91	0xbf3baf0d	-0.7331398
92	0xbe20c272	-0.15699175
93	0xbeaa1664	-0.33220208
94	0xbd2eba4a	-0.042658128
95	0xbe6021e3	-0.21887927
96	0xbe340b1a	-0.1758236
97	0x3d40b1fe	0.047044747
98	0xbe89a400	-0.26882935
99	0x3e504110	0.2033732
100	0xbe47cfda	-0.19512883
101	0xbe6b8bd3	-0.23002557
102	0xbe19c521	-0.15016605
103	0xbd868268	-0.06567842
104	0x3dbc3eb0	0.09191644
105	0xbcba6622	-0.022753779
106	0x3dc0ec15	0.09420029
107	0xbcb2d50a	-0.0218301
108	0xbdfa6fd0	-0.12228358
109	0xbe83d202	-0.2574616
110	0x3f451ce2	0.76997197
111	0xbd1e6feb	-0.038680952
112	0x3ec2740f	0.3797917
113	0xbe8f08c3	-0.27936372
114	0x3eba518f	0.3639035
115	0xbdfd443d	-0.12366531
116	0xbee8dd6b	-0.45481429
117	0xbe50f169	-0.2040459
118	0xbd8baa5d	-0.068196036
119	0xbea60161	-0.32422927
120	0x3ec2e540	0.3806553
121	0xbdc28d86	-0.0949965
122	0x3e75bdf2	0.2399824
123	0xbc8a07d6	-0.01684944
124	0xbea4560c	-0.320969
125	0x3e953440	0.29141426
126	0xbe8ac30d	-0.27101937
127	0xbeadb8b3	-0.33929977
128	0x3d54acbc	0.051922545
129	0xbe2668bd	-0.16250892
130	0xbe8b8542	-0.27250105
131	0x3db03cc3	0.086053394
132	0x3d0b10dc	0.033951625
133	0xbef29bd1	-0.47384503
134	0x3e677198	0.22601926
135	0xbac08b29	-0.001468991
136	0x3e4ef926	0.2021223
137	0x3e1a187a	0.150484
138	0x3e71c368	0.23609698
139	0xbc855956	-0.01627795
140	0xbe40deb6	-0.18834957
141	0x3e1a8965	0.15091474
142	0x3d740ce8	0.05958262
143	0xbe17975c	-0.14803833
144	0x3e096483	0.13417248
145	0x3ede45ae	0.43412536
146	0xbe2a307c	-0.16620058
147	0xbe1ffbd2	-0.15623406
148	0xbcfec7a3	-0.031101054
149	0xbd2048c7	-0.039131906
150	0xbe007cdc	-0.1254763
151	0x3e98fb59	0.29879263
152	0xbef35276	-0.4752385
153	0x3d2afbc5	0.041744012
154	0x3e51b96d	0.2048089
155	0xbea5f0f4	-0.32410395
156	0xbd365872	-0.04451794
157	0xbe1051bb	-0.14093678
158	0x3ef5e7b9	0.48028353
159	0x3eaf942c	0.34292734
160	0xbdfcf1b4	-0.12350789
161	0x3f5a9352	0.8538104
162	0x3e893f84	0.2680627
163	0x3ec756ed	0.38933507
164	0xbc932a4c	-0.017964505
165	0xbcde3331	-0.02712402
166	0xbd5da93d	-0.054116476
167	0xbdb299cd	-0.087207414
168	0xbeca42c9	-0.39504078
169	0x3e8ff289	0.28114727
170	0x3f537c54	0.82611585
171	0xbe31fefa	-0.17382422
172	0xbe73c4ce	-0.23805544
173	0x3e4eef7b	0.20208542
174	0xbe4ab509	-0.19795622
175	0xbdd0412a	-0.10168679
176	0xbd7b9977	-0.061425652
177	0xbece452a	-0.40287143
178	0x3e15e8b7	0.14639555
179	0xbe070380	-0.13184929
180	0x3e5bc556	0.21461996
181	0xbdae2535	-0.085031904
182	0x3e0d2529	0.13783707
183	0x3ebcc07d	0.36865607
184	0xbdf32d05	-0.11873821
185	0x3e5471d9	0.20746554
186	0xbdbb91ee	-0.09158693
187	0xbd380d87	-0.044934776
188	0x3dad837d	0.08472345
189	0x3e357e3a	0.17723933
190	0x3ef4ad7d	0.4778861
191	0x3e1d6ba6	0.15373096
192	0x3d06a9cf	0.032876786
193	0x3eff54c8	0.4986937
194	0x3d336702	0.043799408
195	0x3da49b04	0.080373794
196	0xbf355fae	-0.7084912
197	0x3d3bb394	0.045825556
198	0xbd9c7b83	-0.076407455
199	0x3e51d750	0.20492291
200	0x3d86e220	0.06586099
201	0xbe872a22	-0.26399332
202	0xbdc7eac2	-0.097615734
203	0x3ddc6a62	0.107624784
204	0x3e566219	0.20935859
205	0x3e808ff1	0.2510982
206	0xbd6cbca9	-0.057797108
207	0x3e11a9b7	0.14224897
208	0xbe9e4e68	-0.30919194
209	0x3dd57f76	0.10424702
210	0x3ec0edcb	0.37681422
211	0xbebb8b57	-0.36629745
212	0xbd508a83	-0.050913345
213	0xbd079449	-0.0331004
214	0x3e3cc898	0.18435895
215	0x3e83b3f7	0.2572324
216	0x3e76db76	0.24107155
217	0xbe8e4217	-0.27784798
218	0x3d3505a0	0.044194818
219	0x3e0bc07f	0.1364765
220	0x3e3eed20	0.18645144
221	0xbe02a02f	-0.12756418
222	0xbed4394a	-0.41449958
223	0x3ebcb71c	0.3685845
224	0x3e868c56	0.26278943
225	0xbe2030da	-0.15643635
226	0xbe251287	-0.16120349
227	0xbe614ff9	-0.22003163
228	0x3e6a3be6	0.22874412
229	0x3ccf4fd3	0.025306618
230	0xbe91a48d	-0.28445855
231	0x3f04b252	0.51834595
232	0x3e30623c	0.17224973
233	0x3e6931e5	0.2277294
234	0xbccc9c51	-0.024976881
235	0x3dfc5101	0.12320138
236	0xbd89f6e2	-0.06736542
237	0xbd954c71	-0.07289971
238	0x3e46aa54	0.19400913
239	0xbecfe942	-0.4060765
240	0xbda013fe	-0.07816313
241	0x3e89e353	0.26931247
242	0xbe0f906a	-0.14019933
243	0xbec43b22	-0.38326365
244	0xbcc5436c	-0.02408
245	0x3c79c309	0.015244254
246	0x3e88dbf5	0.26730314
247	0x3eabd3c9	0.33560017
248	0x3e831ac9	0.25606373
249	0x3ecba090	0.39770937
250	0xbd9fa074	-0.07794276
251	0xbeda40a7	-0.4262745
252	0x3e0e6700	0.13906479
253	0x3e35e4b8	0.1776303
254	0xbe0b993c	-0.13632673
255	0x3dfe9961	0.124315985

encoders.0.attention.qkv.bias f4 [96]
0	0xbf5bae09	-0.8581243
1	0xbf7123de	-0.94195354
2	0x3e169bf5	0.1470793
3	0xbf9b5b61	-1.2137262
4	0xbe4ace41	-0.19805242
5	0xbf2b0071	-0.6679755
6	0xbf1bd1c5	-0.6086696
7	0x3e81561f	0.25261018
8	0x3eacb640	0.33732796
9	0xbefa8d08	-0.48935723
10	0x3f139a11	0.5765696
11	0x3f55aba1	0.8346501
12	0xbe194e4d	-0.14971276
13	0x3f014f21	0.50511366
14	0xbf615bb6	-0.88030565
15	0xbf630933	-0.8868591
16	0x3ca430a0	0.020042717
17	0xbdfee0a1	-0.12445188
18	0x3e5cbd44	0.21556574
19	0xbf7ac9fc	-0.97964454
20	0xbf060344	-0.5234873
21	0x3ee7ac94	0.45248854
22	0x3ebc8cf7	0.36826298
23	0x3e0e4ce4	0.13896519
24	0x3f7a5748	0.9778943
25	0x3e6e72aa	0.23285928
26	0x3f072bf1	0.52801424
27	0xbed72a4c	-0.42024457
28	0x3d9e5d96	0.07732694
29	0x3eecbbb3	0.46236953
30	0x3e672768	0.22573626
31	0x3f40824d	0.75198823
32	0x3d30a59c	0.043126687
33	0x3dea7535	0.11448137
34	0x3e066aa9	0.13126625
35	0xbd849ce7	-0.06475239
36	0x3e0721de	0.13196513
37	0x3d60904a	0.054825105
38	0x3de22800	0.11042786
39	0xbd7c875a	-0.06165252
40	0xbd401d5f	-0.04690301
41	0x3dddce2b	0.10830339
42	0x3d36cb2d	0.044627357
43	0xbb3a183f	-0.00283958
44	0x3e083692	0.13302067
45	0x3e0e6042	0.13903907
46	0x3e156732	0.14590147
47	0x3d50206b	0.050812166
48	0xbd65b626	-0.056081913
49	0xbe282135	-0.16418917
50	0xbd491afb	-0.049097996
51	0xbd6665a0	-0.05624926
52	0x3c04365b	0.0080696
53	0xbe0e44aa	-0.13893381
54	0x3e041cef	0.12901662
55	0x3e07c83e	0.1325998
56	0xbc1ed2ab	-0.009693782
57	0xbdfb817d	-0.12280557
58	0x3e2648b3	0.1623867
59	0x3c3752cb	0.011189173
60	0x3dfb4bee	0.12270342
61	0x3e10b08f	0.14129852
62	0x3dbf1fb5	0.093322195
63	0x3e24deae	0.1610057
64	0x3c39d955	0.01134332
65	0x3b912cb7	0.0044303793
66	0xbd1dc433	-0.03851719
67	0x3c2e269e	0.010629324
68	0xbe05d4c2	-0.13069442
69	0xbe8486a2	-0.25883967
70	0xbe31f41f	-0.17378281
71	0x3e0c9532	0.13728788
72	0x3e145b06	0.14487848
73	0x3e33f7c2	0.17574981
74	0x3e01be77	0.12670313
75	0xbdcc1a50	-0.09965956
76	0xbe05f6b0	-0.13082385
77	0xbea3c750	-0.31988
78	0x3e96996f	0.29413936
79	0x3c76cd01	0.015063525
80	0x3dc21a00	0.09477615
81	0x3df6cf4a	0.12051256
82	0x3da37d29	0.07982857
83	0x3e73d16c	0.23810357
84	0x3cda4790	0.026645452
85	0x3c5f4f1b	0.0136297
86	0x3d4c15e9	0.049825583
87	0x3eb2d3ae	0.34927124
88	0xbe59af49	-0.21258272
89	0xbe85de52	-0.2614618
90	0x3c8e5fd2	0.017379675
91	0x3de6f949	0.11278016
92	0x3d04265f	0.032263156
93	0x3e62b75e	0.22140262
94	0xbc44c63a	-0.0120101515
95	0xbde486d2	-0.111585274

encoders.0.attention.fc.weight f4 [32, 32]
0	0xbd8999a4	-0.06718758
1	0xbd101810	-0.035179198
2	0xbe688e03	-0.22710423
3	0x3bfb9531	0.007677697
4	0xbd06fcde	-0.032955997
5	0xbc564673	-0.01307832
6	0xbdddb265	-0.10825042
7	0x3e4e98d3	0.20175485
8	0xbc77b809	-0.015119561
9	0xbdde660d	-0.108593084
10	0x3d01940e	0.031635337
11	0x3c2b1329	0.01044158
12	0xbe2e06ed	-0.1699483
13	0xbc9e53b3	-0.01932702
14	0xbd3eb925	-0.046563286
15	0xbe6ee109	-0.23328032
16	0xbd1b61b9	-0.037934992
17	0xbdf2a123	-0.11847141
18	0x3d0bda85	0.034143943
19	0xbe6fbe92	-0.2341254
20	0xbc36fde0	-0.011168927
21	0x3db8b704	0.090192825
22	0x3e12df04	0.14342886
23	0xbd502ca4	-0.050823823
24	0xbdc713e9	-0.097205944
25	0xbdc0542f	-0.09391057
26	0xbe04c780	-0.12966728
27	0x3d4cb96d	0.049981523
28	0xbdacb6a0	-0.084332705
29	0x3d0a7a62	0.03380812
30	0x3ddfc4f1	0.109262355
31	0xbe0ed09d	-0.13946767
32	0x3d2af39b	0.041736227
33	0xbc38275b	-0.011239852
34	0x3c7c7dfe	0.015410898
35	0xbd023a35	-0.03179379
36	0x3db6bf92	0.08923258
37	0x3dd3213e	0.10309075
38	0xbe053ff8	-0.13012683
39	0xbdbd1ea5	-0.092343606
40	0x3d121cc6	0.03567197
41	0xbd61142e	-0.054950885
42	0x3d41f89f	0.047356244
43	0xbd4afa9b	-0.049555402
44	0xbc9e9be9	-0.019361453
45	0x3db42536	0.0879616
46	0xbd452eeb	-0.048140448
47	0xbcfb25f4	-0.030657746
48	0x3dbe8439	0.09302563
49	0x3e2c031a	0.16798058
50	0x3d3dad53	0.046307873
51	0x3c47145c	0.01215085
52	0xbdf2e707	-0.11860471
53	0x3e1514e0	0.14558744
54	0x3d9cdaff	0.07658958
55	0xba8c7a5f	-0.0010717622
56	0xbc47fdb8	-0.012206487
57	0x3c227d2a	0.009917537
58	0xbd01597b	-0.031579476
59	0xbc89b295	-0.016808787
60	0x3e065f36	0.13122258
61	0x3d850eb5	0.06496946
62	0xbda989c6	-0.08278231
63	0x3e04590e	0.12924597
64	0xbc32c232	-0.010910558
65	0xbd947616	-0.072490856
66	0x3c58fc0f	0.013243689
67	0x3a5ba4d0	0.0008378746
68	0xbdf9b461	-0.12192608
69	0x3db099f7	0.086231165
70	0x3d0a3edf	0.033751365
71	0x3e261443	0.16218667
72	0xbc1b91ca	-0.009495208
73	0xbe163561	-0.146688
74	0x3dd1170a	0.102094725
75	0xbbad0c04	-0.0052809734
76	0x3c930b1b	0.017949631
77	0x3e08bd56	0.13353476
78	0xbdb650d6	-0.08902137
79	0xbd14733e	-0.036242716
80	0x3ce76b03	0.02824927
81	0x3d1e66a4	0.038672104
82	0x3d4f9f0a	0.05068878
83	0x3c88de3c	0.016707532
84	0x3dcaa713	0.09895148
85	0xbe69c558	-0.22829187
86	0x3cb1e9c4	0.021717913
87	0xbd47d16a	-0.048783697
88	0xbe0113e8	-0.1260525
89	0xbd7223e0	-0.059116244
90	0xbe1d8254	-0.15381747
91	0xbe36a394	-0.17835838
92	0x3c5ae739	0.013360792
93	0xbd9794bb	-0.07401415
94	0xbe1bc94e	-0.1521351
95	0x3c94a215	0.018143693
96	0xbd64658c	-0.055760905
97	0x3d30313d	0.043015707
98	0x3de26182	0.110537544
99	0xbd99f063	-0.07516553
100	0xbd8d8c76	-0.069115564
101	0x3ca468b5	0.02006946
102	0xbe15c806	-0.14627084
103	0x3e43c3ad	0.19117613
104	0x3d00d27a	0.031450726
105	0xbc978ba4	-0.018499203
106	0xbd217831	-0.039421264
107	0xbd454ec6	-0.048170827
108	0x3c43cec3	0.011951151
109	0xbc58b813	-0.01322748
110	0x3d9d1fd6	0.07672088
111	0x3d593668	0.0530304
112	0x3d8c2fd0	0.06845057
113	0x3c4aa538	0.012368493
114	0x3cb725d2	0.022356901
115	0x3d38b52e	0.04509466
116	0xbd3dbce3	-0.046322715
117	0xbe30ba0b	-0.1725847
118	0x3d9c9b5e	0.076468214
119	0xbd644d6f	-0.05573791
120	0xbd8a2a55	-0.067463554
121	0x3ce9d9be	0.02854621
122	0xbd7f92c4	-0.062395826
123	0x3d6b2511	0.057408396
124	0x3d625f6a	0.055266775
125	0x3e1b5599	0.15169372
126	0xbdbac5d5	-0.09119765
127	0xbd3cc8b7	-0.046089854
128	0xbdfa8e9f	-0.12234234
129	0xbde9c932	-0.11415328
130	0xbe057227	-0.13031827
131	0xbd9f0da5	-0.07766274
132	0x3cf95506	0.03043605
133	0xbd66581c	-0.05623637
134	0x3d18c6e3	0.03729905
135	0x3e296619	0.16542853
136	0xbe1bc3c0	-0.15211391
137	0xbbb04271	-0.005379014
138	0x3d15a1af	0.036531147
139	0xbe53e77b	-0.20693772
140	0x3cf8d4c8	0.0303749
141	0xbdc9be7b	-0.098507844
142	0xbd939a0c	-0.072071165
143	0xbd2e151d	-0.042500604
144	0x3d1669b8	0.036721915
145	0xbd7edf87	-0.06222489
146	0xbd3f05db	-0.046636444
147	0xbdfde1fa	-0.12396617
148	0xbced1918	-0.02894263
149	0xbda15eaf	-0.078793876
150	0xbe7fa918	-0.24966848
151	0xbc37ed8c	-0.011226069
152	0x3e713038	0.2355355
153	0xbd90d118	-0.070711315
154	0xbc5e25da	-0.013558829
155	0x3e0148a4	0.12625366
156	0xbd11b016	-0.03556832
157	0xbda42b7f	-0.08016109
158	0xbde7abca	-0.11312063
159	0x3d7bf384	0.06151153
160	0x3d5305dc	0.05151926
161	0x3d2f6238	0.042818278
162	0x3e9a0121	0.30078986
163	0xbe31b48a	-0.17354026
164	0xbae74f3b	-0.0017647514
165	0xbdb0252e	-0.086008415
166	0x3e06b1b1	0.13153721
167	0x3c1d54ee	0.009602768
168	0x3d0460fb	0.03231905
169	0x3b0e9415	0.0021755744
170	0xbddad307	-0.106847815
171	0xbe2384b1	-0.15968587
172	0xbe4ab2ef	-0.1979482
173	0xbe38a110	-0.1803019
174	0x3ded748c	0.11594495
175	0x3de2eb60	0.110800505
176	0x3d1029d7	0.03519615
177	0xbd0904ec	-0.03345196
178	0xbe0dece2	-0.13859895
179	0x3df80c2e	0.12111698
180	0x3e8f43e7	0.27981493
181	0xbe5f438a	-0.21803108
182	0xbdbb4a30	-0.091450095
183	0x3e5fdec2	0.21862319
184	0x3d0bf35c	0.034167632
185	0x3c2b290c	0.010446798
186	0xbe0cd5e8	-0.13753474
187	0x3d8f8087	0.070069365
188	0xbdf9045d	-0.12159035
189	0x3d13a976	0.036050282
190	0xbe03505c	-0.12823623
191	0xbe2ea66c	-0.17055672
192	0xbd5d9f78	-0.05410716
193	0x3df108c3	0.11769249
194	0x3e593c06	0.21214303
195	0x3e214a8d	0.15751095
196	0xbe0a1058	-0.13482797
197	0xbe0a4af2	-0.13505152
198	0x3b797db4	0.003806931
199	0xbdf7d7ad	-0.12101684
200	0xbd7115f3	-0.058858823
201	0x3a26881a	0.0006352678
202	0x3dc77b8e	0.09740363
203	0x3e530d93	0.20610647
204	0xbdfd7750	-0.12376273
205	0x3e1a29da	0.15055028
206	0x3e44acf0	0.19206595
207	0x3ea27f46	0.31737727
208	0x3c27c7da	0.010240519
209	0xbc9e862a	-0.019351084
210	0x3e8ed858	0.27899432
211	0x3e1245a6	0.14284381
212	0x3dc5594c	0.09636173
213	0x3e022f53	0.12713365
214	0xbd01b370	-0.031665266
215	0x3de92b39	0.11385197
216	0xbe9496b1	-0.29021218
217	0xbdeec340	-0.11658335
218	0xbc4f27df	-0.012643783
219	0x3e100e09	0.14067854
220	0xbe1f88cd	-0.15579529
221	0x3d86b0ea	0.065767124
222	0x3e51211c	0.20422786
223	0x3e3d2f9e	0.18475196
224	0xbd456a85	-0.048197288
225	0x3d689fd6	0.056793056
226	0x3d987ea1	0.074460275
227	0x3ea1311a	0.31482774
228	0x3d32470e	0.043524794
229	0xbda3a76e	-0.07990919
230	0x3d46ecfe	0.048565857
231	0x3d7b8863	0.061409365
232	0x3df32c27	0.11873656
233	0x3da23281	0.07919789
234	0x3da1b8ca	0.07896574
235	0x3dd94ce9	0.106103726
236	0x3dbfc8a0	0.09364438
237	0x3d141d2c	0.036160633
238	0xbbfd5bbe	-0.007731884
239	0xbd62a9c8	-0.055337697
240	0xbd8578cf	-0.06517183
241	0x3ca150d0	0.019691855
242	0xbe2ef159	-0.17084254
243	0x3d6ce77c	0.05783795
244	0x3deac052	0.114624634
245	0x3cf9761e	0.03045183
246	0xbd658a51	-0.056040112
247	0xbd89911e	-0.06717132
248	0xbd371966	-0.044701956
249	0x3e2b833f	0.16749285
250	0x3da9981f	0.08280968
251	0x3d2e91ac	0.042619392
252	0x3d803e2a	0.06261857
253	0xbe61feeb	-0.220699
254	0x3ccabfd4	0.024749674
255	0x3d0b694b	0.034035962

encoders.0.attention.fc.bias f4 [32]
0	0x3cd376d1	0.025813492
1	0xbcb07cca	-0.021543879
2	0xbd8597f8	-0.06523126
3	0x3d694fa1	0.056960706
4	0xbdb7258d	-0.08942709
5	0xbc123692	-0.008924143
6	0xbbcac09b	-0.006187511
7	0x3d846b9e	0.06465839
8	0x3d728a1a	0.059213735
9	0xbc28c46b	-0.010300736
10	0x3dc5e112	0.096620694
11	0xbcaecb30	-0.021337122
12	0x3cc96646	0.0245849
13	0xbe1dc641	-0.15407659
14	0x3ce36205	0.0277567
15	0x3dbd04c4	0.092294246
16	0xbd50c3f7	-0.050968137
17	0xbccd0ed8	-0.025031492
18	0xbd5f50b6	-0.05452033
19	0x3d1132b1	0.035448734
20	0x3d9a73d8	0.07541627
21	0x3deb1511	0.114786275
22	0x3c231955	0.00995477
23	0x3d9e652c	0.07734141
24	0xbde4bf6c	-0.11169323
25	0xbd3cfec4	-0.0461414
26	0xbd673b1c	-0.056452855
27	0x3cdcd185	0.026955375
28	0xbd00586d	-0.03133433
29	0xbdd9fb22	-0.10643603
30	0xbd5c776a	-0.05382482
31	0x3d0e87f8	0.03479764

encoders.0.norm1.weight f4 [32]
0	0x3f7be2b4	0.98392797
1	0x3f874fd6	1.0571239
2	0x3f864773	1.0490555
3	0x3f84453f	1.0333632
4	0x3f63df8e	0.8901299
5	0x3f6b1e36	0.91842973
6	0x3f314dec	0.69259524
7	0x3f890ff6	1.0707996
8	0x3f89dbf7	1.0770253
9	0x3f8bcf1f	1.0922583
10	0x3f6bbc47	0.92084163
11	0x3f97baec	1.1853919
12	0x3f6cb5d7	0.92464966
13	0x3f92c22f	1.146551
14	0x3f61f017	0.88256973
15	0x3f976621	1.1828042
16	0x3f8ab54c	1.0836577
17	0x3f842523	1.0323833
18	0x3f668f27	0.90062183
19	0x3f8ba114	1.0908532
20	0x3f7a20fe	0.9770659
21	0x3f725af9	0.94670063
22	0x3f8df2ee	1.1089761
23	0x3f86600f	1.0498065
24	0x3f3b954f	0.732747
25	0x3f4f834a	0.81059706
26	0x3f8ff286	1.1245887
27	0x3f94f18a	1.1636212
28	0x3f70ac52	0.9401294
29	0x3f93355a	1.1500657
30	0x3f5f9a4a	0.873448
31	0x3f86651e	1.0499609

encoders.0.norm1.bias f4 [32]
0	0xbd466d05	-0.048443813
1	0xbd0bf863	-0.034172427
2	0x3d7cad89	0.061688934
3	0xbd3be3f3	-0.045871686
4	0x3c871099	0.016487407
5	0x3d57dcb1	0.052700702
6	0xbd2ea293	-0.04263551
7	0x3d486174	0.048921064
8	0x3afae4a9	0.0019141632
9	0xbe0006f9	-0.1250266
10	0xbc0770d4	-0.008266646
11	0x3dac9736	0.08427279
12	0x3ca0e1c3	0.019638902
13	0xbd77cdf4	-0.060499147
14	0xbd6ce869	-0.05783883
15	0xbb2d0a92	-0.0026404005
16	0x3d430a2a	0.047617115
17	0x3da5ddd9	0.08098955
18	0xbdf8a58e	-0.12140952
19	0xbcf64f59	-0.030067133
20	0xbd907685	-0.07053856
21	0x3dfe7093	0.124238156
22	0x3d720412	0.059085913
23	0xbd24b027	-0.040207054
24	0x3db5a3de	0.08869146
25	0xbe0160c1	-0.12634565
26	0x3cda2614	0.026629485
27	0xbd65bbec	-0.05608742
28	0x3c3e22a1	0.011604936
29	0x3cd39c25	0.025831291
30	0x3d8c1d6c	0.06841549
31	0x3b0efdef	0.0021818837

encoders.0.norm2.weight f4 [32]
0	0x3f83583f	1.0261306
1	0x3f883cdc	1.0643573
2	0x3f77a09c	0.96729445
3	0x3f96026a	1.1719487
4	0x3f85bbaf	1.0447901
5	0x3f789b6a	0.97112143
6	0x3f817b2c	1.0115714
7	0x3f8ce4e1	1.1007348
8	0x3f873a2b	1.0564626
9	0x3f963534	1.1734986
10	0x3f8c8f7b	1.0981287
11	0x3f9370f3	1.1518844
12	0x3f8b14d0	1.0865726
13	0x3f8c842f	1.0977839
14	0x3f8336b6	1.0251071
15	0x3f8b7b0b	1.0896925
16	0x3f956247	1.1670617
17	0x3f71689f	0.94300264
18	0x3f8f6f3b	1.120582
19	0x3f74e3fc	0.95660377
20	0x3f935d93	1.1512932
21	0x3f86e0e0	1.0537376
22	0x3f77dcd9	0.9682136
23	0x3f8bb79d	1.0915409
24	0x3f8e795e	1.1130788
25	0x3f81b704	1.0133977
26	0x3f959633	1.1686462
27	0x3f92ff53	1.1484169
28	0x3f87866a	1.0587895
29	0x3f7f51bb	0.99734086
30	0x3f853e87	1.0409707
31	0x3f88932b	1.0669912

encoders.0.norm2.bias f4 [32]
0	0xbe18b9f8	-0.14914691
1	0x3ddecf91	0.10879434
2	0xbd86a016	-0.06573503
3	0x3cc3cea5	0.023902247
4	0x3e276476	0.16346917
5	0x3d42dc31	0.047573272
6	0x3d3085ae	0.043096237
7	0x3d8569a8	0.06514293
8	0x3e0e39cd	0.13889237
9	0x3d31e038	0.043426722
10	0x3d19c844	0.037544504
11	0x3d9f8e20	0.0779078
12	0xbe7e4363	-0.24830393
13	0x3e26bbd2	0.16282585
14	0x3d4002ed	0.04687779
15	0x3c9abeca	0.018889803
16	0xbd91c5e3	-0.07117822
17	0xbe9a32ff	-0.30117032
18	0x3ca99763	0.02070207
19	0x3d17cd0e	0.03706079
20	0x3e30e588	0.17275059
21	0xbe88c7b2	-0.26714855
22	0xbd332a3a	-0.043741442
23	0xbc0da648	-0.008645602
24	0xbcf8e367	-0.030381871
25	0xbd3d91bf	-0.046281572
26	0xbc397ed8	-0.011321746
27	0x3d7fdbf0	0.062465608
28	0x3d41626c	0.047213003
29	0xbe3ca797	-0.18423305
30	0x3df03d6d	0.11730466
31	0x3dc77f5d	0.097410895

encoders.0.ff.0.weight f4 [128, 32]
0	0xbe77ba78	-0.24192226
1	0x3d068712	0.032843657
2	0x3d086eb5	0.033308703
3	0x3d996a9b	0.074910365
4	0xbe839e0d	-0.2570652
5	0xbd6a7ea8	-0.057249695
6	0x3f25ce69	0.6476808
7	0xbe277932	-0.16354826
8	0xbddcfa6e	-0.10789953
9	0x3d1ea22f	0.03872889
10	0xbda80079	-0.08203215
11	0x3e08aaac	0.13346356
12	0xbebbc5a1	-0.36674216
13	0xbe9f9109	-0.3116534
14	0x3d8fe1ca	0.07025488
15	0x3db7749b	0.089577876
16	0xbe830f14	-0.2559744
17	0x3dd854bd	0.105630375
18	0x3f10c79c	0.5655458
19	0x3dbcb5c1	0.09214354
20	0x3d1f6a4f	0.038919743
21	0x3d2a5865	0.041588206
22	0xbd73bc90	-0.059506
23	0xbe20c6e6	-0.15700874
24	0xbc940c55	-0.018072287
25	0x3e661e13	0.2247241
26	0xbde5970f	-0.11210453
27	0xbdfb72e5	-0.12277774
28	0xbede5018	-0.43420482
29	0x3ea303ef	0.3183894
30	0xbd5f25da	-0.054479457
31	0x3e70f2c1	0.23530103
32	0xbebc1e4c	-0.36741865
33	0x3e58bfc5	0.21166904
34	0x3dbc9d05	0.092096366
35	0x3e2a6ded	0.16643496
36	0xbe26dd07	-0.16295253
37	0x3d6e41b7	0.05816814
38	0x3e1d13c8	0.15339577
39	0x3ebfd85a	0.3746975
40	0xbcc28f33	-0.023749923
41	0xbeb354dc	-0.3502568
42	0xbe453d1e	-0.19261596
43	0xbe57cdcc	-0.21074599
44	0xbe7d91c6	-0.2476264
45	0x3eca8c06	0.39559954
46	0xbe8fc211	-0.28077748
47	0xbe3ca080	-0.18420601
48	0xbdbdfa15	-0.09276215
49	0xbf23518e	-0.6379632
50	0xbe0269d5	-0.12735684
51	0x3b9c3434	0.0047669653
52	0x3d7eadc2	0.062177427
53	0x3e939b3d	0.28829375
54	0x3e053f40	0.13012409
55	0x3e992784	0.2991296
56	0x3de376f3	0.11106672
57	0xbe23a412	-0.15980557
58	0x3e096b0e	0.13419744
59	0x3de9f391	0.1142341
60	0xbe1f2568	-0.15541613
61	0x3e0056d7	0.12533127
62	0xbe5b573b	-0.21419995
63	0x3d8d4b2c	0.068991035
64	0xbe8c1f5f	-0.27367684
65	0x3e5902c4	0.21192461
66	0x3db3b0d5	0.087739624
67	0xbc13a232	-0.009010838
68	0xbdf3effa	-0.11911006
69	0x3ecf5a8f	0.40498778
70	0xbe8010a1	-0.25012687
71	0x3a34600c	0.0006880767
72	0x3c12dadc	0.008963313
73	0x3e238ed7	0.15972458
74	0x3d06a2b4	0.03287001
75	0x3dc20097	0.09472769
76	0x3d837a77	0.06419843
77	0xbdbce491	-0.09223283
78	0xbcf038b2	-0.02932391
79	0x3d2b8cd8	0.041882366
80	0xbe8eb9e8	-0.2787621
81	0x3d98b0df	0.074556105
82	0xbd52f628	-0.051504284
83	0xbe080eb6	-0.13286862
84	0xbd552a45	-0.052042264
85	0x3e9b69e4	0.30354226
86	0xbdba0667	-0.090832524
87	0xbd8626ba	-0.06550355
88	0xbd6cef8f	-0.05784565
89	0x3e1977d4	0.14987117
90	0x3d90813f	0.07055902
91	0xbe9d97d0	-0.30779886
92	0xbe22630a	-0.15858093
93	0x3c0d066e	0.00860749
94	0x3d6c61da	0.057710506
95	0x3ded38c0	0.1158309
96	0xbe42ee08	-0.19036114
97	0x3ab29f05	0.0013627714
98	0xbb1a9ada	-0.0023590834
99	0x3e284e83	0.164362
100	0xbd9c7d05	-0.07641033
101	0x3e2d65e3	0.16933398
102	0xbe0d5e90	-0.13805604
103	0xbe6539ed	-0.22385378
104	0x3deca30e	0.11554538
105	0xbd981122	-0.07425143
106	0x3d703832	0.058647342
107	0xbe0daeff	-0.13836287
108	0x3eaef5ea	0.34171993
109	0xbe8c51ea	-0.27406245
110	0x3e540efe	0.20708844
111	0xbdd3d5c4	-0.10343507
112	0x3c556953	0.0130255995
113	0x3b3617f5	0.0027785276
114	0x3c89709b	0.016777327
115	0x3de2a6b7	0.110669546
116	0x3e868a2f	0.262773
117	0xbe8a7b70	-0.270473
118	0x3e2d9fc5	0.16955478
119	0xbe0d77bd	-0.13815208
120	0x3ef7f1ba	0.4842661
121	0xbda0d651	-0.078533776
122	0xbe302fe9	-0.17205776
123	0xbd6a66b0	-0.057226837
124	0x3d0c532c	0.034259006
125	0xbe24cf12	-0.16094616
126	0xbe8cdb74	-0.2751118
127	0xbbf9884e	-0.0076151257
128	0xbe6735f3	-0.22579174
129	0x3e22a498	0.158831
130	0xbefdbcc2	-0.49558073
131	0x3e935096	0.2877242
132	0x3e39b74e	0.18136331
133	0xbd53d246	-0.051714204
134	0xbe496cf3	-0.19670467
135	0x3e90a580	0.28251266
136	0x3e40614c	0.18787116
137	0xbe4de0d8	-0.20105302
138	0xbd70c4a4	-0.05878128
139	0x3ed65afa	0.41866285
140	0xbe20e4c7	-0.15712272
141	0x3d373669	0.044729624
142	0xbe85f630	-0.2616439
143	0xbe9ee52d	-0.31034222
144	0x3e1f863e	0.15578553
145	0xbea66f5b	-0.32506832
146	0xbe8b73d9	-0.27236822
147	0xbe006b2c	-0.12540883
148	0x3e2f3d34	0.17113191
149	0x3e7322c6	0.23743734
150	0x3c13b4cb	0.009015272
151	0x3dc5bf8c	0.09655675
152	0x3e2388df	0.15970181
153	0xbe607cb2	-0.21922567
154	0x3c0a6363	0.008446547
155	0x3e443374	0.19160253
156	0x3e7fccf5	0.24980529
157	0xbda3a41c	-0.07990286
158	0x3df09ce7	0.11748677
159	0xbeb01c94	-0.34396803
160	0x3dde1c71	0.108452685
161	0x3e0833e7	0.13301049
162	0x3d69cf26	0.057082318
163	0x3dc1528d	0.094395734
164	0xbd802ba2	-0.06258322
165	0xbdd74938	-0.10512012
166	0xbdd56736	-0.104200765
167	0x3e8e6efb	0.27819046
168	0x3cec6a17	0.028859181
169	0x3df3589b	0.118821345
170	0x3e9c8925	0.30573383
171	0xbe6ab9af	-0.22922395
172	0x3bca6aff	0.0061773057
173	0xbcbf8e3d	-0.023383254
174	0xbea30bad	-0.31844845
175	0x3ebd21cd	0.3693985
176	0xbdaf8777	-0.0857076
177	0xbec21aa7	-0.3791096
178	0x3df350bd	0.11880634
179	0xbea13b84	-0.3149072
180	0x3e31f70c	0.17379397
181	0x3ca1a30d	0.019731069
182	0xbdc38123	-0.09546115
183	0xbee62831	-0.4495254
184	0xbe434f16	-0.19073138
185	0xbe906440	-0.28201485
186	0x3e8e4440	0.27786446
187	0x3e55ce67	0.20879517
188	0xbe9331c0	-0.28748894
189	0xbe5633ff	-0.20918272
190	0xbdf6feee	-0.12060343
191	0x3f088e96	0.5334257
192	0xbe0bc8fc	-0.13650888
193	0xbe0431cc	-0.12909621
194	0xbe686125	-0.22693308
195	0xbc9b43ab	-0.018953165
196	0xbe2127dc	-0.15737861
197	0x3cbf876f	0.02338001
198	0x3e51ea93	0.20499639
199	0x3d55a421	0.05215848
200	0xbcb36c99	-0.02190237
201	0xbcca98f6	-0.02473114
202	0x3e038595	0.12843926
203	0x3ea7f881	0.3280678
204	0xbe6504e0	-0.22365141
205	0xbeae0a34	-0.3399216
206	0xbc9b9ad0	-0.018994719
207	0x3d77db89	0.0605121
208	0x3decca59	0.11562032
209	0x3ed579e4	0.41694558
210	0x3dbcfd17	0.092279606
211	0x3e74a2d6	0.23890242
212	0x3eb200bb	0.34766182
213	0xbe4e3986	-0.20139131
214	0xbe9408ce	-0.28912967
215	0xbf01112b	-0.5041682
216	0xbd8526e8	-0.065015614
217	0xbd829958	-0.06376904
218	0x3e7b759d	0.24556585
219	0x3e23fe58	0.16014993
220	0xbd881f93	-0.06646647
221	0x3ca266de	0.019824442
222	0x3dfd581a	0.1237032
223	0x3e5d18c0	0.21591473
224	0xbd889834	-0.066696554
225	0x3d8d1b1c	0.06889936
226	0xbd192ed6	-0.03739818
227	0xbd55c0f4	-0.052185968
228	0x3d9a2022	0.0752566
229	0x3cb0c487	0.021578087
230	0x3df8b3e6	0.12143688
231	0x3e6057e9	0.21908535
232	0x3cbcaa73	0.023030495
233	0x3deb213f	0.114809506
234	0x3cad2dba	0.021139968
235	0xbd9fa220	-0.07794595
236	0x3d7a523c	0.06111358
237	0xbf0b9944	-0.5453074
238	0xbe175b5e	-0.14780948
239	0xbc9da806	-0.019245159
240	0x3e0ce9fa	0.1376113
241	0xbe3126a0	-0.1729989
242	0xbd19a61c	-0.03751193
243	0xbe0e9ab7	-0.13926207
244	0xbdc12c67	-0.09432297
245	0x3e33a610	0.17543817
246	0x3e12ea60	0.1434722
247	0xbd3b89b5	-0.045785625
248	0x3d1f53fd	0.038898457
249	0x3c881245	0.016610274
250	0x3e6e28e5	0.23257788
251	0xbe7edbf8	-0.24888599
252	0xbd3e41f3	-0.046449613
253	0xbd8c6670	-0.06855476
254	0x3e5e3aa1	0.21702053
255	0xbe0c8ab4	-0.13724786

encoders.0.ff.0.bias f4 [128]
0	0x3c0022ec	0.007820826
1	0x3da18f48	0.07888657
2	0x3d8b3354	0.067968994
3	0x3d3d1f4d	0.04617243
4	0xbe1e1a44	-0.15439707
5	0xbe8695bd	-0.26286116
6	0xbd60b738	-0.05486223
7	0x3da8beaa	0.08239491
8	0xbe92e30f	-0.28688857
9	0xbe0b8dc6	-0.13628301
10	0x3e2a052b	0.16603534
11	0xbdf7a2eb	-0.12091621
12	0xbe021213	-0.12702207
13	0x3dd6fe8b	0.10497769
14	0xbd0051dc	-0.031328067
15	0xbe1dc850	-0.15408444
16	0xbe9e1a7f	-0.3087959
17	0xbe35ce08	-0.17754376
18	0xbd9580d9	-0.07299966
19	0xbe6041a2	-0.21900037
20	0xbee4ec2f	-0.44711444
21	0x3da4d0fa	0.080476716
22	0xbd724bf7	-0.059154477
23	0x3ddced12	0.10787405
24	0xbb892166	-0.0041848896
25	0xbe8348e7	-0.25641558
26	0x3cadb515	0.02120451
27	0xbe8d90b1	-0.27649453
28	0x3e085f8d	0.133177
29	0x3defc1ed	0.1170691
30	0xbc9fe2cb	-0.019517323
31	0xbe82e6b3	-0.25566635
32	0x3b875594	0.0041300748
33	0x3dbc6b6e	0.09200178
34	0x3e801d18	0.25022197
35	0xbeb8f72d	-0.3612608
36	0x3e1122a2	0.14173368
37	0xbdcf700e	-0.101287946
38	0xbe70c290	-0.2351172
39	0xbe157d90	-0.1459868
40	0x3d58a6b3	0.05289335
41	0xbea2f3c2	-0.31826597
42	0x3e056b4b	0.1302921
43	0xbe87a850	-0.264956
44	0xbda5fa98	-0.081044376
45	0x3d9e7ef8	0.07739061
46	0xbd69cb70	-0.05707878
47	0xbdece884	-0.11567786
48	0xbe4e6cff	-0.20158766
49	0xbe36f03e	-0.17865083
50	0xbe170f04	-0.14751822
51	0xbe4be9d8	-0.19913423
52	0xbe224c8d	-0.15849514
53	0xbdf393f5	-0.11893455
54	0xbdc714ec	-0.097207874
55	0xbe5ccd93	-0.21562795
56	0x3e0b8a55	0.13626988
57	0xbd8c227f	-0.06842517
58	0xbd01c2fe	-0.0316801
59	0xbd319c90	-0.0433622
60	0xbe4d6a60	-0.2006011
61	0xbdbeb7b7	-0.093123846
62	0xbdb16600	-0.08662033
63	0x3be5c682	0.0070121894
64	0xbe0885a3	-0.13332228
65	0xbda60b48	-0.081076205
66	0xbdff98ab	-0.12480291
67	0xbe86606c	-0.2624544
68	0xbd7f4b2b	-0.062327545
69	0xbe920a1b	-0.28523335
70	0xbe643927	-0.22287427
71	0xbe1ab30e	-0.15107366
72	0xbd14c502	-0.036320694
73	0x3c3a70c1	0.011379422
74	0xbdd2cb2a	-0.10292657
75	0xbcc46e53	-0.023978388
76	0xbe28f0a9	-0.16498055
77	0xbd989551	-0.07450355
78	0xbd9e5525	-0.07731084
79	0xbe9654c8	-0.29361558
80	0x3d4dcba5	0.05024304
81	0xbcd3d1f8	-0.025856957
82	0xbe8291be	-0.25501817
83	0xbd84ab03	-0.064779304
84	0xbe86c397	-0.26321098
85	0xbd31c732	-0.043402858
86	0x3d36ac5e	0.044597976
87	0xbe44d5f1	-0.19222237
88	0xbd9c758c	-0.07639608
89	0xbe8db2c3	-0.27675447
90	0xbe0c9523	-0.13728766
91	0xbe61e00f	-0.22058128
92	0xbeb4185c	-0.35174835
93	0xbe16a91f	-0.14712952
94	0xbe93a9d6	-0.28840512
95	0xbd9bf168	-0.07614404
96	0xbe5e2242	-0.21692756
97	0xbee17fa3	-0.44042692
98	0xbe3ad586	-0.18245515
99	0xbeb1c7da	-0.34722787
100	0xbd45acc2	-0.048260458
101	0xbdfff2f0	-0.124975085
102	0xbe7f30a0	-0.24920893
103	0xbdcf52fa	-0.101232484
104	0xbe7a8354	-0.2446416
105	0x3dec2383	0.11530211
106	0xbe276660	-0.16347647
107	0xbe7f12e4	-0.2490955
108	0xbe6cf4d2	-0.23140267
109	0xbdfcbac2	-0.12340309
110	0x3cc281f2	0.023743603
111	0xbdd3972a	-0.10331567
112	0xbdc7a25f	-0.09747767
113	0x3d18cdcf	0.03730565
114	0xbe07489b	-0.1321129
115	0x3c9bc1d9	0.019013332
116	0xbd101ade	-0.035181873
117	0xbe8243bf	-0.2544231
118	0xbdb3d15a	-0.08780165
119	0xbdf7ff34	-0.12109223
120	0xbdc293b3	-0.09500828
121	0xbd8fbfda	-0.07019015
122	0xbc89029e	-0.01672488
123	0xbe936fa6	-0.28796118
124	0x3dd145a6	0.102183625
125	0x3e13d7da	0.1443781
126	0xbe396c1c	-0.18107647
127	0xbe339392	-0.17536762
