checkpoints/transformer.ckpt (torch, 735445 bytes, 160 tensors)

tok_embedding.weight f4 [65, 32]
0.4736285 0.8116327 0.03889924 0.24192579 -1.243786 -0.038824543 0.5914748 -1.7602324
0.29330477 0.05278798 2.0606804 2.187041 -0.694381 -0.33730283 -0.042043343 1.1928654
-0.9354014 -0.023939617 -1.496212 0.4930098 0.50375366 -0.9312359 0.09914221 0.091275476
-0.5593459 -1.0378475 1.1035554 1.0965068 -0.39089945 0.2681229 1.0192119 1.1104966
0.08693195 0.46168676 0.21038522 0.8528315 -0.30315813 -2.8964481 0.26568174 -1.9254675
1.8436468 -0.20862535 -1.481654 0.018107852 -1.1093415 0.619561 -0.6864176 0.70380527
-0.6733767 0.87811905 -0.7383069 -1.000973 -0.44093648 -1.7696059 -0.87599367 0.53462404
0.50416005 0.63425696 -0.48023432 0.38889274 0.7677486 -0.8999578 1.8420306 -0.5744304
1.0335083 -0.51271623 -1.7463144 -0.73559207 -0.3874082 -0.82833767 0.4872773 -0.11257896
0.31790587 0.60841614 0.66360736 -2.0769837 0.36275318 -0.49283946 2.2380655 0.21760294
-0.68246514 -0.3077966 -0.07561952 2.0548556 0.9193058 0.15902859 0.5068988 0.054922078
-0.053195238 1.2717106 -0.1084429 0.8350894 -0.25232324 -0.83852756 1.7635537 0.024361005
-0.81724006 -0.06965118 -0.3628522 1.6292583 1.5053701 0.49873734 -0.95502514 -1.2060978
1.1077039 -0.57216334 0.28859022 0.6299909 1.3759296 0.29776508 -0.7942211 -0.3390814
1.0695571 0.7297786 -0.40314564 -1.0330385 -0.34938207 -0.72190326 0.3634218 -0.22076207
-0.21962957 -0.4051379 0.016154116 0.2428855 -0.32808307 0.8160109 -0.32297537 0.019729707
0.97023696 -0.09571374 2.5711823 0.12342618 -0.69732195 -1.2835879 0.19982289 -0.6530236
-0.33341214 0.5652781 1.3945079 0.078405365 0.26118037 0.84671694 0.36123163 0.7669951
-0.5914582 -0.23286332 0.35660964 1.6787095 -0.22501004 -1.1720655 -0.13437122 0.2121236
0.346114 0.8060752 0.67713994 -0.8803154 -0.31387377 2.3433063 -0.42896563 -1.1454877
0.26857933 -1.3522766 1.4650451 1.5109574 -1.0001358 0.37513232 -0.6058312 0.51199096
1.743808 -0.22414997 0.35110322 -0.7442503 1.8752065 -0.62446064 -1.4794759 -0.14588742
0.04056809 1.1429929 -1.0257014 -0.8908148 0.84957373 0.35044158 0.949888 -0.1303915
0.61745983 0.74188155 -1.1283181 -0.25020486 0.7026714 -1.2903056 -0.20377363 0.33337745
1.3083081 -0.3379493 -1.486652 -0.20523968 0.08247087 0.8000484 -1.8516184 -1.9665761
-1.2251294 -0.090048775 -0.4853618 -0.41654682 -0.4477896 -0.30677864 0.16022556 -0.051632553
0.045100722 -0.48885918 0.24232982 -0.9997419 -0.4530365 -0.87885284 -0.0038946727 -0.71984893
-1.0472949 0.32548794 -0.76815 -0.17688987 -0.47699392 -0.7639344 -0.19942583 -0.73887557
0.7383021 -1.7317629 -0.98342186 -0.776172 -1.5323914 0.49642998 0.37660164 0.06460993
-0.39298907 -0.8061465 -0.72577846 -1.1565377 0.03617632 -0.8602685 2.4806354 -0.93244904
-2.0221553 0.4005452 0.10865289 -0.16127726 0.2713111 -0.46719524 -0.6801245 0.30270153
2.047279 0.42759633 1.6956259 -1.6682535 0.62014025 1.1705049 0.019711323 0.57142895
00000000: 6f7f f23e 29c7 4f3f cf54 1f3d 65bb 773e
00000010: 6134 9fbf 7c06 1fbd e46a 173f 4c4f e1bf
00000020: 0b2c 963e 3538 583d 30e2 0340 7bf8 0b40
00000030: f4c2 31bf f5b2 acbe a435 2cbd d0af 983f
00000040: 7776 6fbf 041d c4bc e083 bfbf c86b fc3e
00000050: 00f6 003f 7a65 6ebf 120b cb3d a3ee ba3d
00000060: 4b31 0fbf 30d8 84bf 4e41 8d3f 565a 8c3f
00000070: f923 c8be 6847 893e 8975 823f c124 8e3f
00000080: 6109 b23d 3562 ec3e 396f 573e 2a53 5a3f
00000090: 8b37 9bbe 685f 39c0 7007 883e b875 f6bf
000000a0: 9efc eb3f e2a1 55be d7a6 bdbf eb56 943c
000000b0: e7fe 8dbf 8d9b 1e3f 10b9 2fbf 952c 343f
000000c0: 6a62 2cbf 69cc 603f ae01 3dbf e21f 80bf
000000d0: 6dc2 e1be 7282 e2bf 1f41 60bf 1fdd 083f
000000e0: a210 013f aa5e 223f 46e1 f5be f31c c73e
000000f0: 2c8b 443f a263 66bf a9c7 eb3f df0d 13bf
00000100: 004a 843f 5f41 03bf 3b87 dfbf c34f 3cbf
00000110: 5e5a c6be f00d 54bf 697c f93e cc8f e6bd
00000120: 8fc4 a23e 29c1 1b3f 2ce2 293f 4ded 04c0
00000130: c9ba b93e 7455 fcbe 773c 0f40 4ed3 5e3e
00000140: 09b6 2ebf 8497 9dbe 68de 9abd c182 0340
00000150: a057 6b3f 64d8 223e 1fc4 013f f9f5 603d
00000160: 40e3 59bd 6ac7 a23f 5017 debd 6bc8 553f
00000170: 8330 81be bea9 56bf 21bc e13f bb90 c73c
00000180: a536 51bf 47a5 8ebd c3c7 b9be 898b d03f
00000190: f8af c03f 805a ff3e 877c 74bf 6a61 9abf
000001a0: 3ec9 8d3f 4c79 12bf 19c2 933e 1547 213f
000001b0: 761e b03f aa74 983e 1352 4bbf 149c adbe
000001c0: 3fe7 883f c5d2 3a3f 1b69 cebe 9b3a 84bf
000001d0: 35e2 b2be a7ce 38bf 6c12 ba3e 740f 62be
000001e0: 93e6 60be 3c6e cfbe a355 843c fab6 783e
000001f0: 81fa a7be 17e6 503f 075d a5be 32a0 a13c
00000200: 7361 783f 9105 c4bd 408e 2440 ddc6 fc3d
00000210: b183 32bf 9c4c a4bf 5f9e 4c3e 8e2c 27bf
00000220: ffb4 aabe 11b6 103f 3c7f b23f fe92 a03d
00000230: 6fb9 853e 71c2 583f 5af3 b83e ca59 443f
00000240: ce69 17bf b973 6ebe 8a95 b63e f4df d63f
00000250: 0869 66be 3e06 96bf 9c98 09be ee36 593e
00000260: db35 b13e f25a 4e3f 0b59 2d3f 5a5c 61bf
00000270: 10b4 a0be bbf8 1540 62a1 dbbe 579f 92bf
00000280: 3b83 893e 6617 adbf 9986 bb3f 0d67 c13f
00000290: 7304 80bf 5811 c03e c117 1bbf d711 033f
000002a0: 1a35 df3f 9287 65be cdc3 b33e 3087 3ebf
000002b0: c406 f03f a7dc 1fbf 775f bdbf 8363 15be
000002c0: ba2a 263d 974d 923f 2f4a 83bf 700c 64bf
000002d0: aa7d 593f 146d b33e dc2b 733f 5985 05be
000002e0: d911 1e3f f3eb 3d3f ba6c 90bf da1a 80be
000002f0: 46e2 333f bc28 a5bf 09aa 50be 73b0 aa3e
00000300: a476 a73f b107 adbe 9d4a bebf 5a2a 52be
00000310: 7de6 a83d f9cf 4c3f d501 edbf c4b8 fbbf
00000320: 0ad1 9cbf 7e6b b8bd 5881 f8be a045 d5be
00000330: ae44 e5be 1712 9dbe 2b12 243e a87c 53bd
00000340: 89bb 383d c04b fabe 4f25 783e 16ef 7fbf
00000350: 66f4 e7be 80fc 60bf c43d 7fbb 0548 38bf
00000360: c20d 86bf 5ba6 a63e 7aa5 44bf 9e22 35be
00000370: 8c38 f4be 3491 43bf 4936 4cbe f326 3dbf
00000380: 5e01 3d3f 68aa ddbf 89c1 7bbf 35b3 46bf
00000390: 6725 c4bf 122c fe3e eed1 c03e 3652 843d
000003a0: dd35 c9be 9e5f 4ebf 9ecc 39bf 6d09 94bf
000003b0: 9f2d 143d 8e3a 5cbf bbc2 1e40 fbb4 6ebf
000003c0: fe6a 01c0 4314 cd3e 6885 de3d de25 25be
000003d0: 4ae9 8a3e 3734 efbe a41c 2ebf b2fb 9a3e
000003e0: 9e06 0340 e8ed da3e 450a d93f 5589 d5bf
000003f0: 83c1 1e3f 1bd3 953f a479 a13c 2b49 123f

pos_embedding.weight f4 [16, 32]
-0.8010811 -0.9526267 0.6719902 -0.1778719 -2.0854847 -1.6543831 1.0444548 -1.6712863
-0.7582178 0.066440955 -1.2960885 0.59295607 1.0807222 -0.43562663 -0.2707068 -0.1445408
-1.1445202 -0.36502567 0.60284007 1.945064 -0.36320987 1.6691796 0.12735978 -1.9663033
0.99518657 1.4549989 -0.92635304 -1.5282158 -2.578772 -0.6413682 -0.22287534 0.7510308
-0.77291477 0.46915272 -0.6897604 -0.7789831 0.90897846 -1.0828615 0.7954918 -1.8949535
-0.17863314 0.6691865 0.8224451 0.07993413 1.1388586 -0.060080446 0.95600003 -0.6447984
0.33758506 0.515044 -0.16800532 0.46731952 0.00849345 0.49287865 0.00880099 -1.0314857
1.3472127 -0.36907053 0.13136607 1.0065064 -0.10787566 0.7965055 -1.6320114 -0.9992827
0.99709725 0.565598 -0.097001925 -1.0533651 0.7318252 0.32106125 0.38601518 0.11791535
-0.5269756 -0.24302076 0.4385604 -0.032352895 -0.34796086 1.1170282 0.8248754 -0.27850944
0.7569618 -1.9661397 0.3456205 0.7742239 0.079665266 0.21332091 0.9702168 -0.1752674
-1.2107103 -1.5577499 1.7575774 0.62900746 1.7113982 -0.4803633 1.3580546 -0.6369836
0.76180166 0.44326535 -0.12034875 0.38289854 -0.3226461 1.2028886 -1.3021517 -0.4599447
1.99947 -1.0053936 -0.37133926 0.111548 -1.7537475 1.4289409 0.42881128 0.19742094
0.80528605 1.7013408 0.44114372 1.1539357 0.93065244 -1.0674506 -0.086004294 1.2515198
0.28828856 -0.5369918 -1.752808 -0.12965938 0.53468883 0.098824084 1.8200929 0.32571733
-0.24657063 -1.7172148 -0.9020556 1.7263587 -0.6227407 0.09452918 -0.20293315 0.2649963
2.652573 1.1317897 0.2212098 0.051594235 -0.974739 0.9051197 0.82852894 -0.8646965
-0.37510288 0.17621012 -0.55145186 0.5654436 0.18922429 0.33763087 1.07883 -0.50871885
-1.1005816 -0.7137215 0.8385069 0.512515 1.6969142 -0.50706524 0.63814527 -1.5064657
0.029694362 -0.29131073 -2.0390136 0.5701081 -0.48227867 -1.0053743 -1.1501482 1.6128589
-0.25943688 0.063392274 -1.7367959 0.5782781 -1.3888348 -1.0081342 -0.9737448 -1.2609439
-0.88705873 0.05565132 0.8622021 0.82383525 -0.083259664 -1.2511629 -0.18895876 -1.0739288
-0.61023873 0.42865485 0.83106846 0.028805405 -1.4397904 0.5965341 2.48144 -0.043804996
0.58621895 -0.6849703 -0.5221455 0.5482289 -0.96649855 -0.59771544 0.450112 -1.2209026
0.9290531 -1.3277649 -1.2129215 -0.66239554 -0.42737007 -0.45476 -1.4581252 2.1994927
-1.1305937 -0.23170528 -2.130915 -2.0936418 1.5708392 -0.8994911 0.9194403 0.7705947
0.88567364 0.70133036 0.19222338 2.484998 -0.68798304 -1.0038711 1.4676844 0.66935116
0.29475117 1.799632 0.9322271 -0.7827268 -1.0862496 -1.5865862 0.70838606 -1.6202383
0.8202808 2.3736327 0.79094696 1.1451676 -0.05524454 0.101358615 -1.5795318 0.60404325
-0.2799272 -1.4278684 0.2581003 -0.7436432 0.14891183 -0.22339666 0.19272286 -2.2751245
-1.0316656 1.3402079 0.8219905 -2.6797333 2.9471061 -1.464374 0.041730236 0.26922485
00000000: a713 4dbf 58df 73bf 8d07 2c3f 0d24 36be
00000010: 9578 05c0 d3c2 d3bf b2b0 853f b6ec d5bf
00000020: 901a 42bf 3212 883d 3ae6 a5bf f8cb 173f
00000030: 1b55 8a3f 740a dfbe 159a 8abe 8102 14be
00000040: a37f 92bf a5e4 babe ba53 1a3f dbf7 f83f
00000050: a5f6 b9be ada7 d53f 9a6a 023e d4af fbbf
00000060: 8cc4 7e3f 673d ba3f 7925 6dbf 939c c3bf
00000070: 9a0a 25c0 b530 24bf 6f39 64be 8e43 403f
00000080: bedd 45bf c934 f03e 2394 30bf 706b 47bf
00000090: d0b2 683f 359b 8abf 5aa5 4b3f d68d f2bf
000000a0: 9beb 36be ce4f 2b3f c38b 523f 81b4 a33d
000000b0: 1ec6 913f ea16 76bd 6bbc 743f 8211 25bf
000000c0: f3d7 ac3e ecd9 033f 9609 2cbe 8144 ef3e
000000d0: 1c28 0b3c 975a fc3e 0732 103c b907 84bf
000000e0: 7771 ac3f d0f6 bcbe d484 063e 34d5 803f
000000f0: eaed dcbd c9e7 4b3f c0e5 d0bf fed0 7fbf
00000100: c441 7f3f 08cb 103f f2a8 c6bd abd4 86bf
00000110: e558 3b3f 2462 a43e c8a3 c53e 9a7d f13d
00000120: dfe7 06bf 6fda 78be fd8a e03e 7884 04bd
00000130: ed27 b2be c8fa 8e3f 092b 533f ca98 8ebe
00000140: 40c8 413f 77aa fbbf 2cf5 b03e 8a33 463f
00000150: 8b27 a33d cc70 5a3e 2160 783f 4c79 33be
00000160: 8ef8 9abf 5964 c7bf 4cf8 e03f a206 213f
00000170: 190f db3f 2ef2 f5be bcd4 ad3f 5b11 23bf
00000180: 6f05 433f adf3 e23e 6879 f6bd 470b c43e
00000190: df31 a5be 41f8 993f e8ac a6bf df7d ebbe
000001a0: a2ee ff3f bdb0 80bf 2e20 bebe 4773 e43d
000001b0: cc7a e0bf 89e7 b63f 278d db3e b728 4a3e
000001c0: 3a27 4e3f 89c5 d93f 97dd e13e 2ab4 933f
000001d0: 3d3f 6e3f 39a2 88bf 0523 b0bd cd31 a03f
000001e0: 8f9a 933e 4b78 09bf 035c e0bf 6ec5 04be
000001f0: 5ee1 083f 4864 ca3d cef8 e83f 6cc4 a63e
00000200: 037d 7cbe b2cd dbbf 1eed 66bf 52f9 dc3f
00000210: ef6b 1fbf 8498 c13d b5cd 4fbe 98ad 873e
00000220: c2c3 2940 7cde 903f d284 623e 7a54 533d
00000230: 7f88 79bf edb5 673f 791a 543f c05c 5dbf
00000240: 7c0d c0be 6d70 343e f32b 0dbf e9c0 103f
00000250: 03c4 413e f4dd ac3e 1a17 8a3f 663b 02bf
00000260: dcdf 8cbf 74b6 36bf 63a8 563f 2f34 033f
00000270: 7c34 d93f 07cf 01bf 7d5d 233f ded3 c0bf
00000280: 9741 f33c ae26 95be 337f 02c0 9bf2 113f
00000290: 3bed f6be 1bb0 80bf 0e38 93bf 2972 ce3f
000002a0: e9d4 84be cfd3 813d 544f debf 090a 143f
000002b0: 57c5 b1bf 8b0a 81bf 5747 79bf 9c66 a1bf
000002c0: 4816 63bf a3f2 633d 47b9 5c3f dee6 523f
000002d0: 0b84 aabd 1b26 a0bf 687e 41be 8076 89bf
000002e0: 9b38 1cbf a678 db3e e7c0 543f 50f9 eb3c
000002f0: 0d4b b8bf 75b6 183f eacf 1e40 de6c 33bd
00000300: 7212 163f 375a 2fbf 54ab 05bf bb58 0c3f
00000310: 736c 77bf e103 19bf 1475 e63e 8946 9cbf
00000320: 6dd6 6d3f 33f4 a9bf 0341 9bbf c192 29bf
00000330: 40d0 dabe 4dd6 e8be d9a3 babf 7dc4 0c40
00000340: 4bb7 90bf 2644 6dbe e960 08c0 3afe 05c0
00000350: 4211 c93f 0c45 66bf 7160 6b3f b245 453f
00000360: 82bb 623f 638a 333f 35d6 443e 350a 1f40
00000370: a81f 30bf d97e 80bf 15dd bb3f 995a 2b3f
00000380: a0e9 963e 575a e63f 6fa6 6e3f c960 48bf
00000390: 3a0a 8bbf 4215 cbbf ca58 353f f863 cfbf
000003a0: ecfd 513f 99e9 1740 807b 4a3f da94 923f
000003b0: 1948 62bd 1b95 cf3d 192e cabf 94a2 1a3f
000003c0: 9e52 8fbe 64c4 b6bf b925 843e 675f 3ebf
000003d0: 587c 183e 18c2 64be 2459 453e a49b 11c0
000003e0: 9e0d 84bf ef8b ab3f f86d 523f c080 2bc0
000003f0: 639d 3c40 9b70 bbbf 53ed 2a3d d7d7 893e

encoders.0.attention.mask f4 [16, 16]
1.0 0.0 0.0 0.0 0.0 0.0 0.0 0.0
0.0 0.0 0.0 0.0 0.0 0.0 0.0 0.0
1.0 1.0 0.0 0.0 0.0 0.0 0.0 0.0
0.0 0.0 0.0 0.0 0.0 0.0 0.0 0.0
1.0 1.0 1.0 0.0 0.0 0.0 0.0 0.0
0.0 0.0 0.0 0.0 0.0 0.0 0.0 0.0
1.0 1.0 1.0 1.0 0.0 0.0 0.0 0.0
0.0 0.0 0.0 0.0 0.0 0.0 0.0 0.0
1.0 1.0 1.0 1.0 1.0 0.0 0.0 0.0
0.0 0.0 0.0 0.0 0.0 0.0 0.0 0.0
1.0 1.0 1.0 1.0 1.0 1.0 0.0 0.0
0.0 0.0 0.0 0.0 0.0 0.0 0.0 0.0
1.0 1.0 1.0 1.0 1.0 1.0 1.0 0.0
0.0 0.0 0.0 0.0 0.0 0.0 0.0 0.0
1.0 1.0 1.0 1.0 1.0 1.0 1.0 1.0
0.0 0.0 0.0 0.0 0.0 0.0 0.0 0.0
1.0 1.0 1.0 1.0 1.0 1.0 1.0 1.0
1.0 0.0 0.0 0.0 0.0 0.0 0.0 0.0
1.0 1.0 1.0 1.0 1.0 1.0 1.0 1.0
1.0 1.0 0.0 0.0 0.0 0.0 0.0 0.0
1.0 1.0 1.0 1.0 1.0 1.0 1.0 1.0
1.0 1.0 1.0 0.0 0.0 0.0 0.0 0.0
1.0 1.0 1.0 1.0 1.0 1.0 1.0 1.0
1.0 1.0 1.0 1.0 0.0 0.0 0.0 0.0
1.0 1.0 1.0 1.0 1.0 1.0 1.0 1.0
1.0 1.0 1.0 1.0 1.0 0.0 0.0 0.0
1.0 1.0 1.0 1.0 1.0 1.0 1.0 1.0
1.0 1.0 1.0 1.0 1.0 1.0 0.0 0.0
1.0 1.0 1.0 1.0 1.0 1.0 1.0 1.0
1.0 1.0 1.0 1.0 1.0 1.0 1.0 0.0
1.0 1.0 1.0 1.0 1.0 1.0 1.0 1.0
1.0 1.0 1.0 1.0 1.0 1.0 1.0 1.0
00000000: 0000 803f 0000 0000 0000 0000 0000 0000
00000010: 0000 0000 0000 0000 0000 0000 0000 0000
00000020: 0000 0000 0000 0000 0000 0000 0000 0000
00000030: 0000 0000 0000 0000 0000 0000 0000 0000
00000040: 0000 803f 0000 803f 0000 0000 0000 0000
00000050: 0000 0000 0000 0000 0000 0000 0000 0000
00000060: 0000 0000 0000 0000 0000 0000 0000 0000
00000070: 0000 0000 0000 0000 0000 0000 0000 0000
00000080: 0000 803f 0000 803f 0000 803f 0000 0000
00000090: 0000 0000 0000 0000 0000 0000 0000 0000
000000a0: 0000 0000 0000 0000 0000 0000 0000 0000
000000b0: 0000 0000 0000 0000 0000 0000 0000 0000
000000c0: 0000 803f 0000 803f 0000 803f 0000 803f
000000d0: 0000 0000 0000 0000 0000 0000 0000 0000
000000e0: 0000 0000 0000 0000 0000 0000 0000 0000
000000f0: 0000 0000 0000 0000 0000 0000 0000 0000
00000100: 0000 803f 0000 803f 0000 803f 0000 803f
00000110: 0000 803f 0000 0000 0000 0000 0000 0000
00000120: 0000 0000 0000 0000 0000 0000 0000 0000
00000130: 0000 0000 0000 0000 0000 0000 0000 0000
00000140: 0000 803f 0000 803f 0000 803f 0000 803f
00000150: 0000 803f 0000 803f 0000 0000 0000 0000
00000160: 0000 0000 0000 0000 0000 0000 0000 0000
00000170: 0000 0000 0000 0000 0000 0000 0000 0000
00000180: 0000 803f 0000 803f 0000 803f 0000 803f
00000190: 0000 803f 0000 803f 0000 803f 0000 0000
000001a0: 0000 0000 0000 0000 0000 0000 0000 0000
000001b0: 0000 0000 0000 0000 0000 0000 0000 0000
000001c0: 0000 803f 0000 803f 0000 803f 0000 803f
000001d0: 0000 803f 0000 803f 0000 803f 0000 803f
000001e0: 0000 0000 0000 0000 0000 0000 0000 0000
000001f0: 0000 0000 0000 0000 0000 0000 0000 0000
00000200: 0000 803f 0000 803f 0000 803f 0000 803f
00000210: 0000 803f 0000 803f 0000 803f 0000 803f
00000220: 0000 803f 0000 0000 0000 0000 0000 0000
00000230: 0000 0000 0000 0000 0000 0000 0000 0000
00000240: 0000 803f 0000 803f 0000 803f 0000 803f
00000250: 0000 803f 0000 803f 0000 803f 0000 803f
00000260: 0000 803f 0000 803f 0000 0000 0000 0000
00000270: 0000 0000 0000 0000 0000 0000 0000 0000
00000280: 0000 803f 0000 803f 0000 803f 0000 803f
00000290: 0000 803f 0000 803f 0000 803f 0000 803f
000002a0: 0000 803f 0000 803f 0000 803f 0000 0000
000002b0: 0000 0000 0000 0000 0000 0000 0000 0000
000002c0: 0000 803f 0000 803f 0000 803f 0000 803f
000002d0: 0000 803f 0000 803f 0000 803f 0000 803f
000002e0: 0000 803f 0000 803f 0000 803f 0000 803f
000002f0: 0000 0000 0000 0000 0000 0000 0000 0000
00000300: 0000 803f 0000 803f 0000 803f 0000 803f
00000310: 0000 803f 0000 803f 0000 803f 0000 803f
00000320: 0000 803f 0000 803f 0000 803f 0000 803f
00000330: 0000 803f 0000 0000 0000 0000 0000 0000
00000340: 0000 803f 0000 803f 0000 803f 0000 803f
00000350: 0000 803f 0000 803f 0000 803f 0000 803f
00000360: 0000 803f 0000 803f 0000 803f 0000 803f
00000370: 0000 803f 0000 803f 0000 0000 0000 0000
00000380: 0000 803f 0000 803f 0000 803f 0000 803f
00000390: 0000 803f 0000 803f 0000 803f 0000 803f
000003a0: 0000 803f 0000 803f 0000 803f 0000 803f
000003b0: 0000 803f 0000 803f 0000 803f 0000 0000
000003c0: 0000 803f 0000 803f 0000 803f 0000 803f
000003d0: 0000 803f 0000 803f 0000 803f 0000 803f
000003e0: 0000 803f 0000 803f 0000 803f 0000 803f
000003f0: 0000 803f 0000 803f 0000 803f 0000 803f

encoders.0.attention.qkv.weight f4 [96, 32]
0.0036197808 0.017343784 -0.14456438 0.12733525 -0.116709694 0.08987774 0.15878032 0.06906691
-0.16434821 -0.014157618 0.17994398 0.024621362 -0.17660709 0.011898956 -0.026417976 0.104532644
0.17615442 0.1224089 0.086304456 0.037145816 -0.1514706 -0.031643122 0.06423431 -0.04968915
0.051162947 -0.07351864 -0.08661914 0.13674352 0.18337433 -0.11859127 0.060900874 -0.1419994
-0.10146385 0.050101887 -0.025084186 0.17329048 0.084088854 0.05832768 -0.00236962 -0.0067067132
0.10620705 -0.040526323 0.12329448 -0.12946802 -0.06851576 -0.1221808 -0.08108768 0.08328993
-0.13591635 -0.06550892 0.0713372 0.009855866 -0.14206044 0.15392049 0.122392476 0.15593359
0.18459679 -0.16150363 0.04050739 0.0053131036 -0.007056215 0.15090822 0.031124536 -0.051510464
-0.18075006 -0.009428213 0.15633409 -0.016804932 -0.090667486 -0.02682458 -0.06540858 -0.01806203
-0.07093047 -0.038976878 -0.058054682 0.038578995 -0.11675708 0.028592724 -0.08687213 0.15608779
0.12265388 -0.12494287 -0.09456229 0.109956466 -0.0034823958 -0.02945551 -0.07157027 0.03786044
0.0008546187 -0.13982102 0.08021814 -0.10562635 -0.14372131 -0.021000085 -0.036690965 -0.06845935
0.06735275 -0.12531212 -0.0014129372 -0.14498532 -0.120537765 0.1290097 0.04471522 0.0077930973
0.120859936 -0.004704527 -0.118998885 -0.09499236 -0.029643092 -0.1162445 0.07387409 -0.117510915
0.14241889 -0.14186105 0.15140934 -0.10984665 -0.12574328 -0.048679363 -0.13932477 -0.16281149
0.043221653 0.15106843 -0.051015567 0.020971715 -0.0718696 -0.112438604 0.10373469 0.023332955
0.12311862 -0.12106108 0.14419846 0.15328744 0.16227071 -0.1813368 0.13256699 0.10478108
-0.13626559 -0.06055556 -0.08709473 -0.17432512 -0.066656254 -0.13725622 0.15709919 -0.026884347
0.045791715 -0.08684702 -0.09408458 0.07727549 0.17581086 0.021605581 0.03518568 -0.10054621
-0.051047318 -0.1266599 -0.024628077 0.03636518 -0.009130001 -0.15345702 -0.0073866895 -0.08264856
-0.12385035 -0.106299594 -0.08913431 -0.0612738 0.11905204 0.11462049 -0.037981816 0.111114904
0.09943316 0.13538007 -0.17059995 0.037419666 0.15108675 -0.10968702 -0.06545273 0.04810468
0.13133255 0.036459092 0.1618075 -0.14021994 -0.1436315 -0.03195191 0.11339982 0.060600948
0.13747378 0.12760152 -0.09638787 0.08453412 0.15205798 0.019109359 0.120275885 0.12956408
0.09709068 0.109513365 0.049534317 0.086139046 0.18677498 0.062247675 0.018133398 -0.04558804
-0.09640676 -0.079406366 -0.13224834 0.07277652 -0.028013702 0.010332803 0.099525675 -0.06569779
-0.032606136 -0.045328304 -0.0977736 0.10936656 -0.040411465 0.094062455 -0.07404984 0.040742327
0.14623623 0.023988852 -0.16298002 0.16867328 0.021927077 0.040883586 -0.1586938 -0.08462435
-0.06740982 0.007801066 0.15442349 0.110305175 -0.13722542 0.11697543 0.14321007 0.035865188
-0.04878741 -0.08251434 -0.14166854 0.12178774 -0.15359804 0.13540839 0.0804597 0.18978702
0.10730871 -0.039884787 0.15731747 -0.12066039 0.0969584 0.07572836 0.16318047 -0.05011111
0.1330227 -0.024682676 0.024083441 0.027383571 -0.013787318 -0.034736667 0.1854302 0.124002464
00000000: d839 6d3b 8d14 8e3c af08 14be 2c64 023e
00000010: 7e05 efbd d211 b83d 4f97 223e f472 8d3d
00000020: e64a 28be 5bf5 67bc 3c43 383e bdb2 c93c
00000030: 7dd8 34be d7f3 423c 836a d8bc 3615 d63d
00000040: d361 343e 84b1 fa3d 64c0 b03d 3626 183d
00000050: 1c1b 1bbe 389c 01bd 478d 833d da86 4bbd
00000060: 3d90 513d f190 96bd 6065 b1bd 7e06 0c3e
00000070: 7bc6 3b3e fbdf f2bd 3273 793d 4a68 11be
00000080: 47cc cfbd a337 4d3d 5a7d cdbc 0f73 313e
00000090: c736 ac3d 01e9 6e3d a04b 1bbb fdc3 dbbb
000000a0: 1583 d93d eefe 25bd d181 fc3d 4493 04be
000000b0: fe51 8cbd ed39 fabd 4c11 a6bd e993 aa3d
000000c0: a82d 0bbe 8a29 86bd 3d19 923d 807a 213c
000000d0: 4b78 11be 559d 1d3e e8a8 fa3d 0ead 1f3e
000000e0: f106 3d3e 3561 25be 14eb 253d 8b19 ae3b
000000f0: d237 e7bb af87 1a3e e2f8 fe3c a3fc 52bd
00000100: 8b16 39be cb78 1abc 0b16 203e 7faa 89bc
00000110: e0af b9bd 39bf dbbc eff4 85bd d3f6 93bc
00000120: ff43 91bd 38a6 1fbd bfca 6dbd 0205 1e3d
00000130: 561e efbd 4a3b ea3c 04ea b1bd 7ad5 1f3e
00000140: f531 fb3d 0ce2 ffbd e0a9 c1bd db30 e13d
00000150: e838 64bb af4c f1bc 6f93 92bd 8c13 1b3d
00000160: 7d08 603a 3e2d 0fbe 6849 a43d a152 d8bd
00000170: ae2b 13be 5f08 acbc 4449 16bd 6a34 8cbd
00000180: 3df0 893d d251 00be 4e32 b9ba 0877 14be
00000190: 81dc f6bd 1e1b 043e 4e27 373d 3d5d ff3b
000001a0: 6a85 f73d 6f28 9abb b0b5 f3bd 5b8b c2bd
000001b0: 12d6 f2bc 9911 eebd 4d4b 973d 90a9 f0bd
000001c0: 42d6 113e 0644 11be 0d0b 1b3e 48f7 e0bd
000001d0: d9c2 00be 0364 47bd 27ab 0ebe 0eb8 26be
000001e0: 3009 313d afb1 1a3e b3f5 50bd e0cc ab3c
000001f0: 5e30 93bd 3646 e6bd da72 d43d c124 bf3c
00000200: 9d25 fc3d dfee f7bd c3a8 133e 62f7 1c3e
00000210: 4b2a 263e 5bb0 39be a4bf 073e 7697 d63d
00000220: 3589 0bbe 1b09 78bd b95e b2bd 4982 32be
00000230: 1383 88bd e58c 0cbe 9cde 203e 903c dcbc
00000240: 1890 3b3d dadc b1bd 6baf c0bd 9d42 9e3d
00000250: c307 343e 30fe b03c dc1e 103d 2ceb cdbd
00000260: fe16 51bd 22b3 01be d2c0 c9bc a8f3 143d
00000270: 0096 15bc d623 1dbe 0b0c f2bb a643 a9bd
00000280: 41a5 fdbd 9ab3 d9bd 0d8c b6bd 3cfa 7abd
00000290: 8ed1 f33d 26be ea3d d292 1bbd 3690 e33d
000002a0: 9da3 cb3d 13a1 0a3e c1b1 2ebe 5d45 193d
000002b0: 7cb6 1a3e 97a3 e0bd 150c 86bd 6a09 453d
000002c0: 0a7c 063e 2156 153d deb0 253e d195 0fbe
000002d0: 2314 13be 02e0 02bd 2a3e e83d b338 783d
000002e0: edc5 0c3e f9a9 023e 0167 c5bd 3a20 ad3d
000002f0: 16b5 1b3e 3b8b 9c3c 3453 f63d 72ac 043e
00000300: 7ad7 c63d 8b48 e03d 7fe4 4a3d ab69 b03d
00000310: f141 3f3e 6bf7 7e3d 7e8c 943c 86ba 3abd
00000320: e870 c5bd ce9f a2bd 1c6c 07be db0b 953d
00000330: fe7c e5bc eb4a 293c 1ed4 cb3d 908c 86bd
00000340: 038e 05bd 2caa 39bd 863d c8bd 93fb df3d
00000350: 7e86 25bd d1a3 c03d 71a7 97bd 6de1 263d
00000360: f3be 153e 4584 c43c 3ce4 26be b0b8 2c3e
00000370: 6aa0 b33c 8c75 273d a180 22be 884f adbd
00000380: 290e 8abd 16a0 ff3b 3121 1e3e aee7 e13d
00000390: d284 0cbe d090 ef3d a9a5 123e 60e7 123d
000003a0: 4fd5 47bd 47fd a8bd 8f11 11be da6b f93d
000003b0: ce48 1dbe 7fa8 0a3e 0ec8 a43d 8757 423e
000003c0: abc4 db3d 3b5e 23bd d517 213e cb1c f7bd
000003d0: 2092 c63d 7817 9b3d c818 273e 4f41 4dbd
000003e0: 1a37 083e 5333 cabc a34a c53c 8353 e03c
000003f0: 34e4 61bc 0948 0ebd 6ae1 3d3e 01f5 fd3d

encoders.0.attention.qkv.bias f4 [96]
0.018347014 0.17393333 -0.037262015 0.12490072 0.030781869 0.15863796 0.053609014 0.18719065
0.0080946805 0.039180975 0.016121008 -0.14818022 0.15072088 0.14615567 -0.070080176 0.036864415
0.04209056 -0.09551257 -0.14554486 0.091802515 -0.15436903 0.12339387 -0.05086341 -0.13371423
0.058086 0.04799288 -0.13832825 0.10542855 0.110078454 -0.148239 0.14492431 0.07758057
0.0039775437 -0.043056358 0.09797581 0.1307755 0.032011088 -0.022877278 0.105174676 0.052457824
0.12931812 0.10415553 -0.0039371373 -0.056912582 -0.14143106 -0.15044995 -0.107847735 0.16491567
0.1755392 0.08629255 -0.13665132 -0.07496869 -0.112352714 0.09675386 -0.041276507 -0.0078067244
0.032138422 0.15905249 0.0027619407 -0.15216096 -0.044973128 0.04055761 0.11653928 0.1530186
-0.1375255 -0.116463594 0.08256226 0.1117026 0.17575483 -0.12577596 -0.14807014 -0.108294785
-0.057047654 -0.14916229 0.07905656 0.0006383448 0.042690616 -0.12486513 0.06814193 -0.047113895
0.06530889 0.0060148304 -0.11781493 0.07537941 -0.06891372 0.004250842 0.10969145 0.025508082
-0.1496269 -0.09460828 -0.0033735645 -0.014581412 0.07657139 -0.14367136 0.061026942 0.17301337
00000000: 7a4c 963c 941b 323e 0ea0 18bd f3cb ff3d
00000010: 422a fc3c fd71 223e 2095 5b3d e8ae 3f3e
00000020: 8d9f 043c 3b7c 203d 3410 843c 8ebc 17be
00000030: 9356 1a3e d5a9 153e 3286 8fbd 24ff 163d
00000040: 2767 2c3d 189c c3bd b609 15be f502 bc3d
00000050: ea12 1ebe edb5 fc3d 2756 50bd 62ec 08be
00000060: 96eb 6d3d 2f94 443d eca5 0dbe ecea d73d
00000070: d070 e13d f7cb 17be 0a67 143e 90e2 9e3d
00000080: 0e56 823b dd5b 30bd 8ba7 c83d 03ea 053e
00000090: 0f1e 033d 2169 bbbc d265 d73d 04de 563d
000000a0: f86b 043e 7f4f d53d 1a03 81bb 2b1d 69bd
000000b0: 4ed3 10be 8d0f 1abe 46df dcbd a7df 283e
000000c0: 8cc0 333e 26ba b03d 53ee 0bbe 2f89 99bd
000000d0: 2e19 e6bd e326 c63d 8e11 29bd 8dcf ffbb
000000e0: 94a3 033d a8de 223e ad01 353b 15d0 1bbe
000000f0: be35 38bd bd1f 263d 25ac ee3d e8b0 1c3e
00000100: 7cd3 0cbe 7784 eebd 6716 a93d 55c4 e43d
00000110: 13f9 333e 6acb 00be b39f 17be a8c9 ddbd
00000120: cdaa 69bd 00be 18be 68e8 a13d 9856 273a
00000130: 5bdc 2e3d 4ab9 ffbd ff8d 8b3d 80fa 40bd
00000140: abc0 853d 0e18 c53b f448 f1bd 8560 9a3d
00000150: a322 8dbd a64a 8b3b e9a5 e03d 53f6 d03c
00000160: cb37 19be fcc1 c1bd 0517 5dbb e0e6 6ebc
00000170: 76d1 9c3d 961e 13be 63f7 793d 6b2a 313e

encoders.0.attention.fc.weight f4 [32, 32]
0.16737053 0.13834168 0.142965 0.0714089 -0.071947895 -0.019801006 0.028048063 -0.18844984
-0.14635147 -0.09659837 -0.13947359 0.025282662 -0.04826998 -0.14851937 -0.02215117 0.084201686
-0.025527542 0.14193162 0.08528504 0.029669564 -0.09515916 0.15376747 0.107675105 0.033803407
0.043378573 0.03197854 0.054847196 -0.1330203 0.04299203 -0.14024356 0.14835703 0.019436957
-0.015898108 0.12859507 0.030887786 -0.15157486 -0.17645255 -0.091336794 -0.06809405 -0.13919608
0.008962391 -0.1281555 0.10117068 -0.09465999 -0.14692138 -0.071152315 -0.13274771 0.11439643
0.07552864 -0.04788635 0.07435948 -0.022780173 0.13167745 -0.017919093 0.14990014 -0.10686937
-0.15890515 0.055406585 -0.09162899 0.0001735981 -0.016634006 0.03683231 -0.040679444 0.122145176
0.030513365 0.14448683 0.11372338 0.02052004 -0.08199937 0.04645919 0.104423225 0.15238494
-0.15538956 -0.11607093 -0.0074230935 -0.15123102 0.09107131 -0.010526622 0.10790075 0.14257969
0.09725467 -0.0587309 0.044168416 0.05628261 -0.076416716 -0.07048309 -0.08140995 -0.123959176
-0.04281534 0.058546998 0.10080876 0.118320525 -0.10356744 0.16731447 0.048169278 -0.003846061
-0.08264951 0.011328727 -0.1070699 -0.18524489 -0.043373816 0.18601301 0.09000164 0.014452511
0.005508592 -0.062768444 0.042209838 -0.052736197 -0.14770289 0.15586342 -0.06548658 -0.16227229
0.071172304 0.035088163 0.044985693 -0.18702409 -0.01902545 0.14333712 -0.11213882 -0.13366121
-0.10495865 -0.13350084 -0.032465614 0.09555218 0.10415113 -0.03796252 -0.042899378 0.077880755
0.1161205 -0.11616696 -0.14638494 -0.092229195 -0.16154897 0.110132284 0.13148132 0.08550975
0.072733335 0.13128999 -0.053269938 -0.005860643 -0.16297787 0.047102325 -0.006407894 0.08888621
-0.112817235 0.16703095 -0.030905895 -0.15640481 -0.12992017 0.07095421 -0.08592046 0.04760485
-0.08318701 -0.046407823 -0.015732018 -0.080284975 0.049566932 0.025896942 0.055776685 0.13249458
-0.12547597 0.12550507 0.014915259 0.12775041 -0.09614839 0.08209845 0.052973546 -0.17270789
-0.16042039 0.0009843755 -0.16429497 -0.06534929 -0.084837414 -0.17486317 0.15642154 0.07203204
-0.075212926 0.029205227 0.1638559 0.040628314 -0.028092016 -0.04246781 0.123781 0.015918454
-0.06681897 0.1403975 0.009459405 -0.08015879 0.12593137 0.1523906 -0.0839798 0.16844514
0.018993722 0.16834462 0.059531994 -0.10617964 -0.15521276 0.150159 -0.01604734 -0.021140164
0.119121276 -0.107176945 0.10386856 -0.03564373 0.07082894 -0.16991504 -0.104361236 0.04686179
-0.03841673 -0.07452699 0.090905115 0.032641146 0.004593402 -0.15245743 -0.07180436 0.09991145
0.08304552 0.14233044 -0.107712924 0.12376495 -0.050069932 0.057773143 -0.15446639 0.054635335
-0.107588954 0.03728831 0.15197128 -0.020584457 -0.06868193 0.035384666 -0.11947663 0.011467488
-0.085869245 -0.1593326 -0.027154656 -0.13008216 -0.052976027 -0.028703855 0.14814667 -0.11375154
0.002568392 0.12177428 -0.028645739 -0.16265193 -0.09242257 0.1556907 -0.16717425 -0.111166105
0.03773758 0.15033726 -0.0082844775 -0.024833534 -0.06771477 0.04444125 0.115902 -0.014185026
00000000: 2e63 2b3e 71a9 0d3e 6b65 123e d43e 923d
00000010: 6b59 93bd b835 a2bc 0dc5 e53c fff8 40be
00000020: 29dd 15be 5ed5 c5bd 2ad2 0ebe 961d cf3c
00000030: beb6 45bd 7615 18be 5f76 b5bc ef71 ac3d
00000040: 231f d1bc 8656 113e eca9 ae3d 960d f33c
00000050: cee2 c2bd 3875 1d3e c484 dc3d 7175 0a3d
00000060: bbad 313d eefb 023d 74a7 603d 7936 08be
00000070: 6918 303d 029c 0fbe e8ea 173e 413a 9f3c
00000080: c03c 82bc 6dae 033e 6208 fd3c 7136 1bbe
00000090: faaf 34be c90e bbbd e574 8bbd 6b89 0ebe
000000a0: fed6 123c 323b 03be 9332 cf3d 19dd c1bd
000000b0: 8f72 16be 4eb8 91bd 04ef 07be ad48 ea3d
000000c0: c2ae 9a3d 7a24 44bd c849 983d 7c9d babc
000000d0: 74d6 063e 10cb 92bc 6c7f 193e 54de dabd
000000e0: 08b8 22be 04f2 623d fba7 bbbd e307 3639
000000f0: 0a44 88bc 7add 163d 7d9f 26bd 4027 fa3d
00000100: 2af7 f93c 5bf4 133e cee7 e83d a519 a83c
00000110: 49ef a7bd fe4b 3e3d d8db d53d cc0a 1c3e
00000120: 711e 1fbe 99b6 edbd 6c3d f3bb 4edc 1abe
00000130: 9883 ba3d da77 2cbc 12fb dc3d 6900 123e
00000140: 752d c73d d08f 70bd f1e9 343d 9888 663d
00000150: 5e80 9cbd 7059 90bd 43ba a6bd 4fde fdbd
00000160: 235f 2fbd face 6f3d d374 ce3d 0852 f23d
00000170: 2a1b d4bd 7c54 2b3e 264d 453d 320e 7cbb
00000180: 2544 a9bd 209c 393c 7747 dbbd d6b0 3dbe
00000190: bea8 31bd 327a 3e3e c852 b83d 3aca 6c3c
000001a0: 6b81 b43b be8c 80bd 39e4 2c3d e901 58bd
000001b0: 6d3f 17be a99a 1f3e d41d 86bd b52a 26be
000001c0: c9c2 913d 9bb8 0f3d eb42 383d 3e83 3fbe
000001d0: 43db 9bbc f7c6 123e 0aa9 e5bd 7cde 08be
000001e0: 90f4 d6bd 72b4 08be aafa 04bd ddb0 c33d
000001f0: 304d d53d 967e 1bbd 42b7 2fbd f27f 9f3d
00000200: 96d0 ed3d f1e8 edbd efe5 15be a9e2 bcbd
00000210: 186d 25be 098d e13d 0aa3 063e bc1f af3d
00000220: 37f5 943d e270 063e 9431 5abd a30a c0bb
00000230: ace3 26be 5eee 403d 50f9 d1bb f909 b63d
00000240: b90c e7bd 290a 2b3e 5c2e fdbc 9528 20be
00000250: cb09 05be 7150 913d 11f7 afbd 4efd 423d
00000260: f35d aabd 2116 3ebd 6fe0 80bc 736c a4bd
00000270: b206 4b3d d325 d43c 1876 643d a9ac 073e
00000280: c67c 00be 6784 003e 215f 743c 01d1 023e
00000290: 72e9 c4bd 3b23 a83d cafa 583d 56da 30be
000002a0: 3e45 24be 2906 813a f13c 28be d9d5 85bd
000002b0: 3dbf adbd 550f 33be f82c 203e 8985 933d
000002c0: 3c09 9abd cd3f ef3c d7c9 273e e069 263d
000002d0: 3a21 e6bc baf2 2dbd e580 fd3d 6b67 823c
000002e0: 62d8 88bd 5dc4 0f3e 9ffb 1a3c 4b2a a4bd
000002f0: 27f4 003e 480c 1c3e 9afd abbd e27c 2c3e
00000300: b998 9b3c 8862 2c3e d2d7 733d b674 d9bd
00000310: 18f0 1ebe 48c3 193e b675 83bc 232e adbc
00000320: dbf5 f33d 967f dbbd 0ab9 d43d 29ff 11bd
00000330: c30e 913d 35fe 2dbe 58bb d5bd 26f2 3f3d
00000340: dc5a 1dbd 9ba1 98bd 762c ba3d b9b2 053d
00000350: 4084 963b cd1d 1cbe 2a0e 93bd 609e cc3d
00000360: c513 aa3d 12bf 113e 9898 dcbd 7a78 fd3d
00000370: 2116 4dbd 88a3 6c3d 702c 1ebe 4dc9 5f3d
00000380: 9957 dcbd a0bb 183d 5c9e 1b3e bca0 a8bc
00000390: 1da9 8cbd 83ef 103d 2ab0 f4bd 21e2 3b3c
000003a0: 37dc afbd 1628 23be 7173 debc 4234 05be
000003b0: 64fd 58bd 5924 ebbc c3b3 173e 91f6 e8bd
000003c0: 7852 283b cb64 f93d 78aa eabc 3a8e 26be
000003d0: 0b48 bdbd 626d 1f3e ba2f 2bbe 0eab e3bd
000003e0: b892 1a3d 03f2 193e 9ebb 07bc b26f cbbc
000003f0: 0bae 8abd 0708 363d 075e ed3d 5068 68bc

encoders.0.attention.fc.bias f4 [32]
-0.14754742 -0.0918652 0.0020076176 0.05244661 0.16440202 0.032177247 -0.06506298 0.08362448
-0.05075388 -0.039396852 -0.10793631 0.13884123 -0.08317514 -0.14800802 0.04649665 -0.10766178
-0.15695411 0.07889824 0.11938614 -0.013985882 -0.07646887 -0.10092799 -0.07614257 -0.17412086
-0.08234189 0.056426812 -0.025442174 -0.08815736 -0.072901316 0.04948174 -0.00042633867 0.06888037
00000000: ac16 17be d223 bcbd 3c92 033b 42d2 563d
00000010: 0159 283e 4acc 033d bd3f 85bd 5043 ab3d
00000020: 4de3 4fbd 985e 21bd b60d ddbd 652c 0e3e
00000030: ba57 aabd 6a8f 17be 4573 3e3d c87d dcbd
00000040: 94b8 20be 6795 a13d b880 f43d 0a25 65bc
00000050: b69b 9cbd 56b3 cebd a3f0 9bbd bd4c 32be
00000060: dda2 a8bd cd1f 673d 1b6c d0bc d98b b4bd
00000070: 494d 95bd 5dad 4a3d 3586 dfb9 2711 8d3d

encoders.0.norm1.weight f4 [32]
0.9858088 1.0096029 1.0144949 0.98561203 0.98898935 1.0072905 0.98664 0.9974126
1.0115511 0.985585 0.9942197 1.0093251 0.9848424 1.0043533 1.0093843 0.9850386
0.98209304 1.0111758 1.0080202 0.98747545 1.0154647 1.0127529 1.0026659 1.0166247
0.9891439 0.990233 0.9893189 0.98786277 1.014362 0.9860507 1.0128374 1.012754
00000000: f75d 7c3f ab3a 813f f8da 813f 1251 7c3f
00000010: 682e 7d3f e5ee 803f 7094 7c3f 6f56 7f3f
00000020: 827a 813f 4c4f 7c3f 2f85 7e3f 9131 813f
00000030: a21e 7c3f a68e 803f 8133 813f 7d2b 7c3f
00000040: 736a 7b3f 356e 813f ce06 813f 31cb 7c3f
00000050: bffa 813f e3a1 813f 5b57 803f c220 823f
00000060: 8938 7d3f e97f 7d3f 0144 7d3f 93e4 7c3f
00000070: 9dd6 813f d26d 7c3f a8a4 813f eca1 813f

encoders.0.norm1.bias f4 [32]
-0.013794748 -0.012888617 0.009823219 -0.01310285 -0.007487289 -0.0058663157 0.012133042 0.007801758
0.014783195 0.013685802 0.0029859385 -0.013420705 0.002697975 0.016514113 -0.009889838 -0.014293238
0.0031889179 -0.010991018 0.014101528 -0.013454867 0.014683416 -0.0075547523 -0.013915067 -0.016788112
0.014635083 0.01461323 -0.008742864 -0.015297667 0.016165057 0.012357442 0.014434022 0.014304217
00000000: 5e03 62bc c72a 53bc 91f1 203c 56ad 56bc
00000010: ef57 f5bb 393a c0bb abc9 463c e4a5 ff3b
00000020: 3735 723c 6a3a 603c bcaf 433b 84e2 5bbc
00000030: 82d0 303b 9b48 873c fd08 22bc 2f2e 6abc
00000040: 2afd 503b ac13 34bc 180a 673c cd71 5cbc
00000050: b692 703c db8d f7bb 05fc 63bc 3987 89bc
00000060: fdc7 6f3c 546c 6f3c 3b3e 0fbc 11a3 7abc
00000070: 956c 843c de76 4a3c ad7c 6c3c 3c5c 6a3c

encoders.0.norm2.weight f4 [32]
0.98603415 1.0092905 1.0138291 0.9872965 0.9954037 0.98506457 0.9869082 0.9935118
1.0094877 0.98498905 0.98861164 1.012657 0.9844411 0.99815404 1.0135714 0.98688465
0.98426926 1.007412 1.0073411 1.0115107 1.0148939 1.0061414 0.9957494 1.0170423
0.99070656 0.98873156 0.9882002 0.9846963 1.0072484 0.98496956 1.0098053 1.0143291
00000000: bc6c 7c3f 6e30 813f 27c5 813f 77bf 7c3f
00000010: c7d2 7e3f 312d 7c3f 04a6 7c3f ca56 7e3f
00000020: e536 813f 3e28 7c3f a715 7d3f bf9e 813f
00000030: 5504 7c3f 0687 7f3f b5bc 813f 79a4 7c3f
00000040: 12f9 7b3f e0f2 803f 8ef0 803f 2f79 813f
00000050: 0be8 813f 3ec9 803f 6fe9 7e3f 712e 823f
00000060: f29e 7d3f 831d 7d3f b0fa 7c3f 0f15 7c3f
00000070: 84ed 803f f726 7c3f 4d41 813f 89d5 813f

encoders.0.norm2.bias f4 [32]
-0.014412297 -0.014823921 0.011640202 -0.012890841 -0.008068152 -0.003632545 0.0118784355 0.0049416185
0.014923089 0.015509597 0.0038446183 -0.013194499 0.0037133072 0.016485589 -0.009421637 -0.014410832
-0.0015121202 -0.011803318 0.014349553 -0.013126142 0.013943724 -0.013493921 -0.012797342 -0.016394574
0.015122705 0.013848065 -0.008211353 -0.01482863 0.015699437 0.008939726 0.01441439 0.013918437
00000000: 8e21 6cbc 08e0 72bc 8cb6 3e3c 1b34 53bc
00000010: 4830 04bc fe0f 6ebb c59d 423c 4ded a13b
00000020: f97f 743c f71b 7e3c fef5 7b3b bd2d 58bc
00000030: f55a 733b c90c 873c 365d 1abc 691b 6cbc
00000040: 5632 c6ba b462 41bc 631a 6b3c 080f 57bc
00000050: 3874 643c 9b15 5dbc f1ab 51bc ea4d 86bc
00000060: 39c5 773c ffe2 623c e988 06bc c8f3 72bc
00000070: 1b9c 803c ee77 123c 552a 6c3c 280a 643c

encoders.0.ff.0.weight f4 [128, 32]
0.09040895 -0.036347993 0.12940088 0.064749055 0.08857361 -0.15237033 0.14794399 0.085608974
0.0039469204 -0.15520874 -0.13661043 -0.12596492 0.085667424 -0.118362546 -0.15442732 0.029684188
-0.06726809 -0.10954329 -0.026345763 0.04446701 -0.09844662 0.05772518 0.05217049 -0.15365942
0.13544555 0.055145558 0.058937017 -0.014278399 0.1416141 0.16037853 0.15963382 0.00830063
-0.15067549 0.03295844 -0.14104475 0.07098505 0.11582174 -0.017704044 0.0497808 -0.06874822
0.14419615 0.06881723 -0.04682304 -0.036709208 -0.056177706 0.06596595 -0.15809548 -0.15226206
-0.06501778 -0.06129596 0.04353595 -0.18564281 -0.037191026 0.028721355 -0.09280753 0.09198646
-0.16372281 -0.039460473 -0.049571104 0.16286819 0.051306404 -0.11941417 0.040769465 0.14652751
-0.081290774 -0.12510602 0.082233556 0.08473958 -0.059478134 -0.079735465 0.10489828 -0.034905907
0.080194145 -0.11630681 0.12405182 -0.114128105 0.032101948 -0.043681383 0.10866564 0.09559717
-0.06026856 -0.019802628 0.04094969 -0.11295439 -0.02538903 0.08261019 -0.15604492 -0.039233036
0.11618929 -0.045134854 -0.07772704 0.052597996 -0.027092507 0.10842279 0.02011055 -0.017597897
0.05506621 0.15402249 -0.06076734 0.121544085 0.123146586 0.14124896 0.0604098 -0.000953301
-0.118572146 -0.16712028 0.08513507 -0.12505075 -0.14837411 -0.1714931 -0.09781864 -0.08760131
0.02856982 0.11945798 0.18499991 0.09904705 0.052799556 0.007300101 0.036316317 0.100547194
-0.09738774 0.14239986 -0.0017014564 0.10247244 0.002117594 0.14770697 -0.1442483 0.084903054
-0.094842635 -0.12828816 0.0056414898 -0.08818053 0.16831808 -0.05553661 -0.114122145 -0.12695709
0.11846603 -0.07230963 0.17386657 0.0919791 -0.18309414 -0.09224084 0.099411234 -0.018743185
0.14055924 -0.16006692 0.12594679 -0.028553205 -0.016062848 -0.1308701 -0.009587457 -0.04988444
-0.044493914 0.16753349 0.13165134 -0.14570364 0.09709439 -0.08471803 -0.14140935 0.09832842
0.11645639 0.031074833 -0.107683994 0.16744995 0.05152381 0.05906619 0.094475634 0.16459514
-0.032914598 0.14710689 -0.07209266 0.041284144 0.12666225 -0.1145254 0.07690427 0.046192575
-0.13976258 0.11410977 -0.08503342 -0.08223038 0.067274645 -0.16174446 -0.01187387 -0.16807413
-0.06730509 -0.06729608 0.15393929 0.06218261 -0.11992334 0.07625959 -0.07388829 -0.015883697
0.003376694 -0.0999227 -0.028565306 -0.16541833 0.08218213 -0.004102549 -0.072435826 -0.032218087
0.14098074 -0.110916086 0.11683622 -0.12271233 -0.023032317 0.021730484 -0.055237643 0.018977169
0.058993544 -0.110383384 -0.0898603 -0.06491534 0.046421226 -0.15925533 0.052590717 0.08452122
-0.11033707 0.008119957 -0.15505439 -0.15644571 -0.1244849 0.053555463 -0.058591615 -0.12158083
-0.10446211 -0.07499931 0.005280012 0.03245779 -0.039892696 0.16771252 -0.070765235 -0.059742697
0.06359706 -0.025512144 -0.08705739 -0.07408972 -0.0739978 0.09190445 -0.19030508 0.12356288
-0.15380642 0.18369956 -0.16368702 0.104421586 -0.16525695 0.10651646 0.013223085 0.0046755592
0.011642009 -0.017869163 -0.029980017 -0.08445642 -0.09849204 0.13515973 0.056579474 -0.10878081
00000000: 5428 b93d a2e1 14bd aa81 043e 279b 843d
00000010: 1566 b53d f806 1cbe a17e 173e c253 af3d
00000020: 2b55 813b 0aef 1ebe 9be3 0bbe f3fc 00be
00000030: 6772 af3d 1068 f2bd 3222 1ebe 412c f33c
00000040: dac3 89bd 3c58 e0bd 12d3 d7bc 0a23 363d
00000050: 629e c9bd 3d71 6c3d b9b0 553d e558 1dbe
00000060: 3db2 0a3e 4fe0 613d f167 713d f2ef 69bc
00000070: 4903 113e 453a 243e 0c77 233e 5eff 073c
00000080: ad4a 1abe 6eff 063d 096e 10be 9c60 913d
00000090: f333 ed3d 1208 91bc f4e6 4b3d decb 8cbd
000000a0: 28a8 133e 0cf0 8c3d 84c9 3fbd 655c 16bd
000000b0: 981a 66bd 2819 873d c8e3 21be 96ea 1bbe
000000c0: 0b28 85bd 7911 7bbd c152 323d 2619 3ebe
000000d0: 9e55 18bd 0c49 eb3c e011 bebd 6663 bc3d
000000e0: f4a6 27be 4ea1 21bd 120b 4bbd ebc6 263e
000000f0: aa26 523d 6b8f f4bd e2fd 263d 4f0b 163e
00000100: c77b a6bd cb1b 00be 116a a83d f28b ad3d
00000110: 589f 73bd 594c a3bd e9d4 d63d 7ff9 0ebd
00000120: d43c a43d 4432 eebd e10e fe3d ffbb e9bd
00000130: 557d 033d 40eb 32bd 178c de3d 73c8 c33d
00000140: 2adc 76bd 1f39 a2bc ddba 273d a254 e7bd
00000150: a8fc cfbc 882f a93d 3dca 1fbe d2b2 20bd
00000160: a7f4 ed3d 53df 38bd 5b2f 9fbd ff70 573d
00000170: 1bf1 ddbc c50c de3d e1be a43c 7729 90bc
00000180: 1b8d 613d 12b8 1d3e 2de7 78bd 1bec f83d
00000190: 4734 fc3d 91a3 103e 4470 773d f2e6 79ba
000001a0: f4d5 f2bd 9421 2bbe 4c5b ae3d 4e0d 00be
000001b0: 62ef 17be e39b 2fbe 2455 c8bd 5168 b3bd
000001c0: 410b ea3c 63a6 f43d 9e70 3d3e 2ed9 ca3d
000001d0: 5944 583d b035 ef3b 6bc0 143d b0eb cd3d
000001e0: 3973 c7bd 45d1 113e 6703 dfba 12dd d13d
000001f0: 55c7 0a3b 7f40 173e d4b5 13be a7e1 ad3d
00000200: db3c c2bd f95d 03be 3fdc b83b fe97 b4bd
00000210: 935b 2c3e 5b7a 63bd dfb8 e9bd 0a01 02be
00000220: 519e f23d 1217 94bd 140a 323e 8a5f bc3d
00000230: 087d 3bbe c4e8 bcbd 1e98 cb3d 4f8b 99bc
00000240: c3ee 0f3e 95e8 23be 32f8 003e 69e8 e9bc
00000250: 3c96 83bc d002 06be b614 1dbc a053 4cbd
00000260: 403f 36bd e68d 2b3e 9ccf 063e 5633 15be
00000270: 6cd9 c63d a680 adbd 9dcd 10be 6960 c93d
00000280: b080 ee3d a690 fe3c 6d89 dcbd 0078 2b3e
00000290: a10a 533d 64ef 713d 717c c13d a18b 283e
000002a0: 75d1 06bd 30a3 163e 51a5 93bd 9019 293d
000002b0: c0b3 013e 4b8c eabd fc7f 9d3d 6d34 3d3d
000002c0: ec1d 0fbe 62b2 e93d 0026 aebd 6768 a8bd
000002d0: 4ac7 893d 57a0 25be 9f8a 42bc a01b 2cbe
000002e0: 40d7 89bd 87d2 89bd 43a2 1d3e 31b3 7e3d
000002f0: 5e9a f5bd fd2d 9c3d be52 97bd 871e 82bc
00000300: 864b 5d3b 46a4 ccbd ca01 eabc 6c63 29be
00000310: 1b4f a83d ad6e 86bb 3c59 94bd 1df7 03bd
00000320: 415d 103e f927 e3bd d447 ef3d 9a50 fbbd
00000330: 45ae bcbc 2104 b23c de40 62bd 0276 9b3c
00000340: 37a3 713d af10 e2bd ad08 b8bd 55f2 84bd
00000350: 2f24 3e3d d413 23be 5d69 573d 7619 ad3d
00000360: 67f8 e1bd 9109 053c 94c6 1ebe 4e33 20be
00000370: f0f1 febd f95c 5b3d c3fd 6fbd 5fff f8bd
00000380: 3bf0 d5bd 3d99 99bd f303 ad3b 76f2 043d
00000390: 8666 23bd d5bc 2b3e 5ded 90bd c2b4 74bd
000003a0: 2d3f 823d d8fe d0bc 254b b2bd 5abc 97bd
000003b0: 298c 97bd 6638 bc3d 56df 42be 890e fd3d
000003c0: 6e7f 1dbe bd1b 3c3e 929d 27be fcda d53d
000003d0: 1e39 29be 4d25 da3d a3a5 583c 6f35 993b
000003e0: 20be 3e3c 5a62 92bc a798 f5bc 7df7 acbd
000003f0: 32b6 c9bd 5067 0a3e e1bf 673d 79c8 debd

encoders.0.ff.0.bias f4 [128]
-0.17445557 0.15611179 0.12808993 -0.084144935 0.09173188 0.044058163 -0.118648335 -0.064787425
0.12839662 0.102754444 -0.13345532 0.092210434 -0.022874482 0.18505569 -0.104504146 0.1118644
0.17141788 0.17646435 -0.12510309 -0.17142351 -0.029260993 -0.029624516 0.01018501 -0.14245398
0.11584911 -0.12163665 0.058200564 0.028728701 -0.054584723 -0.10596483 0.086550616 -0.16634984
-0.14765011 -0.14115018 -0.008987212 -0.16986914 -0.14238212 -0.046782658 -0.0070552165 -0.16055678
-0.061683897 -0.081007436 -0.076617375 -0.15631336 0.035512768 0.10744496 -0.18230094 0.13352188
0.12511982 -0.009460471 -0.02018223 0.00477952 -0.12056847 0.011896061 -0.10618913 -0.03612932
-0.03915285 -0.06863291 -0.07139499 -0.15023474 0.102898166 -0.09503097 0.12760012 -0.1278989
0.10176224 -0.11659595 0.05058278 -0.008056138 0.02938402 0.03771959 -0.13558322 -0.16201188
0.17898574 -0.055195548 0.03682403 -0.11109729 0.10738084 0.046379123 -0.17050746 -0.1504509
0.06058214 0.1157868 -0.09841648 0.17941771 0.033888496 0.00083589944 0.14577971 -0.12292165
-0.13964464 -0.117578045 -0.12078896 0.032463048 0.0121303145 -0.15812641 -0.016105706 0.08920394
0.061868552 -0.093724385 -0.061506577 -0.003966474 0.1238528 -0.17097796 -0.17216106 -0.014149981
-0.13212022 0.030510314 0.054826904 0.012624327 -0.116205744 0.04336894 -0.08468635 -0.124475904
-0.03399344 0.14908624 0.1102802 -0.014902724 -0.14918034 -0.096633255 0.16998516 0.15976392
0.051023643 0.11216314 0.120658256 -0.0063114855 0.052248996 0.070771806 0.09258581 0.15816326
00000000: 7ba4 32be c5db 1f3e 022a 033e 2e54 acbd
00000010: eddd bb3d 5576 343d e6fd f2bd 45af 84bd
00000020: 677a 033e ec70 d23d 83a8 08be d3d8 bc3d
00000030: 4463 bbbc 3d7f 3d3e 4506 d6bd 2a19 e53d
00000040: 2b88 2f3e 12b3 343e 061b 00be a589 2fbe
00000050: c0b4 efbc 1daf f2bc 07df 263c 75df 11be
00000060: 4c42 ed3d a31c f9bd b763 6e3d 7458 eb3c
00000070: 3b94 5fbd 1704 d9bd 7341 b13d 9d57 2abe
00000080: 9731 17be ac89 10be 193f 13bc 2df2 2dbe
00000090: 9ecc 11be 2c9f 3fbd 722f e7bb ff68 24be
000000a0: 41a8 7cbd 3ae7 a5bd 92e9 9cbd 9c10 20be
000000b0: d675 113d 1a0c dc3d 19ad 3abe f6b9 083e
000000c0: 691f 003e 1700 1bbc 3455 a5bc 859d 9c3b
000000d0: 9aec f6bd b2e7 423c b079 d9bd 56fc 13bd
000000e0: bd5e 20bd 698f 8cbd 8937 92bd 23d7 19be
000000f0: 46bc d23d 999f c2bd 9ba9 023e eef7 02be
00000100: b968 d03d dcc9 eebd e42f 4f3d e4fd 03bc
00000110: c2b6 f03c db7f 1a3d 54d6 0abe 71e6 25be
00000120: 0a48 373e ba14 62bd cbd4 163d fa86 e3bd
00000130: 7cea db3d 09f8 3d3d 8299 2ebe cd0f 1abe
00000140: fa24 783d a121 ed3d 948e c9bd 47b9 373e
00000150: aace 0a3d 4320 5b3a 4747 153e 59be fbbd
00000160: 01ff 0ebe c2cc f0bd 3460 f7bd f9f7 043d
00000170: 3abe 463c e4eb 21be 1df0 83bc 8eb0 b63d
00000180: e169 7d3d 92f2 bfbd 52ee 7bbd 32f9 81bb
00000190: 89a6 fd3d d914 2fbe fd4a 30be 52d5 67bc
000001a0: 864a 07be c4f0 f93c 2d92 603d 44d6 4e3c
000001b0: 47fd edbd a1a3 313d 0970 adbd 39ed febd
000001c0: b53c 0bbd 10aa 183e 96da e13d 8e2a 74bc
000001d0: bbc2 18be a8e7 c5bd 9710 2e3e 2799 233e
000001e0: 2bfe 503d cab5 e53d ad1b f73d 94d0 cebb
000001f0: 0b03 563d cff0 903d a19d bd3d 8df5 213e
